…
I0404 10:54:06.528220 31384 net.cpp:350] The NetState phase (0) differed from the phase (1) specified by a rule in layer accuracy
I0404 10:54:06.530354 31384 net.cpp:49] Initializing net from parameters: 
name: "DENSENET_201"
state {
  phase: TRAIN
}
layer {
  name: "data"
  type: "Data"
  top: "data"
  top: "label"
  include {
    phase: TRAIN
  }
  transform_param {
    mirror: true
    mean_file: "/home/ccf/CCF/Colorecal-cancer/SMU_data_V3/data/train_lmdb/trainset_mean.binaryproto"
  }
  data_param {
    source: "/home/ccf/CCF/Colorecal-cancer/SMU_data_V3/data/train_lmdb"
    batch_size: 16
    backend: LMDB
  }
}
layer {
  name: "conv1"
  type: "Convolution"
  bottom: "data"
  top: "conv1"
  convolution_param {
    num_output: 64
    bias_term: false
    pad: 3
    kernel_size: 7
    stride: 2
  }
}
layer {
  name: "conv1/bn"
  type: "BatchNorm"
  bottom: "conv1"
  top: "conv1/bn"
  batch_norm_param {
    eps: 1e-05
  }
}
layer {
  name: "conv1/scale"
  type: "Scale"
  bottom: "conv1/bn"
  top: "conv1/bn"
  scale_param {
    bias_term: true
  }
}
layer {
  name: "relu1"
  type: "ReLU"
  bottom: "conv1/bn"
  top: "conv1/bn"
}
layer {
  name: "pool1"
  type: "Pooling"
  bottom: "conv1/bn"
  top: "pool1"
  pooling_param {
    pool: MAX
    kernel_size: 3
    stride: 2
    pad: 1
    ceil_mode: false
  }
}
layer {
  name: "conv2_1/x1/bn"
  type: "BatchNorm"
  bottom: "pool1"
  top: "conv2_1/x1/bn"
  batch_norm_param {
    eps: 1e-05
  }
}
layer {
  name: "conv2_1/x1/scale"
  type: "Scale"
  bottom: "conv2_1/x1/bn"
  top: "conv2_1/x1/bn"
  scale_param {
    bias_term: true
  }
}
layer {
  name: "relu2_1/x1"
  type: "ReLU"
  bottom: "conv2_1/x1/bn"
  top: "conv2_1/x1/bn"
}
layer {
  name: "conv2_1/x1"
  type: "Convolution"
  bottom: "conv2_1/x1/bn"
  top: "conv2_1/x1"
  convolution_param {
    num_output: 128
    bias_term: false
    kernel_size: 1
  }
}
layer {
  name: "conv2_1/x2/bn"
  type: "BatchNorm"
  bottom: "conv2_1/x1"
  top: "conv2_1/x2/bn"
  batch_norm_param {
    eps: 1e-05
  }
}
layer {
  name: "conv2_1/x2/scale"
  type: "Scale"
  bottom: "conv2_1/x2/bn"
  top: "conv2_1/x2/bn"
  scale_param {
    bias_term: true
  }
}
layer {
  name: "relu2_1/x2"
  type: "ReLU"
  bottom: "conv2_1/x2/bn"
  top: "conv2_1/x2/bn"
}
layer {
  name: "conv2_1/x2"
  type: "Convolution"
  bottom: "conv2_1/x2/bn"
  top: "conv2_1/x2"
  convolution_param {
    num_output: 32
    bias_term: false
    pad: 1
    kernel_size: 3
  }
}
layer {
  name: "concat_2_1"
  type: "Concat"
  bottom: "pool1"
  bottom: "conv2_1/x2"
  top: "concat_2_1"
}
layer {
  name: "conv2_2/x1/bn"
  type: "BatchNorm"
  bottom: "concat_2_1"
  top: "conv2_2/x1/bn"
  batch_norm_param {
    eps: 1e-05
  }
}
layer {
  name: "conv2_2/x1/scale"
  type: "Scale"
  bottom: "conv2_2/x1/bn"
  top: "conv2_2/x1/bn"
  scale_param {
    bias_term: true
  }
}
layer {
  name: "relu2_2/x1"
  type: "ReLU"
  bottom: "conv2_2/x1/bn"
  top: "conv2_2/x1/bn"
}
layer {
  name: "conv2_2/x1"
  type: "Convolution"
  bottom: "conv2_2/x1/bn"
  top: "conv2_2/x1"
  convolution_param {
    num_output: 128
    bias_term: false
    kernel_size: 1
  }
}
layer {
  name: "conv2_2/x2/bn"
  type: "BatchNorm"
  bottom: "conv2_2/x1"
  top: "conv2_2/x2/bn"
  batch_norm_param {
    eps: 1e-05
  }
}
layer {
  name: "conv2_2/x2/scale"
  type: "Scale"
  bottom: "conv2_2/x2/bn"
  top: "conv2_2/x2/bn"
  scale_param {
    bias_term: true
  }
}
layer {
  name: "relu2_2/x2"
  type: "ReLU"
  bottom: "conv2_2/x2/bn"
  top: "conv2_2/x2/bn"
}
layer {
  name: "conv2_2/x2"
  type: "Convolution"
  bottom: "conv2_2/x2/bn"
  top: "conv2_2/x2"
  convolution_param {
    num_output: 32
    bias_term: false
    pad: 1
    kernel_size: 3
  }
}
layer {
  name: "concat_2_2"
  type: "Concat"
  bottom: "concat_2_1"
  bottom: "conv2_2/x2"
  top: "concat_2_2"
}
layer {
  name: "conv2_3/x1/bn"
  type: "BatchNorm"
  bottom: "concat_2_2"
  top: "conv2_3/x1/bn"
  batch_norm_param {
    eps: 1e-05
  }
}
layer {
  name: "conv2_3/x1/scale"
  type: "Scale"
  bottom: "conv2_3/x1/bn"
  top: "conv2_3/x1/bn"
  scale_param {
    bias_term: true
  }
}
layer {
  name: "relu2_3/x1"
  type: "ReLU"
  bottom: "conv2_3/x1/bn"
  top: "conv2_3/x1/bn"
}
layer {
  name: "conv2_3/x1"
  type: "Convolution"
  bottom: "conv2_3/x1/bn"
  top: "conv2_3/x1"
  convolution_param {
    num_output: 128
    bias_term: false
    kernel_size: 1
  }
}
layer {
  name: "conv2_3/x2/bn"
  type: "BatchNorm"
  bottom: "conv2_3/x1"
  top: "conv2_3/x2/bn"
  batch_norm_param {
    eps: 1e-05
  }
}
layer {
  name: "conv2_3/x2/scale"
  type: "Scale"
  bottom: "conv2_3/x2/bn"
  top: "conv2_3/x2/bn"
  scale_param {
    bias_term: true
  }
}
layer {
  name: "relu2_3/x2"
  type: "ReLU"
  bottom: "conv2_3/x2/bn"
  top: "conv2_3/x2/bn"
}
layer {
  name: "conv2_3/x2"
  type: "Convolution"
  bottom: "conv2_3/x2/bn"
  top: "conv2_3/x2"
  convolution_param {
    num_output: 32
    bias_term: false
    pad: 1
    kernel_size: 3
  }
}
layer {
  name: "concat_2_3"
  type: "Concat"
  bottom: "concat_2_2"
  bottom: "conv2_3/x2"
  top: "concat_2_3"
}
layer {
  name: "conv2_4/x1/bn"
  type: "BatchNorm"
  bottom: "concat_2_3"
  top: "conv2_4/x1/bn"
  batch_norm_param {
    eps: 1e-05
  }
}
layer {
  name: "conv2_4/x1/scale"
  type: "Scale"
  bottom: "conv2_4/x1/bn"
  top: "conv2_4/x1/bn"
  scale_param {
    bias_term: true
  }
}
layer {
  name: "relu2_4/x1"
  type: "ReLU"
  bottom: "conv2_4/x1/bn"
  top: "conv2_4/x1/bn"
}
layer {
  name: "conv2_4/x1"
  type: "Convolution"
  bottom: "conv2_4/x1/bn"
  top: "conv2_4/x1"
  convolution_param {
    num_output: 128
    bias_term: false
    kernel_size: 1
  }
}
layer {
  name: "conv2_4/x2/bn"
  type: "BatchNorm"
  bottom: "conv2_4/x1"
  top: "conv2_4/x2/bn"
  batch_norm_param {
    eps: 1e-05
  }
}
layer {
  name: "conv2_4/x2/scale"
  type: "Scale"
  bottom: "conv2_4/x2/bn"
  top: "conv2_4/x2/bn"
  scale_param {
    bias_term: true
  }
}
layer {
  name: "relu2_4/x2"
  type: "ReLU"
  bottom: "conv2_4/x2/bn"
  top: "conv2_4/x2/bn"
}
layer {
  name: "conv2_4/x2"
  type: "Convolution"
  bottom: "conv2_4/x2/bn"
  top: "conv2_4/x2"
  convolution_param {
    num_output: 32
    bias_term: false
    pad: 1
    kernel_size: 3
  }
}
layer {
  name: "concat_2_4"
  type: "Concat"
  bottom: "concat_2_3"
  bottom: "conv2_4/x2"
  top: "concat_2_4"
}
layer {
  name: "conv2_5/x1/bn"
  type: "BatchNorm"
  bottom: "concat_2_4"
  top: "conv2_5/x1/bn"
  batch_norm_param {
    eps: 1e-05
  }
}
layer {
  name: "conv2_5/x1/scale"
  type: "Scale"
  bottom: "conv2_5/x1/bn"
  top: "conv2_5/x1/bn"
  scale_param {
    bias_term: true
  }
}
layer {
  name: "relu2_5/x1"
  type: "ReLU"
  bottom: "conv2_5/x1/bn"
  top: "conv2_5/x1/bn"
}
layer {
  name: "conv2_5/x1"
  type: "Convolution"
  bottom: "conv2_5/x1/bn"
  top: "conv2_5/x1"
  convolution_param {
    num_output: 128
    bias_term: false
    kernel_size: 1
  }
}
layer {
  name: "conv2_5/x2/bn"
  type: "BatchNorm"
  bottom: "conv2_5/x1"
  top: "conv2_5/x2/bn"
  batch_norm_param {
    eps: 1e-05
  }
}
layer {
  name: "conv2_5/x2/scale"
  type: "Scale"
  bottom: "conv2_5/x2/bn"
  top: "conv2_5/x2/bn"
  scale_param {
    bias_term: true
  }
}
layer {
  name: "relu2_5/x2"
  type: "ReLU"
  bottom: "conv2_5/x2/bn"
  top: "conv2_5/x2/bn"
}
layer {
  name: "conv2_5/x2"
  type: "Convolution"
  bottom: "conv2_5/x2/bn"
  top: "conv2_5/x2"
  convolution_param {
    num_output: 32
    bias_term: false
    pad: 1
    kernel_size: 3
  }
}
layer {
  name: "concat_2_5"
  type: "Concat"
  bottom: "concat_2_4"
  bottom: "conv2_5/x2"
  top: "concat_2_5"
}
layer {
  name: "conv2_6/x1/bn"
  type: "BatchNorm"
  bottom: "concat_2_5"
  top: "conv2_6/x1/bn"
  batch_norm_param {
    eps: 1e-05
  }
}
layer {
  name: "conv2_6/x1/scale"
  type: "Scale"
  bottom: "conv2_6/x1/bn"
  top: "conv2_6/x1/bn"
  scale_param {
    bias_term: true
  }
}
layer {
  name: "relu2_6/x1"
  type: "ReLU"
  bottom: "conv2_6/x1/bn"
  top: "conv2_6/x1/bn"
}
layer {
  name: "conv2_6/x1"
  type: "Convolution"
  bottom: "conv2_6/x1/bn"
  top: "conv2_6/x1"
  convolution_param {
    num_output: 128
    bias_term: false
    kernel_size: 1
  }
}
layer {
  name: "conv2_6/x2/bn"
  type: "BatchNorm"
  bottom: "conv2_6/x1"
  top: "conv2_6/x2/bn"
  batch_norm_param {
    eps: 1e-05
  }
}
layer {
  name: "conv2_6/x2/scale"
  type: "Scale"
  bottom: "conv2_6/x2/bn"
  top: "conv2_6/x2/bn"
  scale_param {
    bias_term: true
  }
}
layer {
  name: "relu2_6/x2"
  type: "ReLU"
  bottom: "conv2_6/x2/bn"
  top: "conv2_6/x2/bn"
}
layer {
  name: "conv2_6/x2"
  type: "Convolution"
  bottom: "conv2_6/x2/bn"
  top: "conv2_6/x2"
  convolution_param {
    num_output: 32
    bias_term: false
    pad: 1
    kernel_size: 3
  }
}
layer {
  name: "concat_2_6"
  type: "Concat"
  bottom: "concat_2_5"
  bottom: "conv2_6/x2"
  top: "concat_2_6"
}
layer {
  name: "conv2_6/blk/bn"
  type: "BatchNorm"
  bottom: "concat_2_6"
  top: "conv2_6/blk/bn"
  batch_norm_param {
    eps: 1e-05
  }
}
layer {
  name: "conv2_6/blk/scale"
  type: "Scale"
  bottom: "conv2_6/blk/bn"
  top: "conv2_6/blk/bn"
  scale_param {
    bias_term: true
  }
}
layer {
  name: "relu2_6/blk"
  type: "ReLU"
  bottom: "conv2_6/blk/bn"
  top: "conv2_6/blk/bn"
}
layer {
  name: "conv2_6/blk"
  type: "Convolution"
  bottom: "conv2_6/blk/bn"
  top: "conv2_6/blk"
  convolution_param {
    num_output: 128
    bias_term: false
    kernel_size: 1
  }
}
layer {
  name: "pool2_6"
  type: "Pooling"
  bottom: "conv2_6/blk"
  top: "pool2_6"
  pooling_param {
    pool: AVE
    kernel_size: 2
    stride: 2
  }
}
layer {
  name: "conv3_1/x1/bn"
  type: "BatchNorm"
  bottom: "pool2_6"
  top: "conv3_1/x1/bn"
  batch_norm_param {
    eps: 1e-05
  }
}
layer {
  name: "conv3_1/x1/scale"
  type: "Scale"
  bottom: "conv3_1/x1/bn"
  top: "conv3_1/x1/bn"
  scale_param {
    bias_term: true
  }
}
layer {
  name: "relu3_1/x1"
  type: "ReLU"
  bottom: "conv3_1/x1/bn"
  top: "conv3_1/x1/bn"
}
layer {
  name: "conv3_1/x1"
  type: "Convolution"
  bottom: "conv3_1/x1/bn"
  top: "conv3_1/x1"
  convolution_param {
    num_output: 128
    bias_term: false
    kernel_size: 1
  }
}
layer {
  name: "conv3_1/x2/bn"
  type: "BatchNorm"
  bottom: "conv3_1/x1"
  top: "conv3_1/x2/bn"
  batch_norm_param {
    eps: 1e-05
  }
}
layer {
  name: "conv3_1/x2/scale"
  type: "Scale"
  bottom: "conv3_1/x2/bn"
  top: "conv3_1/x2/bn"
  scale_param {
    bias_term: true
  }
}
layer {
  name: "relu3_1/x2"
  type: "ReLU"
  bottom: "conv3_1/x2/bn"
  top: "conv3_1/x2/bn"
}
layer {
  name: "conv3_1/x2"
  type: "Convolution"
  bottom: "conv3_1/x2/bn"
  top: "conv3_1/x2"
  convolution_param {
    num_output: 32
    bias_term: false
    pad: 1
    kernel_size: 3
  }
}
layer {
  name: "concat_3_1"
  type: "Concat"
  bottom: "pool2_6"
  bottom: "conv3_1/x2"
  top: "concat_3_1"
}
layer {
  name: "conv3_2/x1/bn"
  type: "BatchNorm"
  bottom: "concat_3_1"
  top: "conv3_2/x1/bn"
  batch_norm_param {
    eps: 1e-05
  }
}
layer {
  name: "conv3_2/x1/scale"
  type: "Scale"
  bottom: "conv3_2/x1/bn"
  top: "conv3_2/x1/bn"
  scale_param {
    bias_term: true
  }
}
layer {
  name: "relu3_2/x1"
  type: "ReLU"
  bottom: "conv3_2/x1/bn"
  top: "conv3_2/x1/bn"
}
layer {
  name: "conv3_2/x1"
  type: "Convolution"
  bottom: "conv3_2/x1/bn"
  top: "conv3_2/x1"
  convolution_param {
    num_output: 128
    bias_term: false
    kernel_size: 1
  }
}
layer {
  name: "conv3_2/x2/bn"
  type: "BatchNorm"
  bottom: "conv3_2/x1"
  top: "conv3_2/x2/bn"
  batch_norm_param {
    eps: 1e-05
  }
}
layer {
  name: "conv3_2/x2/scale"
  type: "Scale"
  bottom: "conv3_2/x2/bn"
  top: "conv3_2/x2/bn"
  scale_param {
    bias_term: true
  }
}
layer {
  name: "relu3_2/x2"
  type: "ReLU"
  bottom: "conv3_2/x2/bn"
  top: "conv3_2/x2/bn"
}
layer {
  name: "conv3_2/x2"
  type: "Convolution"
  bottom: "conv3_2/x2/bn"
  top: "conv3_2/x2"
  convolution_param {
    num_output: 32
    bias_term: false
    pad: 1
    kernel_size: 3
  }
}
layer {
  name: "concat_3_2"
  type: "Concat"
  bottom: "concat_3_1"
  bottom: "conv3_2/x2"
  top: "concat_3_2"
}
layer {
  name: "conv3_3/x1/bn"
  type: "BatchNorm"
  bottom: "concat_3_2"
  top: "conv3_3/x1/bn"
  batch_norm_param {
    eps: 1e-05
  }
}
layer {
  name: "conv3_3/x1/scale"
  type: "Scale"
  bottom: "conv3_3/x1/bn"
  top: "conv3_3/x1/bn"
  scale_param {
    bias_term: true
  }
}
layer {
  name: "relu3_3/x1"
  type: "ReLU"
  bottom: "conv3_3/x1/bn"
  top: "conv3_3/x1/bn"
}
layer {
  name: "conv3_3/x1"
  type: "Convolution"
  bottom: "conv3_3/x1/bn"
  top: "conv3_3/x1"
  convolution_param {
    num_output: 128
    bias_term: false
    kernel_size: 1
  }
}
layer {
  name: "conv3_3/x2/bn"
  type: "BatchNorm"
  bottom: "conv3_3/x1"
  top: "conv3_3/x2/bn"
  batch_norm_param {
    eps: 1e-05
  }
}
layer {
  name: "conv3_3/x2/scale"
  type: "Scale"
  bottom: "conv3_3/x2/bn"
  top: "conv3_3/x2/bn"
  scale_param {
    bias_term: true
  }
}
layer {
  name: "relu3_3/x2"
  type: "ReLU"
  bottom: "conv3_3/x2/bn"
  top: "conv3_3/x2/bn"
}
layer {
  name: "conv3_3/x2"
  type: "Convolution"
  bottom: "conv3_3/x2/bn"
  top: "conv3_3/x2"
  convolution_param {
    num_output: 32
    bias_term: false
    pad: 1
    kernel_size: 3
  }
}
layer {
  name: "concat_3_3"
  type: "Concat"
  bottom: "concat_3_2"
  bottom: "conv3_3/x2"
  top: "concat_3_3"
}
layer {
  name: "conv3_4/x1/bn"
  type: "BatchNorm"
  bottom: "concat_3_3"
  top: "conv3_4/x1/bn"
  batch_norm_param {
    eps: 1e-05
  }
}
layer {
  name: "conv3_4/x1/scale"
  type: "Scale"
  bottom: "conv3_4/x1/bn"
  top: "conv3_4/x1/bn"
  scale_param {
    bias_term: true
  }
}
layer {
  name: "relu3_4/x1"
  type: "ReLU"
  bottom: "conv3_4/x1/bn"
  top: "conv3_4/x1/bn"
}
layer {
  name: "conv3_4/x1"
  type: "Convolution"
  bottom: "conv3_4/x1/bn"
  top: "conv3_4/x1"
  convolution_param {
    num_output: 128
    bias_term: false
    kernel_size: 1
  }
}
layer {
  name: "conv3_4/x2/bn"
  type: "BatchNorm"
  bottom: "conv3_4/x1"
  top: "conv3_4/x2/bn"
  batch_norm_param {
    eps: 1e-05
  }
}
layer {
  name: "conv3_4/x2/scale"
  type: "Scale"
  bottom: "conv3_4/x2/bn"
  top: "conv3_4/x2/bn"
  scale_param {
    bias_term: true
  }
}
layer {
  name: "relu3_4/x2"
  type: "ReLU"
  bottom: "conv3_4/x2/bn"
  top: "conv3_4/x2/bn"
}
layer {
  name: "conv3_4/x2"
  type: "Convolution"
  bottom: "conv3_4/x2/bn"
  top: "conv3_4/x2"
  convolution_param {
    num_output: 32
    bias_term: false
    pad: 1
    kernel_size: 3
  }
}
layer {
  name: "concat_3_4"
  type: "Concat"
  bottom: "concat_3_3"
  bottom: "conv3_4/x2"
  top: "concat_3_4"
}
layer {
  name: "conv3_5/x1/bn"
  type: "BatchNorm"
  bottom: "concat_3_4"
  top: "conv3_5/x1/bn"
  batch_norm_param {
    eps: 1e-05
  }
}
layer {
  name: "conv3_5/x1/scale"
  type: "Scale"
  bottom: "conv3_5/x1/bn"
  top: "conv3_5/x1/bn"
  scale_param {
    bias_term: true
  }
}
layer {
  name: "relu3_5/x1"
  type: "ReLU"
  bottom: "conv3_5/x1/bn"
  top: "conv3_5/x1/bn"
}
layer {
  name: "conv3_5/x1"
  type: "Convolution"
  bottom: "conv3_5/x1/bn"
  top: "conv3_5/x1"
  convolution_param {
    num_output: 128
    bias_term: false
    kernel_size: 1
  }
}
layer {
  name: "conv3_5/x2/bn"
  type: "BatchNorm"
  bottom: "conv3_5/x1"
  top: "conv3_5/x2/bn"
  batch_norm_param {
    eps: 1e-05
  }
}
layer {
  name: "conv3_5/x2/scale"
  type: "Scale"
  bottom: "conv3_5/x2/bn"
  top: "conv3_5/x2/bn"
  scale_param {
    bias_term: true
  }
}
layer {
  name: "relu3_5/x2"
  type: "ReLU"
  bottom: "conv3_5/x2/bn"
  top: "conv3_5/x2/bn"
}
layer {
  name: "conv3_5/x2"
  type: "Convolution"
  bottom: "conv3_5/x2/bn"
  top: "conv3_5/x2"
  convolution_param {
    num_output: 32
    bias_term: false
    pad: 1
    kernel_size: 3
  }
}
layer {
  name: "concat_3_5"
  type: "Concat"
  bottom: "concat_3_4"
  bottom: "conv3_5/x2"
  top: "concat_3_5"
}
layer {
  name: "conv3_6/x1/bn"
  type: "BatchNorm"
  bottom: "concat_3_5"
  top: "conv3_6/x1/bn"
  batch_norm_param {
    eps: 1e-05
  }
}
layer {
  name: "conv3_6/x1/scale"
  type: "Scale"
  bottom: "conv3_6/x1/bn"
  top: "conv3_6/x1/bn"
  scale_param {
    bias_term: true
  }
}
layer {
  name: "relu3_6/x1"
  type: "ReLU"
  bottom: "conv3_6/x1/bn"
  top: "conv3_6/x1/bn"
}
layer {
  name: "conv3_6/x1"
  type: "Convolution"
  bottom: "conv3_6/x1/bn"
  top: "conv3_6/x1"
  convolution_param {
    num_output: 128
    bias_term: false
    kernel_size: 1
  }
}
layer {
  name: "conv3_6/x2/bn"
  type: "BatchNorm"
  bottom: "conv3_6/x1"
  top: "conv3_6/x2/bn"
  batch_norm_param {
    eps: 1e-05
  }
}
layer {
  name: "conv3_6/x2/scale"
  type: "Scale"
  bottom: "conv3_6/x2/bn"
  top: "conv3_6/x2/bn"
  scale_param {
    bias_term: true
  }
}
layer {
  name: "relu3_6/x2"
  type: "ReLU"
  bottom: "conv3_6/x2/bn"
  top: "conv3_6/x2/bn"
}
layer {
  name: "conv3_6/x2"
  type: "Convolution"
  bottom: "conv3_6/x2/bn"
  top: "conv3_6/x2"
  convolution_param {
    num_output: 32
    bias_term: false
    pad: 1
    kernel_size: 3
  }
}
layer {
  name: "concat_3_6"
  type: "Concat"
  bottom: "concat_3_5"
  bottom: "conv3_6/x2"
  top: "concat_3_6"
}
layer {
  name: "conv3_7/x1/bn"
  type: "BatchNorm"
  bottom: "concat_3_6"
  top: "conv3_7/x1/bn"
  batch_norm_param {
    eps: 1e-05
  }
}
layer {
  name: "conv3_7/x1/scale"
  type: "Scale"
  bottom: "conv3_7/x1/bn"
  top: "conv3_7/x1/bn"
  scale_param {
    bias_term: true
  }
}
layer {
  name: "relu3_7/x1"
  type: "ReLU"
  bottom: "conv3_7/x1/bn"
  top: "conv3_7/x1/bn"
}
layer {
  name: "conv3_7/x1"
  type: "Convolution"
  bottom: "conv3_7/x1/bn"
  top: "conv3_7/x1"
  convolution_param {
    num_output: 128
    bias_term: false
    kernel_size: 1
  }
}
layer {
  name: "conv3_7/x2/bn"
  type: "BatchNorm"
  bottom: "conv3_7/x1"
  top: "conv3_7/x2/bn"
  batch_norm_param {
    eps: 1e-05
  }
}
layer {
  name: "conv3_7/x2/scale"
  type: "Scale"
  bottom: "conv3_7/x2/bn"
  top: "conv3_7/x2/bn"
  scale_param {
    bias_term: true
  }
}
layer {
  name: "relu3_7/x2"
  type: "ReLU"
  bottom: "conv3_7/x2/bn"
  top: "conv3_7/x2/bn"
}
layer {
  name: "conv3_7/x2"
  type: "Convolution"
  bottom: "conv3_7/x2/bn"
  top: "conv3_7/x2"
  convolution_param {
    num_output: 32
    bias_term: false
    pad: 1
    kernel_size: 3
  }
}
layer {
  name: "concat_3_7"
  type: "Concat"
  bottom: "concat_3_6"
  bottom: "conv3_7/x2"
  top: "concat_3_7"
}
layer {
  name: "conv3_8/x1/bn"
  type: "BatchNorm"
  bottom: "concat_3_7"
  top: "conv3_8/x1/bn"
  batch_norm_param {
    eps: 1e-05
  }
}
layer {
  name: "conv3_8/x1/scale"
  type: "Scale"
  bottom: "conv3_8/x1/bn"
  top: "conv3_8/x1/bn"
  scale_param {
    bias_term: true
  }
}
layer {
  name: "relu3_8/x1"
  type: "ReLU"
  bottom: "conv3_8/x1/bn"
  top: "conv3_8/x1/bn"
}
layer {
  name: "conv3_8/x1"
  type: "Convolution"
  bottom: "conv3_8/x1/bn"
  top: "conv3_8/x1"
  convolution_param {
    num_output: 128
    bias_term: false
    kernel_size: 1
  }
}
layer {
  name: "conv3_8/x2/bn"
  type: "BatchNorm"
  bottom: "conv3_8/x1"
  top: "conv3_8/x2/bn"
  batch_norm_param {
    eps: 1e-05
  }
}
layer {
  name: "conv3_8/x2/scale"
  type: "Scale"
  bottom: "conv3_8/x2/bn"
  top: "conv3_8/x2/bn"
  scale_param {
    bias_term: true
  }
}
layer {
  name: "relu3_8/x2"
  type: "ReLU"
  bottom: "conv3_8/x2/bn"
  top: "conv3_8/x2/bn"
}
layer {
  name: "conv3_8/x2"
  type: "Convolution"
  bottom: "conv3_8/x2/bn"
  top: "conv3_8/x2"
  convolution_param {
    num_output: 32
    bias_term: false
    pad: 1
    kernel_size: 3
  }
}
layer {
  name: "concat_3_8"
  type: "Concat"
  bottom: "concat_3_7"
  bottom: "conv3_8/x2"
  top: "concat_3_8"
}
layer {
  name: "conv3_9/x1/bn"
  type: "BatchNorm"
  bottom: "concat_3_8"
  top: "conv3_9/x1/bn"
  batch_norm_param {
    eps: 1e-05
  }
}
layer {
  name: "conv3_9/x1/scale"
  type: "Scale"
  bottom: "conv3_9/x1/bn"
  top: "conv3_9/x1/bn"
  scale_param {
    bias_term: true
  }
}
layer {
  name: "relu3_9/x1"
  type: "ReLU"
  bottom: "conv3_9/x1/bn"
  top: "conv3_9/x1/bn"
}
layer {
  name: "conv3_9/x1"
  type: "Convolution"
  bottom: "conv3_9/x1/bn"
  top: "conv3_9/x1"
  convolution_param {
    num_output: 128
    bias_term: false
    kernel_size: 1
  }
}
layer {
  name: "conv3_9/x2/bn"
  type: "BatchNorm"
  bottom: "conv3_9/x1"
  top: "conv3_9/x2/bn"
  batch_norm_param {
    eps: 1e-05
  }
}
layer {
  name: "conv3_9/x2/scale"
  type: "Scale"
  bottom: "conv3_9/x2/bn"
  top: "conv3_9/x2/bn"
  scale_param {
    bias_term: true
  }
}
layer {
  name: "relu3_9/x2"
  type: "ReLU"
  bottom: "conv3_9/x2/bn"
  top: "conv3_9/x2/bn"
}
layer {
  name: "conv3_9/x2"
  type: "Convolution"
  bottom: "conv3_9/x2/bn"
  top: "conv3_9/x2"
  convolution_param {
    num_output: 32
    bias_term: false
    pad: 1
    kernel_size: 3
  }
}
layer {
  name: "concat_3_9"
  type: "Concat"
  bottom: "concat_3_8"
  bottom: "conv3_9/x2"
  top: "concat_3_9"
}
layer {
  name: "conv3_10/x1/bn"
  type: "BatchNorm"
  bottom: "concat_3_9"
  top: "conv3_10/x1/bn"
  batch_norm_param {
    eps: 1e-05
  }
}
layer {
  name: "conv3_10/x1/scale"
  type: "Scale"
  bottom: "conv3_10/x1/bn"
  top: "conv3_10/x1/bn"
  scale_param {
    bias_term: true
  }
}
layer {
  name: "relu3_10/x1"
  type: "ReLU"
  bottom: "conv3_10/x1/bn"
  top: "conv3_10/x1/bn"
}
layer {
  name: "conv3_10/x1"
  type: "Convolution"
  bottom: "conv3_10/x1/bn"
  top: "conv3_10/x1"
  convolution_param {
    num_output: 128
    bias_term: false
    kernel_size: 1
  }
}
layer {
  name: "conv3_10/x2/bn"
  type: "BatchNorm"
  bottom: "conv3_10/x1"
  top: "conv3_10/x2/bn"
  batch_norm_param {
    eps: 1e-05
  }
}
layer {
  name: "conv3_10/x2/scale"
  type: "Scale"
  bottom: "conv3_10/x2/bn"
  top: "conv3_10/x2/bn"
  scale_param {
    bias_term: true
  }
}
layer {
  name: "relu3_10/x2"
  type: "ReLU"
  bottom: "conv3_10/x2/bn"
  top: "conv3_10/x2/bn"
}
layer {
  name: "conv3_10/x2"
  type: "Convolution"
  bottom: "conv3_10/x2/bn"
  top: "conv3_10/x2"
  convolution_param {
    num_output: 32
    bias_term: false
    pad: 1
    kernel_size: 3
  }
}
layer {
  name: "concat_3_10"
  type: "Concat"
  bottom: "concat_3_9"
  bottom: "conv3_10/x2"
  top: "concat_3_10"
}
layer {
  name: "conv3_11/x1/bn"
  type: "BatchNorm"
  bottom: "concat_3_10"
  top: "conv3_11/x1/bn"
  batch_norm_param {
    eps: 1e-05
  }
}
layer {
  name: "conv3_11/x1/scale"
  type: "Scale"
  bottom: "conv3_11/x1/bn"
  top: "conv3_11/x1/bn"
  scale_param {
    bias_term: true
  }
}
layer {
  name: "relu3_11/x1"
  type: "ReLU"
  bottom: "conv3_11/x1/bn"
  top: "conv3_11/x1/bn"
}
layer {
  name: "conv3_11/x1"
  type: "Convolution"
  bottom: "conv3_11/x1/bn"
  top: "conv3_11/x1"
  convolution_param {
    num_output: 128
    bias_term: false
    kernel_size: 1
  }
}
layer {
  name: "conv3_11/x2/bn"
  type: "BatchNorm"
  bottom: "conv3_11/x1"
  top: "conv3_11/x2/bn"
  batch_norm_param {
    eps: 1e-05
  }
}
layer {
  name: "conv3_11/x2/scale"
  type: "Scale"
  bottom: "conv3_11/x2/bn"
  top: "conv3_11/x2/bn"
  scale_param {
    bias_term: true
  }
}
layer {
  name: "relu3_11/x2"
  type: "ReLU"
  bottom: "conv3_11/x2/bn"
  top: "conv3_11/x2/bn"
}
layer {
  name: "conv3_11/x2"
  type: "Convolution"
  bottom: "conv3_11/x2/bn"
  top: "conv3_11/x2"
  convolution_param {
    num_output: 32
    bias_term: false
    pad: 1
    kernel_size: 3
  }
}
layer {
  name: "concat_3_11"
  type: "Concat"
  bottom: "concat_3_10"
  bottom: "conv3_11/x2"
  top: "concat_3_11"
}
layer {
  name: "conv3_12/x1/bn"
  type: "BatchNorm"
  bottom: "concat_3_11"
  top: "conv3_12/x1/bn"
  batch_norm_param {
    eps: 1e-05
  }
}
layer {
  name: "conv3_12/x1/scale"
  type: "Scale"
  bottom: "conv3_12/x1/bn"
  top: "conv3_12/x1/bn"
  scale_param {
    bias_term: true
  }
}
layer {
  name: "relu3_12/x1"
  type: "ReLU"
  bottom: "conv3_12/x1/bn"
  top: "conv3_12/x1/bn"
}
layer {
  name: "conv3_12/x1"
  type: "Convolution"
  bottom: "conv3_12/x1/bn"
  top: "conv3_12/x1"
  convolution_param {
    num_output: 128
    bias_term: false
    kernel_size: 1
  }
}
layer {
  name: "conv3_12/x2/bn"
  type: "BatchNorm"
  bottom: "conv3_12/x1"
  top: "conv3_12/x2/bn"
  batch_norm_param {
    eps: 1e-05
  }
}
layer {
  name: "conv3_12/x2/scale"
  type: "Scale"
  bottom: "conv3_12/x2/bn"
  top: "conv3_12/x2/bn"
  scale_param {
    bias_term: true
  }
}
layer {
  name: "relu3_12/x2"
  type: "ReLU"
  bottom: "conv3_12/x2/bn"
  top: "conv3_12/x2/bn"
}
layer {
  name: "conv3_12/x2"
  type: "Convolution"
  bottom: "conv3_12/x2/bn"
  top: "conv3_12/x2"
  convolution_param {
    num_output: 32
    bias_term: false
    pad: 1
    kernel_size: 3
  }
}
layer {
  name: "concat_3_12"
  type: "Concat"
  bottom: "concat_3_11"
  bottom: "conv3_12/x2"
  top: "concat_3_12"
}
layer {
  name: "conv3_12/blk/bn"
  type: "BatchNorm"
  bottom: "concat_3_12"
  top: "conv3_12/blk/bn"
  batch_norm_param {
    eps: 1e-05
  }
}
layer {
  name: "conv3_12/blk/scale"
  type: "Scale"
  bottom: "conv3_12/blk/bn"
  top: "conv3_12/blk/bn"
  scale_param {
    bias_term: true
  }
}
layer {
  name: "relu3_12/blk"
  type: "ReLU"
  bottom: "conv3_12/blk/bn"
  top: "conv3_12/blk/bn"
}
layer {
  name: "conv3_12/blk"
  type: "Convolution"
  bottom: "conv3_12/blk/bn"
  top: "conv3_12/blk"
  convolution_param {
    num_output: 256
    bias_term: false
    kernel_size: 1
  }
}
layer {
  name: "pool3_12"
  type: "Pooling"
  bottom: "conv3_12/blk"
  top: "pool3_12"
  pooling_param {
    pool: AVE
    kernel_size: 2
    stride: 2
  }
}
layer {
  name: "conv4_1/x1/bn"
  type: "BatchNorm"
  bottom: "pool3_12"
  top: "conv4_1/x1/bn"
  batch_norm_param {
    eps: 1e-05
  }
}
layer {
  name: "conv4_1/x1/scale"
  type: "Scale"
  bottom: "conv4_1/x1/bn"
  top: "conv4_1/x1/bn"
  scale_param {
    bias_term: true
  }
}
layer {
  name: "relu4_1/x1"
  type: "ReLU"
  bottom: "conv4_1/x1/bn"
  top: "conv4_1/x1/bn"
}
layer {
  name: "conv4_1/x1"
  type: "Convolution"
  bottom: "conv4_1/x1/bn"
  top: "conv4_1/x1"
  convolution_param {
    num_output: 128
    bias_term: false
    kernel_size: 1
  }
}
layer {
  name: "conv4_1/x2/bn"
  type: "BatchNorm"
  bottom: "conv4_1/x1"
  top: "conv4_1/x2/bn"
  batch_norm_param {
    eps: 1e-05
  }
}
layer {
  name: "conv4_1/x2/scale"
  type: "Scale"
  bottom: "conv4_1/x2/bn"
  top: "conv4_1/x2/bn"
  scale_param {
    bias_term: true
  }
}
layer {
  name: "relu4_1/x2"
  type: "ReLU"
  bottom: "conv4_1/x2/bn"
  top: "conv4_1/x2/bn"
}
layer {
  name: "conv4_1/x2"
  type: "Convolution"
  bottom: "conv4_1/x2/bn"
  top: "conv4_1/x2"
  convolution_param {
    num_output: 32
    bias_term: false
    pad: 1
    kernel_size: 3
  }
}
layer {
  name: "concat_4_1"
  type: "Concat"
  bottom: "pool3_12"
  bottom: "conv4_1/x2"
  top: "concat_4_1"
}
layer {
  name: "conv4_2/x1/bn"
  type: "BatchNorm"
  bottom: "concat_4_1"
  top: "conv4_2/x1/bn"
  batch_norm_param {
    eps: 1e-05
  }
}
layer {
  name: "conv4_2/x1/scale"
  type: "Scale"
  bottom: "conv4_2/x1/bn"
  top: "conv4_2/x1/bn"
  scale_param {
    bias_term: true
  }
}
layer {
  name: "relu4_2/x1"
  type: "ReLU"
  bottom: "conv4_2/x1/bn"
  top: "conv4_2/x1/bn"
}
layer {
  name: "conv4_2/x1"
  type: "Convolution"
  bottom: "conv4_2/x1/bn"
  top: "conv4_2/x1"
  convolution_param {
    num_output: 128
    bias_term: false
    kernel_size: 1
  }
}
layer {
  name: "conv4_2/x2/bn"
  type: "BatchNorm"
  bottom: "conv4_2/x1"
  top: "conv4_2/x2/bn"
  batch_norm_param {
    eps: 1e-05
  }
}
layer {
  name: "conv4_2/x2/scale"
  type: "Scale"
  bottom: "conv4_2/x2/bn"
  top: "conv4_2/x2/bn"
  scale_param {
    bias_term: true
  }
}
layer {
  name: "relu4_2/x2"
  type: "ReLU"
  bottom: "conv4_2/x2/bn"
  top: "conv4_2/x2/bn"
}
layer {
  name: "conv4_2/x2"
  type: "Convolution"
  bottom: "conv4_2/x2/bn"
  top: "conv4_2/x2"
  convolution_param {
    num_output: 32
    bias_term: false
    pad: 1
    kernel_size: 3
  }
}
layer {
  name: "concat_4_2"
  type: "Concat"
  bottom: "concat_4_1"
  bottom: "conv4_2/x2"
  top: "concat_4_2"
}
layer {
  name: "conv4_3/x1/bn"
  type: "BatchNorm"
  bottom: "concat_4_2"
  top: "conv4_3/x1/bn"
  batch_norm_param {
    eps: 1e-05
  }
}
layer {
  name: "conv4_3/x1/scale"
  type: "Scale"
  bottom: "conv4_3/x1/bn"
  top: "conv4_3/x1/bn"
  scale_param {
    bias_term: true
  }
}
layer {
  name: "relu4_3/x1"
  type: "ReLU"
  bottom: "conv4_3/x1/bn"
  top: "conv4_3/x1/bn"
}
layer {
  name: "conv4_3/x1"
  type: "Convolution"
  bottom: "conv4_3/x1/bn"
  top: "conv4_3/x1"
  convolution_param {
    num_output: 128
    bias_term: false
    kernel_size: 1
  }
}
layer {
  name: "conv4_3/x2/bn"
  type: "BatchNorm"
  bottom: "conv4_3/x1"
  top: "conv4_3/x2/bn"
  batch_norm_param {
    eps: 1e-05
  }
}
layer {
  name: "conv4_3/x2/scale"
  type: "Scale"
  bottom: "conv4_3/x2/bn"
  top: "conv4_3/x2/bn"
  scale_param {
    bias_term: true
  }
}
layer {
  name: "relu4_3/x2"
  type: "ReLU"
  bottom: "conv4_3/x2/bn"
  top: "conv4_3/x2/bn"
}
layer {
  name: "conv4_3/x2"
  type: "Convolution"
  bottom: "conv4_3/x2/bn"
  top: "conv4_3/x2"
  convolution_param {
    num_output: 32
    bias_term: false
    pad: 1
    kernel_size: 3
  }
}
layer {
  name: "concat_4_3"
  type: "Concat"
  bottom: "concat_4_2"
  bottom: "conv4_3/x2"
  top: "concat_4_3"
}
layer {
  name: "conv4_4/x1/bn"
  type: "BatchNorm"
  bottom: "concat_4_3"
  top: "conv4_4/x1/bn"
  batch_norm_param {
    eps: 1e-05
  }
}
layer {
  name: "conv4_4/x1/scale"
  type: "Scale"
  bottom: "conv4_4/x1/bn"
  top: "conv4_4/x1/bn"
  scale_param {
    bias_term: true
  }
}
layer {
  name: "relu4_4/x1"
  type: "ReLU"
  bottom: "conv4_4/x1/bn"
  top: "conv4_4/x1/bn"
}
layer {
  name: "conv4_4/x1"
  type: "Convolution"
  bottom: "conv4_4/x1/bn"
  top: "conv4_4/x1"
  convolution_param {
    num_output: 128
    bias_term: false
    kernel_size: 1
  }
}
layer {
  name: "conv4_4/x2/bn"
  type: "BatchNorm"
  bottom: "conv4_4/x1"
  top: "conv4_4/x2/bn"
  batch_norm_param {
    eps: 1e-05
  }
}
layer {
  name: "conv4_4/x2/scale"
  type: "Scale"
  bottom: "conv4_4/x2/bn"
  top: "conv4_4/x2/bn"
  scale_param {
    bias_term: true
  }
}
layer {
  name: "relu4_4/x2"
  type: "ReLU"
  bottom: "conv4_4/x2/bn"
  top: "conv4_4/x2/bn"
}
layer {
  name: "conv4_4/x2"
  type: "Convolution"
  bottom: "conv4_4/x2/bn"
  top: "conv4_4/x2"
  convolution_param {
I0404 10:54:06.533679 31384 layer_factory.hpp:77] Creating layer data
I0404 10:54:06.534102 31384 net.cpp:95] Creating Layer data
I0404 10:54:06.534123 31384 net.cpp:436] data -> data
I0404 10:54:06.534175 31384 net.cpp:436] data -> label
I0404 10:54:06.534198 31384 data_transformer.cpp:25] Loading mean file from: /home/ccf/CCF/Colorecal-cancer/SMU_data_V3/data/train_lmdb/trainset_mean.binaryproto
I0404 10:54:06.535004 31393 db_lmdb.cpp:40] Opened lmdb /home/ccf/CCF/Colorecal-cancer/SMU_data_V3/data/train_lmdb
I0404 10:54:09.441061 31384 data_layer.cpp:41] output data size: 16,3,150,150
I0404 10:54:09.448448 31384 net.cpp:145] Setting up data
I0404 10:54:09.448493 31384 net.cpp:152] Top shape: 16 3 150 150 (1080000)
I0404 10:54:09.448508 31384 net.cpp:152] Top shape: 16 (16)
I0404 10:54:09.448515 31384 net.cpp:160] Memory required for data: 4320064
I0404 10:54:09.448532 31384 layer_factory.hpp:77] Creating layer conv1
I0404 10:54:09.448566 31384 net.cpp:95] Creating Layer conv1
I0404 10:54:09.448582 31384 net.cpp:462] conv1 <- data
I0404 10:54:09.448609 31384 net.cpp:436] conv1 -> conv1
I0404 10:54:10.148552 31384 net.cpp:145] Setting up conv1
I0404 10:54:10.148592 31384 net.cpp:152] Top shape: 16 64 75 75 (5760000)
I0404 10:54:10.148598 31384 net.cpp:160] Memory required for data: 27360064
I0404 10:54:10.148620 31384 layer_factory.hpp:77] Creating layer conv1/bn
I0404 10:54:10.148638 31384 net.cpp:95] Creating Layer conv1/bn
I0404 10:54:10.148655 31384 net.cpp:462] conv1/bn <- conv1
I0404 10:54:10.148664 31384 net.cpp:436] conv1/bn -> conv1/bn
I0404 10:54:10.148845 31384 net.cpp:145] Setting up conv1/bn
I0404 10:54:10.148864 31384 net.cpp:152] Top shape: 16 64 75 75 (5760000)
I0404 10:54:10.148869 31384 net.cpp:160] Memory required for data: 50400064
I0404 10:54:10.148907 31384 layer_factory.hpp:77] Creating layer conv1/scale
I0404 10:54:10.148931 31384 net.cpp:95] Creating Layer conv1/scale
I0404 10:54:10.148936 31384 net.cpp:462] conv1/scale <- conv1/bn
I0404 10:54:10.148943 31384 net.cpp:423] conv1/scale -> conv1/bn (in-place)
I0404 10:54:10.148993 31384 layer_factory.hpp:77] Creating layer conv1/scale
I0404 10:54:10.149121 31384 net.cpp:145] Setting up conv1/scale
I0404 10:54:10.149132 31384 net.cpp:152] Top shape: 16 64 75 75 (5760000)
I0404 10:54:10.149137 31384 net.cpp:160] Memory required for data: 73440064
I0404 10:54:10.149144 31384 layer_factory.hpp:77] Creating layer relu1
I0404 10:54:10.149153 31384 net.cpp:95] Creating Layer relu1
I0404 10:54:10.149158 31384 net.cpp:462] relu1 <- conv1/bn
I0404 10:54:10.149164 31384 net.cpp:423] relu1 -> conv1/bn (in-place)
I0404 10:54:10.149324 31384 net.cpp:145] Setting up relu1
I0404 10:54:10.149335 31384 net.cpp:152] Top shape: 16 64 75 75 (5760000)
I0404 10:54:10.149340 31384 net.cpp:160] Memory required for data: 96480064
I0404 10:54:10.149344 31384 layer_factory.hpp:77] Creating layer pool1
I0404 10:54:10.149355 31384 net.cpp:95] Creating Layer pool1
I0404 10:54:10.149360 31384 net.cpp:462] pool1 <- conv1/bn
I0404 10:54:10.149366 31384 net.cpp:436] pool1 -> pool1
I0404 10:54:10.149427 31384 net.cpp:145] Setting up pool1
I0404 10:54:10.149446 31384 net.cpp:152] Top shape: 16 64 38 38 (1478656)
I0404 10:54:10.149451 31384 net.cpp:160] Memory required for data: 102394688
I0404 10:54:10.149456 31384 layer_factory.hpp:77] Creating layer pool1_pool1_0_split
I0404 10:54:10.149473 31384 net.cpp:95] Creating Layer pool1_pool1_0_split
I0404 10:54:10.149478 31384 net.cpp:462] pool1_pool1_0_split <- pool1
I0404 10:54:10.149485 31384 net.cpp:436] pool1_pool1_0_split -> pool1_pool1_0_split_0
I0404 10:54:10.149503 31384 net.cpp:436] pool1_pool1_0_split -> pool1_pool1_0_split_1
I0404 10:54:10.149543 31384 net.cpp:145] Setting up pool1_pool1_0_split
I0404 10:54:10.149549 31384 net.cpp:152] Top shape: 16 64 38 38 (1478656)
I0404 10:54:10.149555 31384 net.cpp:152] Top shape: 16 64 38 38 (1478656)
I0404 10:54:10.149559 31384 net.cpp:160] Memory required for data: 114223936
I0404 10:54:10.149564 31384 layer_factory.hpp:77] Creating layer conv2_1/x1/bn
I0404 10:54:10.149570 31384 net.cpp:95] Creating Layer conv2_1/x1/bn
I0404 10:54:10.149579 31384 net.cpp:462] conv2_1/x1/bn <- pool1_pool1_0_split_0
I0404 10:54:10.149595 31384 net.cpp:436] conv2_1/x1/bn -> conv2_1/x1/bn
I0404 10:54:10.150404 31384 net.cpp:145] Setting up conv2_1/x1/bn
I0404 10:54:10.150416 31384 net.cpp:152] Top shape: 16 64 38 38 (1478656)
I0404 10:54:10.150421 31384 net.cpp:160] Memory required for data: 120138560
I0404 10:54:10.150432 31384 layer_factory.hpp:77] Creating layer conv2_1/x1/scale
I0404 10:54:10.150441 31384 net.cpp:95] Creating Layer conv2_1/x1/scale
I0404 10:54:10.150446 31384 net.cpp:462] conv2_1/x1/scale <- conv2_1/x1/bn
I0404 10:54:10.150452 31384 net.cpp:423] conv2_1/x1/scale -> conv2_1/x1/bn (in-place)
I0404 10:54:10.150506 31384 layer_factory.hpp:77] Creating layer conv2_1/x1/scale
I0404 10:54:10.150629 31384 net.cpp:145] Setting up conv2_1/x1/scale
I0404 10:54:10.150637 31384 net.cpp:152] Top shape: 16 64 38 38 (1478656)
I0404 10:54:10.150642 31384 net.cpp:160] Memory required for data: 126053184
I0404 10:54:10.150650 31384 layer_factory.hpp:77] Creating layer relu2_1/x1
I0404 10:54:10.150656 31384 net.cpp:95] Creating Layer relu2_1/x1
I0404 10:54:10.150661 31384 net.cpp:462] relu2_1/x1 <- conv2_1/x1/bn
I0404 10:54:10.150666 31384 net.cpp:423] relu2_1/x1 -> conv2_1/x1/bn (in-place)
I0404 10:54:10.151072 31384 net.cpp:145] Setting up relu2_1/x1
I0404 10:54:10.151083 31384 net.cpp:152] Top shape: 16 64 38 38 (1478656)
I0404 10:54:10.151088 31384 net.cpp:160] Memory required for data: 131967808
I0404 10:54:10.151093 31384 layer_factory.hpp:77] Creating layer conv2_1/x1
I0404 10:54:10.151103 31384 net.cpp:95] Creating Layer conv2_1/x1
I0404 10:54:10.151108 31384 net.cpp:462] conv2_1/x1 <- conv2_1/x1/bn
I0404 10:54:10.151118 31384 net.cpp:436] conv2_1/x1 -> conv2_1/x1
I0404 10:54:10.151934 31384 net.cpp:145] Setting up conv2_1/x1
I0404 10:54:10.151947 31384 net.cpp:152] Top shape: 16 128 38 38 (2957312)
I0404 10:54:10.151952 31384 net.cpp:160] Memory required for data: 143797056
I0404 10:54:10.151959 31384 layer_factory.hpp:77] Creating layer conv2_1/x2/bn
I0404 10:54:10.151968 31384 net.cpp:95] Creating Layer conv2_1/x2/bn
I0404 10:54:10.151973 31384 net.cpp:462] conv2_1/x2/bn <- conv2_1/x1
I0404 10:54:10.151978 31384 net.cpp:436] conv2_1/x2/bn -> conv2_1/x2/bn
I0404 10:54:10.152117 31384 net.cpp:145] Setting up conv2_1/x2/bn
I0404 10:54:10.152127 31384 net.cpp:152] Top shape: 16 128 38 38 (2957312)
I0404 10:54:10.152132 31384 net.cpp:160] Memory required for data: 155626304
I0404 10:54:10.152139 31384 layer_factory.hpp:77] Creating layer conv2_1/x2/scale
I0404 10:54:10.152148 31384 net.cpp:95] Creating Layer conv2_1/x2/scale
I0404 10:54:10.152151 31384 net.cpp:462] conv2_1/x2/scale <- conv2_1/x2/bn
I0404 10:54:10.152160 31384 net.cpp:423] conv2_1/x2/scale -> conv2_1/x2/bn (in-place)
I0404 10:54:10.152192 31384 layer_factory.hpp:77] Creating layer conv2_1/x2/scale
I0404 10:54:10.152273 31384 net.cpp:145] Setting up conv2_1/x2/scale
I0404 10:54:10.152282 31384 net.cpp:152] Top shape: 16 128 38 38 (2957312)
I0404 10:54:10.152287 31384 net.cpp:160] Memory required for data: 167455552
I0404 10:54:10.152295 31384 layer_factory.hpp:77] Creating layer relu2_1/x2
I0404 10:54:10.152302 31384 net.cpp:95] Creating Layer relu2_1/x2
I0404 10:54:10.152307 31384 net.cpp:462] relu2_1/x2 <- conv2_1/x2/bn
I0404 10:54:10.152313 31384 net.cpp:423] relu2_1/x2 -> conv2_1/x2/bn (in-place)
I0404 10:54:10.152447 31384 net.cpp:145] Setting up relu2_1/x2
I0404 10:54:10.152457 31384 net.cpp:152] Top shape: 16 128 38 38 (2957312)
I0404 10:54:10.152462 31384 net.cpp:160] Memory required for data: 179284800
I0404 10:54:10.152467 31384 layer_factory.hpp:77] Creating layer conv2_1/x2
I0404 10:54:10.152475 31384 net.cpp:95] Creating Layer conv2_1/x2
I0404 10:54:10.152480 31384 net.cpp:462] conv2_1/x2 <- conv2_1/x2/bn
I0404 10:54:10.152487 31384 net.cpp:436] conv2_1/x2 -> conv2_1/x2
I0404 10:54:10.155246 31384 net.cpp:145] Setting up conv2_1/x2
I0404 10:54:10.155261 31384 net.cpp:152] Top shape: 16 32 38 38 (739328)
I0404 10:54:10.155267 31384 net.cpp:160] Memory required for data: 182242112
I0404 10:54:10.155272 31384 layer_factory.hpp:77] Creating layer concat_2_1
I0404 10:54:10.155282 31384 net.cpp:95] Creating Layer concat_2_1
I0404 10:54:10.155287 31384 net.cpp:462] concat_2_1 <- pool1_pool1_0_split_1
I0404 10:54:10.155294 31384 net.cpp:462] concat_2_1 <- conv2_1/x2
I0404 10:54:10.155302 31384 net.cpp:436] concat_2_1 -> concat_2_1
I0404 10:54:10.155326 31384 net.cpp:145] Setting up concat_2_1
I0404 10:54:10.155334 31384 net.cpp:152] Top shape: 16 96 38 38 (2217984)
I0404 10:54:10.155339 31384 net.cpp:160] Memory required for data: 191114048
I0404 10:54:10.155344 31384 layer_factory.hpp:77] Creating layer concat_2_1_concat_2_1_0_split
I0404 10:54:10.155351 31384 net.cpp:95] Creating Layer concat_2_1_concat_2_1_0_split
I0404 10:54:10.155355 31384 net.cpp:462] concat_2_1_concat_2_1_0_split <- concat_2_1
I0404 10:54:10.155361 31384 net.cpp:436] concat_2_1_concat_2_1_0_split -> concat_2_1_concat_2_1_0_split_0
I0404 10:54:10.155380 31384 net.cpp:436] concat_2_1_concat_2_1_0_split -> concat_2_1_concat_2_1_0_split_1
I0404 10:54:10.155418 31384 net.cpp:145] Setting up concat_2_1_concat_2_1_0_split
I0404 10:54:10.155426 31384 net.cpp:152] Top shape: 16 96 38 38 (2217984)
I0404 10:54:10.155431 31384 net.cpp:152] Top shape: 16 96 38 38 (2217984)
I0404 10:54:10.155436 31384 net.cpp:160] Memory required for data: 208857920
I0404 10:54:10.155441 31384 layer_factory.hpp:77] Creating layer conv2_2/x1/bn
I0404 10:54:10.155447 31384 net.cpp:95] Creating Layer conv2_2/x1/bn
I0404 10:54:10.155452 31384 net.cpp:462] conv2_2/x1/bn <- concat_2_1_concat_2_1_0_split_0
I0404 10:54:10.155457 31384 net.cpp:436] conv2_2/x1/bn -> conv2_2/x1/bn
I0404 10:54:10.155632 31384 net.cpp:145] Setting up conv2_2/x1/bn
I0404 10:54:10.155642 31384 net.cpp:152] Top shape: 16 96 38 38 (2217984)
I0404 10:54:10.155654 31384 net.cpp:160] Memory required for data: 217729856
I0404 10:54:10.155664 31384 layer_factory.hpp:77] Creating layer conv2_2/x1/scale
I0404 10:54:10.155671 31384 net.cpp:95] Creating Layer conv2_2/x1/scale
I0404 10:54:10.155678 31384 net.cpp:462] conv2_2/x1/scale <- conv2_2/x1/bn
I0404 10:54:10.155704 31384 net.cpp:423] conv2_2/x1/scale -> conv2_2/x1/bn (in-place)
I0404 10:54:10.155736 31384 layer_factory.hpp:77] Creating layer conv2_2/x1/scale
I0404 10:54:10.155823 31384 net.cpp:145] Setting up conv2_2/x1/scale
I0404 10:54:10.155833 31384 net.cpp:152] Top shape: 16 96 38 38 (2217984)
I0404 10:54:10.155836 31384 net.cpp:160] Memory required for data: 226601792
I0404 10:54:10.155843 31384 layer_factory.hpp:77] Creating layer relu2_2/x1
I0404 10:54:10.155850 31384 net.cpp:95] Creating Layer relu2_2/x1
I0404 10:54:10.155855 31384 net.cpp:462] relu2_2/x1 <- conv2_2/x1/bn
I0404 10:54:10.155863 31384 net.cpp:423] relu2_2/x1 -> conv2_2/x1/bn (in-place)
I0404 10:54:10.156008 31384 net.cpp:145] Setting up relu2_2/x1
I0404 10:54:10.156018 31384 net.cpp:152] Top shape: 16 96 38 38 (2217984)
I0404 10:54:10.156023 31384 net.cpp:160] Memory required for data: 235473728
I0404 10:54:10.156028 31384 layer_factory.hpp:77] Creating layer conv2_2/x1
I0404 10:54:10.156035 31384 net.cpp:95] Creating Layer conv2_2/x1
I0404 10:54:10.156040 31384 net.cpp:462] conv2_2/x1 <- conv2_2/x1/bn
I0404 10:54:10.156057 31384 net.cpp:436] conv2_2/x1 -> conv2_2/x1
I0404 10:54:10.156888 31384 net.cpp:145] Setting up conv2_2/x1
I0404 10:54:10.156910 31384 net.cpp:152] Top shape: 16 128 38 38 (2957312)
I0404 10:54:10.156915 31384 net.cpp:160] Memory required for data: 247302976
I0404 10:54:10.156921 31384 layer_factory.hpp:77] Creating layer conv2_2/x2/bn
I0404 10:54:10.156930 31384 net.cpp:95] Creating Layer conv2_2/x2/bn
I0404 10:54:10.156935 31384 net.cpp:462] conv2_2/x2/bn <- conv2_2/x1
I0404 10:54:10.156952 31384 net.cpp:436] conv2_2/x2/bn -> conv2_2/x2/bn
I0404 10:54:10.157124 31384 net.cpp:145] Setting up conv2_2/x2/bn
I0404 10:54:10.157133 31384 net.cpp:152] Top shape: 16 128 38 38 (2957312)
I0404 10:54:10.157137 31384 net.cpp:160] Memory required for data: 259132224
I0404 10:54:10.157146 31384 layer_factory.hpp:77] Creating layer conv2_2/x2/scale
I0404 10:54:10.157153 31384 net.cpp:95] Creating Layer conv2_2/x2/scale
I0404 10:54:10.157158 31384 net.cpp:462] conv2_2/x2/scale <- conv2_2/x2/bn
I0404 10:54:10.157164 31384 net.cpp:423] conv2_2/x2/scale -> conv2_2/x2/bn (in-place)
I0404 10:54:10.157203 31384 layer_factory.hpp:77] Creating layer conv2_2/x2/scale
I0404 10:54:10.157287 31384 net.cpp:145] Setting up conv2_2/x2/scale
I0404 10:54:10.157296 31384 net.cpp:152] Top shape: 16 128 38 38 (2957312)
I0404 10:54:10.157300 31384 net.cpp:160] Memory required for data: 270961472
I0404 10:54:10.157307 31384 layer_factory.hpp:77] Creating layer relu2_2/x2
I0404 10:54:10.157315 31384 net.cpp:95] Creating Layer relu2_2/x2
I0404 10:54:10.157320 31384 net.cpp:462] relu2_2/x2 <- conv2_2/x2/bn
I0404 10:54:10.157325 31384 net.cpp:423] relu2_2/x2 -> conv2_2/x2/bn (in-place)
I0404 10:54:10.157460 31384 net.cpp:145] Setting up relu2_2/x2
I0404 10:54:10.157470 31384 net.cpp:152] Top shape: 16 128 38 38 (2957312)
I0404 10:54:10.157474 31384 net.cpp:160] Memory required for data: 282790720
I0404 10:54:10.157480 31384 layer_factory.hpp:77] Creating layer conv2_2/x2
I0404 10:54:10.157487 31384 net.cpp:95] Creating Layer conv2_2/x2
I0404 10:54:10.157492 31384 net.cpp:462] conv2_2/x2 <- conv2_2/x2/bn
I0404 10:54:10.157500 31384 net.cpp:436] conv2_2/x2 -> conv2_2/x2
I0404 10:54:10.158308 31384 net.cpp:145] Setting up conv2_2/x2
I0404 10:54:10.158320 31384 net.cpp:152] Top shape: 16 32 38 38 (739328)
I0404 10:54:10.158327 31384 net.cpp:160] Memory required for data: 285748032
I0404 10:54:10.158334 31384 layer_factory.hpp:77] Creating layer concat_2_2
I0404 10:54:10.158340 31384 net.cpp:95] Creating Layer concat_2_2
I0404 10:54:10.158346 31384 net.cpp:462] concat_2_2 <- concat_2_1_concat_2_1_0_split_1
I0404 10:54:10.158362 31384 net.cpp:462] concat_2_2 <- conv2_2/x2
I0404 10:54:10.158370 31384 net.cpp:436] concat_2_2 -> concat_2_2
I0404 10:54:10.158393 31384 net.cpp:145] Setting up concat_2_2
I0404 10:54:10.158401 31384 net.cpp:152] Top shape: 16 128 38 38 (2957312)
I0404 10:54:10.158406 31384 net.cpp:160] Memory required for data: 297577280
I0404 10:54:10.158411 31384 layer_factory.hpp:77] Creating layer concat_2_2_concat_2_2_0_split
I0404 10:54:10.158418 31384 net.cpp:95] Creating Layer concat_2_2_concat_2_2_0_split
I0404 10:54:10.158424 31384 net.cpp:462] concat_2_2_concat_2_2_0_split <- concat_2_2
I0404 10:54:10.158430 31384 net.cpp:436] concat_2_2_concat_2_2_0_split -> concat_2_2_concat_2_2_0_split_0
I0404 10:54:10.158438 31384 net.cpp:436] concat_2_2_concat_2_2_0_split -> concat_2_2_concat_2_2_0_split_1
I0404 10:54:10.158468 31384 net.cpp:145] Setting up concat_2_2_concat_2_2_0_split
I0404 10:54:10.158478 31384 net.cpp:152] Top shape: 16 128 38 38 (2957312)
I0404 10:54:10.158483 31384 net.cpp:152] Top shape: 16 128 38 38 (2957312)
I0404 10:54:10.158488 31384 net.cpp:160] Memory required for data: 321235776
I0404 10:54:10.158493 31384 layer_factory.hpp:77] Creating layer conv2_3/x1/bn
I0404 10:54:10.158500 31384 net.cpp:95] Creating Layer conv2_3/x1/bn
I0404 10:54:10.158506 31384 net.cpp:462] conv2_3/x1/bn <- concat_2_2_concat_2_2_0_split_0
I0404 10:54:10.158512 31384 net.cpp:436] conv2_3/x1/bn -> conv2_3/x1/bn
I0404 10:54:10.158651 31384 net.cpp:145] Setting up conv2_3/x1/bn
I0404 10:54:10.158660 31384 net.cpp:152] Top shape: 16 128 38 38 (2957312)
I0404 10:54:10.158666 31384 net.cpp:160] Memory required for data: 333065024
I0404 10:54:10.158676 31384 layer_factory.hpp:77] Creating layer conv2_3/x1/scale
I0404 10:54:10.158684 31384 net.cpp:95] Creating Layer conv2_3/x1/scale
I0404 10:54:10.158690 31384 net.cpp:462] conv2_3/x1/scale <- conv2_3/x1/bn
I0404 10:54:10.158696 31384 net.cpp:423] conv2_3/x1/scale -> conv2_3/x1/bn (in-place)
I0404 10:54:10.158730 31384 layer_factory.hpp:77] Creating layer conv2_3/x1/scale
I0404 10:54:10.158814 31384 net.cpp:145] Setting up conv2_3/x1/scale
I0404 10:54:10.158824 31384 net.cpp:152] Top shape: 16 128 38 38 (2957312)
I0404 10:54:10.158829 31384 net.cpp:160] Memory required for data: 344894272
I0404 10:54:10.158836 31384 layer_factory.hpp:77] Creating layer relu2_3/x1
I0404 10:54:10.158843 31384 net.cpp:95] Creating Layer relu2_3/x1
I0404 10:54:10.158849 31384 net.cpp:462] relu2_3/x1 <- conv2_3/x1/bn
I0404 10:54:10.158855 31384 net.cpp:423] relu2_3/x1 -> conv2_3/x1/bn (in-place)
I0404 10:54:10.158987 31384 net.cpp:145] Setting up relu2_3/x1
I0404 10:54:10.158996 31384 net.cpp:152] Top shape: 16 128 38 38 (2957312)
I0404 10:54:10.159001 31384 net.cpp:160] Memory required for data: 356723520
I0404 10:54:10.159006 31384 layer_factory.hpp:77] Creating layer conv2_3/x1
I0404 10:54:10.159015 31384 net.cpp:95] Creating Layer conv2_3/x1
I0404 10:54:10.159020 31384 net.cpp:462] conv2_3/x1 <- conv2_3/x1/bn
I0404 10:54:10.159027 31384 net.cpp:436] conv2_3/x1 -> conv2_3/x1
I0404 10:54:10.159837 31384 net.cpp:145] Setting up conv2_3/x1
I0404 10:54:10.159850 31384 net.cpp:152] Top shape: 16 128 38 38 (2957312)
I0404 10:54:10.159855 31384 net.cpp:160] Memory required for data: 368552768
I0404 10:54:10.159867 31384 layer_factory.hpp:77] Creating layer conv2_3/x2/bn
I0404 10:54:10.159881 31384 net.cpp:95] Creating Layer conv2_3/x2/bn
I0404 10:54:10.159893 31384 net.cpp:462] conv2_3/x2/bn <- conv2_3/x1
I0404 10:54:10.159906 31384 net.cpp:436] conv2_3/x2/bn -> conv2_3/x2/bn
I0404 10:54:10.160061 31384 net.cpp:145] Setting up conv2_3/x2/bn
I0404 10:54:10.160070 31384 net.cpp:152] Top shape: 16 128 38 38 (2957312)
I0404 10:54:10.160075 31384 net.cpp:160] Memory required for data: 380382016
I0404 10:54:10.160084 31384 layer_factory.hpp:77] Creating layer conv2_3/x2/scale
I0404 10:54:10.160094 31384 net.cpp:95] Creating Layer conv2_3/x2/scale
I0404 10:54:10.160100 31384 net.cpp:462] conv2_3/x2/scale <- conv2_3/x2/bn
I0404 10:54:10.160106 31384 net.cpp:423] conv2_3/x2/scale -> conv2_3/x2/bn (in-place)
I0404 10:54:10.160153 31384 layer_factory.hpp:77] Creating layer conv2_3/x2/scale
I0404 10:54:10.160254 31384 net.cpp:145] Setting up conv2_3/x2/scale
I0404 10:54:10.160269 31384 net.cpp:152] Top shape: 16 128 38 38 (2957312)
I0404 10:54:10.160279 31384 net.cpp:160] Memory required for data: 392211264
I0404 10:54:10.160290 31384 layer_factory.hpp:77] Creating layer relu2_3/x2
I0404 10:54:10.160302 31384 net.cpp:95] Creating Layer relu2_3/x2
I0404 10:54:10.160312 31384 net.cpp:462] relu2_3/x2 <- conv2_3/x2/bn
I0404 10:54:10.160324 31384 net.cpp:423] relu2_3/x2 -> conv2_3/x2/bn (in-place)
I0404 10:54:10.160468 31384 net.cpp:145] Setting up relu2_3/x2
I0404 10:54:10.160478 31384 net.cpp:152] Top shape: 16 128 38 38 (2957312)
I0404 10:54:10.160485 31384 net.cpp:160] Memory required for data: 404040512
I0404 10:54:10.160490 31384 layer_factory.hpp:77] Creating layer conv2_3/x2
I0404 10:54:10.160501 31384 net.cpp:95] Creating Layer conv2_3/x2
I0404 10:54:10.160506 31384 net.cpp:462] conv2_3/x2 <- conv2_3/x2/bn
I0404 10:54:10.160514 31384 net.cpp:436] conv2_3/x2 -> conv2_3/x2
I0404 10:54:10.161435 31384 net.cpp:145] Setting up conv2_3/x2
I0404 10:54:10.161451 31384 net.cpp:152] Top shape: 16 32 38 38 (739328)
I0404 10:54:10.161459 31384 net.cpp:160] Memory required for data: 406997824
I0404 10:54:10.161478 31384 layer_factory.hpp:77] Creating layer concat_2_3
I0404 10:54:10.161491 31384 net.cpp:95] Creating Layer concat_2_3
I0404 10:54:10.161500 31384 net.cpp:462] concat_2_3 <- concat_2_2_concat_2_2_0_split_1
I0404 10:54:10.161520 31384 net.cpp:462] concat_2_3 <- conv2_3/x2
I0404 10:54:10.161530 31384 net.cpp:436] concat_2_3 -> concat_2_3
I0404 10:54:10.161561 31384 net.cpp:145] Setting up concat_2_3
I0404 10:54:10.161571 31384 net.cpp:152] Top shape: 16 160 38 38 (3696640)
I0404 10:54:10.161578 31384 net.cpp:160] Memory required for data: 421784384
I0404 10:54:10.161584 31384 layer_factory.hpp:77] Creating layer concat_2_3_concat_2_3_0_split
I0404 10:54:10.161595 31384 net.cpp:95] Creating Layer concat_2_3_concat_2_3_0_split
I0404 10:54:10.161602 31384 net.cpp:462] concat_2_3_concat_2_3_0_split <- concat_2_3
I0404 10:54:10.161612 31384 net.cpp:436] concat_2_3_concat_2_3_0_split -> concat_2_3_concat_2_3_0_split_0
I0404 10:54:10.161622 31384 net.cpp:436] concat_2_3_concat_2_3_0_split -> concat_2_3_concat_2_3_0_split_1
I0404 10:54:10.161675 31384 net.cpp:145] Setting up concat_2_3_concat_2_3_0_split
I0404 10:54:10.161695 31384 net.cpp:152] Top shape: 16 160 38 38 (3696640)
I0404 10:54:10.161703 31384 net.cpp:152] Top shape: 16 160 38 38 (3696640)
I0404 10:54:10.161708 31384 net.cpp:160] Memory required for data: 451357504
I0404 10:54:10.161717 31384 layer_factory.hpp:77] Creating layer conv2_4/x1/bn
I0404 10:54:10.161729 31384 net.cpp:95] Creating Layer conv2_4/x1/bn
I0404 10:54:10.161736 31384 net.cpp:462] conv2_4/x1/bn <- concat_2_3_concat_2_3_0_split_0
I0404 10:54:10.161746 31384 net.cpp:436] conv2_4/x1/bn -> conv2_4/x1/bn
I0404 10:54:10.161949 31384 net.cpp:145] Setting up conv2_4/x1/bn
I0404 10:54:10.161960 31384 net.cpp:152] Top shape: 16 160 38 38 (3696640)
I0404 10:54:10.161965 31384 net.cpp:160] Memory required for data: 466144064
I0404 10:54:10.161974 31384 layer_factory.hpp:77] Creating layer conv2_4/x1/scale
I0404 10:54:10.161984 31384 net.cpp:95] Creating Layer conv2_4/x1/scale
I0404 10:54:10.161991 31384 net.cpp:462] conv2_4/x1/scale <- conv2_4/x1/bn
I0404 10:54:10.161998 31384 net.cpp:423] conv2_4/x1/scale -> conv2_4/x1/bn (in-place)
I0404 10:54:10.162036 31384 layer_factory.hpp:77] Creating layer conv2_4/x1/scale
I0404 10:54:10.162133 31384 net.cpp:145] Setting up conv2_4/x1/scale
I0404 10:54:10.162142 31384 net.cpp:152] Top shape: 16 160 38 38 (3696640)
I0404 10:54:10.162148 31384 net.cpp:160] Memory required for data: 480930624
I0404 10:54:10.162155 31384 layer_factory.hpp:77] Creating layer relu2_4/x1
I0404 10:54:10.162164 31384 net.cpp:95] Creating Layer relu2_4/x1
I0404 10:54:10.162170 31384 net.cpp:462] relu2_4/x1 <- conv2_4/x1/bn
I0404 10:54:10.162178 31384 net.cpp:423] relu2_4/x1 -> conv2_4/x1/bn (in-place)
I0404 10:54:10.162607 31384 net.cpp:145] Setting up relu2_4/x1
I0404 10:54:10.162619 31384 net.cpp:152] Top shape: 16 160 38 38 (3696640)
I0404 10:54:10.162624 31384 net.cpp:160] Memory required for data: 495717184
I0404 10:54:10.162629 31384 layer_factory.hpp:77] Creating layer conv2_4/x1
I0404 10:54:10.162641 31384 net.cpp:95] Creating Layer conv2_4/x1
I0404 10:54:10.162647 31384 net.cpp:462] conv2_4/x1 <- conv2_4/x1/bn
I0404 10:54:10.162657 31384 net.cpp:436] conv2_4/x1 -> conv2_4/x1
I0404 10:54:10.163741 31384 net.cpp:145] Setting up conv2_4/x1
I0404 10:54:10.163760 31384 net.cpp:152] Top shape: 16 128 38 38 (2957312)
I0404 10:54:10.163771 31384 net.cpp:160] Memory required for data: 507546432
I0404 10:54:10.163784 31384 layer_factory.hpp:77] Creating layer conv2_4/x2/bn
I0404 10:54:10.163801 31384 net.cpp:95] Creating Layer conv2_4/x2/bn
I0404 10:54:10.163812 31384 net.cpp:462] conv2_4/x2/bn <- conv2_4/x1
I0404 10:54:10.163830 31384 net.cpp:436] conv2_4/x2/bn -> conv2_4/x2/bn
I0404 10:54:10.164119 31384 net.cpp:145] Setting up conv2_4/x2/bn
I0404 10:54:10.164134 31384 net.cpp:152] Top shape: 16 128 38 38 (2957312)
I0404 10:54:10.164144 31384 net.cpp:160] Memory required for data: 519375680
I0404 10:54:10.164161 31384 layer_factory.hpp:77] Creating layer conv2_4/x2/scale
I0404 10:54:10.164177 31384 net.cpp:95] Creating Layer conv2_4/x2/scale
I0404 10:54:10.164188 31384 net.cpp:462] conv2_4/x2/scale <- conv2_4/x2/bn
I0404 10:54:10.164201 31384 net.cpp:423] conv2_4/x2/scale -> conv2_4/x2/bn (in-place)
I0404 10:54:10.164266 31384 layer_factory.hpp:77] Creating layer conv2_4/x2/scale
I0404 10:54:10.164424 31384 net.cpp:145] Setting up conv2_4/x2/scale
I0404 10:54:10.164440 31384 net.cpp:152] Top shape: 16 128 38 38 (2957312)
I0404 10:54:10.164449 31384 net.cpp:160] Memory required for data: 531204928
I0404 10:54:10.164463 31384 layer_factory.hpp:77] Creating layer relu2_4/x2
I0404 10:54:10.164479 31384 net.cpp:95] Creating Layer relu2_4/x2
I0404 10:54:10.164489 31384 net.cpp:462] relu2_4/x2 <- conv2_4/x2/bn
I0404 10:54:10.164499 31384 net.cpp:423] relu2_4/x2 -> conv2_4/x2/bn (in-place)
I0404 10:54:10.164742 31384 net.cpp:145] Setting up relu2_4/x2
I0404 10:54:10.164762 31384 net.cpp:152] Top shape: 16 128 38 38 (2957312)
I0404 10:54:10.164770 31384 net.cpp:160] Memory required for data: 543034176
I0404 10:54:10.164778 31384 layer_factory.hpp:77] Creating layer conv2_4/x2
I0404 10:54:10.164793 31384 net.cpp:95] Creating Layer conv2_4/x2
I0404 10:54:10.164801 31384 net.cpp:462] conv2_4/x2 <- conv2_4/x2/bn
I0404 10:54:10.164819 31384 net.cpp:436] conv2_4/x2 -> conv2_4/x2
I0404 10:54:10.166115 31384 net.cpp:145] Setting up conv2_4/x2
I0404 10:54:10.166131 31384 net.cpp:152] Top shape: 16 32 38 38 (739328)
I0404 10:54:10.166136 31384 net.cpp:160] Memory required for data: 545991488
I0404 10:54:10.166143 31384 layer_factory.hpp:77] Creating layer concat_2_4
I0404 10:54:10.166152 31384 net.cpp:95] Creating Layer concat_2_4
I0404 10:54:10.166160 31384 net.cpp:462] concat_2_4 <- concat_2_3_concat_2_3_0_split_1
I0404 10:54:10.166167 31384 net.cpp:462] concat_2_4 <- conv2_4/x2
I0404 10:54:10.166175 31384 net.cpp:436] concat_2_4 -> concat_2_4
I0404 10:54:10.166203 31384 net.cpp:145] Setting up concat_2_4
I0404 10:54:10.166213 31384 net.cpp:152] Top shape: 16 192 38 38 (4435968)
I0404 10:54:10.166218 31384 net.cpp:160] Memory required for data: 563735360
I0404 10:54:10.166223 31384 layer_factory.hpp:77] Creating layer concat_2_4_concat_2_4_0_split
I0404 10:54:10.166231 31384 net.cpp:95] Creating Layer concat_2_4_concat_2_4_0_split
I0404 10:54:10.166239 31384 net.cpp:462] concat_2_4_concat_2_4_0_split <- concat_2_4
I0404 10:54:10.166244 31384 net.cpp:436] concat_2_4_concat_2_4_0_split -> concat_2_4_concat_2_4_0_split_0
I0404 10:54:10.166254 31384 net.cpp:436] concat_2_4_concat_2_4_0_split -> concat_2_4_concat_2_4_0_split_1
I0404 10:54:10.166287 31384 net.cpp:145] Setting up concat_2_4_concat_2_4_0_split
I0404 10:54:10.166296 31384 net.cpp:152] Top shape: 16 192 38 38 (4435968)
I0404 10:54:10.166301 31384 net.cpp:152] Top shape: 16 192 38 38 (4435968)
I0404 10:54:10.166318 31384 net.cpp:160] Memory required for data: 599223104
I0404 10:54:10.166323 31384 layer_factory.hpp:77] Creating layer conv2_5/x1/bn
I0404 10:54:10.166332 31384 net.cpp:95] Creating Layer conv2_5/x1/bn
I0404 10:54:10.166338 31384 net.cpp:462] conv2_5/x1/bn <- concat_2_4_concat_2_4_0_split_0
I0404 10:54:10.166344 31384 net.cpp:436] conv2_5/x1/bn -> conv2_5/x1/bn
I0404 10:54:10.166513 31384 net.cpp:145] Setting up conv2_5/x1/bn
I0404 10:54:10.166532 31384 net.cpp:152] Top shape: 16 192 38 38 (4435968)
I0404 10:54:10.166537 31384 net.cpp:160] Memory required for data: 616966976
I0404 10:54:10.166545 31384 layer_factory.hpp:77] Creating layer conv2_5/x1/scale
I0404 10:54:10.166554 31384 net.cpp:95] Creating Layer conv2_5/x1/scale
I0404 10:54:10.166561 31384 net.cpp:462] conv2_5/x1/scale <- conv2_5/x1/bn
I0404 10:54:10.166568 31384 net.cpp:423] conv2_5/x1/scale -> conv2_5/x1/bn (in-place)
I0404 10:54:10.166618 31384 layer_factory.hpp:77] Creating layer conv2_5/x1/scale
I0404 10:54:10.166736 31384 net.cpp:145] Setting up conv2_5/x1/scale
I0404 10:54:10.166746 31384 net.cpp:152] Top shape: 16 192 38 38 (4435968)
I0404 10:54:10.166760 31384 net.cpp:160] Memory required for data: 634710848
I0404 10:54:10.166767 31384 layer_factory.hpp:77] Creating layer relu2_5/x1
I0404 10:54:10.166776 31384 net.cpp:95] Creating Layer relu2_5/x1
I0404 10:54:10.166782 31384 net.cpp:462] relu2_5/x1 <- conv2_5/x1/bn
I0404 10:54:10.166800 31384 net.cpp:423] relu2_5/x1 -> conv2_5/x1/bn (in-place)
I0404 10:54:10.166936 31384 net.cpp:145] Setting up relu2_5/x1
I0404 10:54:10.166945 31384 net.cpp:152] Top shape: 16 192 38 38 (4435968)
I0404 10:54:10.166951 31384 net.cpp:160] Memory required for data: 652454720
I0404 10:54:10.166955 31384 layer_factory.hpp:77] Creating layer conv2_5/x1
I0404 10:54:10.166975 31384 net.cpp:95] Creating Layer conv2_5/x1
I0404 10:54:10.166981 31384 net.cpp:462] conv2_5/x1 <- conv2_5/x1/bn
I0404 10:54:10.166988 31384 net.cpp:436] conv2_5/x1 -> conv2_5/x1
I0404 10:54:10.167860 31384 net.cpp:145] Setting up conv2_5/x1
I0404 10:54:10.167876 31384 net.cpp:152] Top shape: 16 128 38 38 (2957312)
I0404 10:54:10.167881 31384 net.cpp:160] Memory required for data: 664283968
I0404 10:54:10.167888 31384 layer_factory.hpp:77] Creating layer conv2_5/x2/bn
I0404 10:54:10.167896 31384 net.cpp:95] Creating Layer conv2_5/x2/bn
I0404 10:54:10.167902 31384 net.cpp:462] conv2_5/x2/bn <- conv2_5/x1
I0404 10:54:10.167912 31384 net.cpp:436] conv2_5/x2/bn -> conv2_5/x2/bn
I0404 10:54:10.168071 31384 net.cpp:145] Setting up conv2_5/x2/bn
I0404 10:54:10.168081 31384 net.cpp:152] Top shape: 16 128 38 38 (2957312)
I0404 10:54:10.168085 31384 net.cpp:160] Memory required for data: 676113216
I0404 10:54:10.168093 31384 layer_factory.hpp:77] Creating layer conv2_5/x2/scale
I0404 10:54:10.168102 31384 net.cpp:95] Creating Layer conv2_5/x2/scale
I0404 10:54:10.168109 31384 net.cpp:462] conv2_5/x2/scale <- conv2_5/x2/bn
I0404 10:54:10.168115 31384 net.cpp:423] conv2_5/x2/scale -> conv2_5/x2/bn (in-place)
I0404 10:54:10.168151 31384 layer_factory.hpp:77] Creating layer conv2_5/x2/scale
I0404 10:54:10.168246 31384 net.cpp:145] Setting up conv2_5/x2/scale
I0404 10:54:10.168254 31384 net.cpp:152] Top shape: 16 128 38 38 (2957312)
I0404 10:54:10.168259 31384 net.cpp:160] Memory required for data: 687942464
I0404 10:54:10.168273 31384 layer_factory.hpp:77] Creating layer relu2_5/x2
I0404 10:54:10.168282 31384 net.cpp:95] Creating Layer relu2_5/x2
I0404 10:54:10.168287 31384 net.cpp:462] relu2_5/x2 <- conv2_5/x2/bn
I0404 10:54:10.168294 31384 net.cpp:423] relu2_5/x2 -> conv2_5/x2/bn (in-place)
I0404 10:54:10.168437 31384 net.cpp:145] Setting up relu2_5/x2
I0404 10:54:10.168447 31384 net.cpp:152] Top shape: 16 128 38 38 (2957312)
I0404 10:54:10.168453 31384 net.cpp:160] Memory required for data: 699771712
I0404 10:54:10.168457 31384 layer_factory.hpp:77] Creating layer conv2_5/x2
I0404 10:54:10.168468 31384 net.cpp:95] Creating Layer conv2_5/x2
I0404 10:54:10.168474 31384 net.cpp:462] conv2_5/x2 <- conv2_5/x2/bn
I0404 10:54:10.168484 31384 net.cpp:436] conv2_5/x2 -> conv2_5/x2
I0404 10:54:10.169374 31384 net.cpp:145] Setting up conv2_5/x2
I0404 10:54:10.169387 31384 net.cpp:152] Top shape: 16 32 38 38 (739328)
I0404 10:54:10.169392 31384 net.cpp:160] Memory required for data: 702729024
I0404 10:54:10.169399 31384 layer_factory.hpp:77] Creating layer concat_2_5
I0404 10:54:10.169407 31384 net.cpp:95] Creating Layer concat_2_5
I0404 10:54:10.169414 31384 net.cpp:462] concat_2_5 <- concat_2_4_concat_2_4_0_split_1
I0404 10:54:10.169422 31384 net.cpp:462] concat_2_5 <- conv2_5/x2
I0404 10:54:10.169428 31384 net.cpp:436] concat_2_5 -> concat_2_5
I0404 10:54:10.169457 31384 net.cpp:145] Setting up concat_2_5
I0404 10:54:10.169466 31384 net.cpp:152] Top shape: 16 224 38 38 (5175296)
I0404 10:54:10.169471 31384 net.cpp:160] Memory required for data: 723430208
I0404 10:54:10.169476 31384 layer_factory.hpp:77] Creating layer concat_2_5_concat_2_5_0_split
I0404 10:54:10.169481 31384 net.cpp:95] Creating Layer concat_2_5_concat_2_5_0_split
I0404 10:54:10.169486 31384 net.cpp:462] concat_2_5_concat_2_5_0_split <- concat_2_5
I0404 10:54:10.169494 31384 net.cpp:436] concat_2_5_concat_2_5_0_split -> concat_2_5_concat_2_5_0_split_0
I0404 10:54:10.169502 31384 net.cpp:436] concat_2_5_concat_2_5_0_split -> concat_2_5_concat_2_5_0_split_1
I0404 10:54:10.169534 31384 net.cpp:145] Setting up concat_2_5_concat_2_5_0_split
I0404 10:54:10.169543 31384 net.cpp:152] Top shape: 16 224 38 38 (5175296)
I0404 10:54:10.169548 31384 net.cpp:152] Top shape: 16 224 38 38 (5175296)
I0404 10:54:10.169554 31384 net.cpp:160] Memory required for data: 764832576
I0404 10:54:10.169559 31384 layer_factory.hpp:77] Creating layer conv2_6/x1/bn
I0404 10:54:10.169565 31384 net.cpp:95] Creating Layer conv2_6/x1/bn
I0404 10:54:10.169570 31384 net.cpp:462] conv2_6/x1/bn <- concat_2_5_concat_2_5_0_split_0
I0404 10:54:10.169579 31384 net.cpp:436] conv2_6/x1/bn -> conv2_6/x1/bn
I0404 10:54:10.169744 31384 net.cpp:145] Setting up conv2_6/x1/bn
I0404 10:54:10.169754 31384 net.cpp:152] Top shape: 16 224 38 38 (5175296)
I0404 10:54:10.169759 31384 net.cpp:160] Memory required for data: 785533760
I0404 10:54:10.169769 31384 layer_factory.hpp:77] Creating layer conv2_6/x1/scale
I0404 10:54:10.169777 31384 net.cpp:95] Creating Layer conv2_6/x1/scale
I0404 10:54:10.169783 31384 net.cpp:462] conv2_6/x1/scale <- conv2_6/x1/bn
I0404 10:54:10.169790 31384 net.cpp:423] conv2_6/x1/scale -> conv2_6/x1/bn (in-place)
I0404 10:54:10.169827 31384 layer_factory.hpp:77] Creating layer conv2_6/x1/scale
I0404 10:54:10.169926 31384 net.cpp:145] Setting up conv2_6/x1/scale
I0404 10:54:10.169935 31384 net.cpp:152] Top shape: 16 224 38 38 (5175296)
I0404 10:54:10.169941 31384 net.cpp:160] Memory required for data: 806234944
I0404 10:54:10.169948 31384 layer_factory.hpp:77] Creating layer relu2_6/x1
I0404 10:54:10.169957 31384 net.cpp:95] Creating Layer relu2_6/x1
I0404 10:54:10.169963 31384 net.cpp:462] relu2_6/x1 <- conv2_6/x1/bn
I0404 10:54:10.169970 31384 net.cpp:423] relu2_6/x1 -> conv2_6/x1/bn (in-place)
I0404 10:54:10.170109 31384 net.cpp:145] Setting up relu2_6/x1
I0404 10:54:10.170121 31384 net.cpp:152] Top shape: 16 224 38 38 (5175296)
I0404 10:54:10.170126 31384 net.cpp:160] Memory required for data: 826936128
I0404 10:54:10.170131 31384 layer_factory.hpp:77] Creating layer conv2_6/x1
I0404 10:54:10.170140 31384 net.cpp:95] Creating Layer conv2_6/x1
I0404 10:54:10.170145 31384 net.cpp:462] conv2_6/x1 <- conv2_6/x1/bn
I0404 10:54:10.170155 31384 net.cpp:436] conv2_6/x1 -> conv2_6/x1
I0404 10:54:10.171008 31384 net.cpp:145] Setting up conv2_6/x1
I0404 10:54:10.171020 31384 net.cpp:152] Top shape: 16 128 38 38 (2957312)
I0404 10:54:10.171026 31384 net.cpp:160] Memory required for data: 838765376
I0404 10:54:10.171033 31384 layer_factory.hpp:77] Creating layer conv2_6/x2/bn
I0404 10:54:10.171042 31384 net.cpp:95] Creating Layer conv2_6/x2/bn
I0404 10:54:10.171048 31384 net.cpp:462] conv2_6/x2/bn <- conv2_6/x1
I0404 10:54:10.171066 31384 net.cpp:436] conv2_6/x2/bn -> conv2_6/x2/bn
I0404 10:54:10.171236 31384 net.cpp:145] Setting up conv2_6/x2/bn
I0404 10:54:10.171262 31384 net.cpp:152] Top shape: 16 128 38 38 (2957312)
I0404 10:54:10.171268 31384 net.cpp:160] Memory required for data: 850594624
I0404 10:54:10.171277 31384 layer_factory.hpp:77] Creating layer conv2_6/x2/scale
I0404 10:54:10.171286 31384 net.cpp:95] Creating Layer conv2_6/x2/scale
I0404 10:54:10.171293 31384 net.cpp:462] conv2_6/x2/scale <- conv2_6/x2/bn
I0404 10:54:10.171298 31384 net.cpp:423] conv2_6/x2/scale -> conv2_6/x2/bn (in-place)
I0404 10:54:10.171344 31384 layer_factory.hpp:77] Creating layer conv2_6/x2/scale
I0404 10:54:10.171458 31384 net.cpp:145] Setting up conv2_6/x2/scale
I0404 10:54:10.171466 31384 net.cpp:152] Top shape: 16 128 38 38 (2957312)
I0404 10:54:10.171480 31384 net.cpp:160] Memory required for data: 862423872
I0404 10:54:10.171488 31384 layer_factory.hpp:77] Creating layer relu2_6/x2
I0404 10:54:10.171496 31384 net.cpp:95] Creating Layer relu2_6/x2
I0404 10:54:10.171502 31384 net.cpp:462] relu2_6/x2 <- conv2_6/x2/bn
I0404 10:54:10.171519 31384 net.cpp:423] relu2_6/x2 -> conv2_6/x2/bn (in-place)
I0404 10:54:10.171658 31384 net.cpp:145] Setting up relu2_6/x2
I0404 10:54:10.171667 31384 net.cpp:152] Top shape: 16 128 38 38 (2957312)
I0404 10:54:10.171672 31384 net.cpp:160] Memory required for data: 874253120
I0404 10:54:10.171677 31384 layer_factory.hpp:77] Creating layer conv2_6/x2
I0404 10:54:10.171690 31384 net.cpp:95] Creating Layer conv2_6/x2
I0404 10:54:10.171696 31384 net.cpp:462] conv2_6/x2 <- conv2_6/x2/bn
I0404 10:54:10.171713 31384 net.cpp:436] conv2_6/x2 -> conv2_6/x2
I0404 10:54:10.172564 31384 net.cpp:145] Setting up conv2_6/x2
I0404 10:54:10.172585 31384 net.cpp:152] Top shape: 16 32 38 38 (739328)
I0404 10:54:10.172590 31384 net.cpp:160] Memory required for data: 877210432
I0404 10:54:10.172598 31384 layer_factory.hpp:77] Creating layer concat_2_6
I0404 10:54:10.172608 31384 net.cpp:95] Creating Layer concat_2_6
I0404 10:54:10.172614 31384 net.cpp:462] concat_2_6 <- concat_2_5_concat_2_5_0_split_1
I0404 10:54:10.172621 31384 net.cpp:462] concat_2_6 <- conv2_6/x2
I0404 10:54:10.172628 31384 net.cpp:436] concat_2_6 -> concat_2_6
I0404 10:54:10.172652 31384 net.cpp:145] Setting up concat_2_6
I0404 10:54:10.172662 31384 net.cpp:152] Top shape: 16 256 38 38 (5914624)
I0404 10:54:10.172667 31384 net.cpp:160] Memory required for data: 900868928
I0404 10:54:10.172672 31384 layer_factory.hpp:77] Creating layer conv2_6/blk/bn
I0404 10:54:10.172680 31384 net.cpp:95] Creating Layer conv2_6/blk/bn
I0404 10:54:10.172698 31384 net.cpp:462] conv2_6/blk/bn <- concat_2_6
I0404 10:54:10.172705 31384 net.cpp:436] conv2_6/blk/bn -> conv2_6/blk/bn
I0404 10:54:10.172855 31384 net.cpp:145] Setting up conv2_6/blk/bn
I0404 10:54:10.172864 31384 net.cpp:152] Top shape: 16 256 38 38 (5914624)
I0404 10:54:10.172868 31384 net.cpp:160] Memory required for data: 924527424
I0404 10:54:10.172889 31384 layer_factory.hpp:77] Creating layer conv2_6/blk/scale
I0404 10:54:10.172897 31384 net.cpp:95] Creating Layer conv2_6/blk/scale
I0404 10:54:10.172904 31384 net.cpp:462] conv2_6/blk/scale <- conv2_6/blk/bn
I0404 10:54:10.172909 31384 net.cpp:423] conv2_6/blk/scale -> conv2_6/blk/bn (in-place)
I0404 10:54:10.172957 31384 layer_factory.hpp:77] Creating layer conv2_6/blk/scale
I0404 10:54:10.173059 31384 net.cpp:145] Setting up conv2_6/blk/scale
I0404 10:54:10.173069 31384 net.cpp:152] Top shape: 16 256 38 38 (5914624)
I0404 10:54:10.173074 31384 net.cpp:160] Memory required for data: 948185920
I0404 10:54:10.173081 31384 layer_factory.hpp:77] Creating layer relu2_6/blk
I0404 10:54:10.173090 31384 net.cpp:95] Creating Layer relu2_6/blk
I0404 10:54:10.173096 31384 net.cpp:462] relu2_6/blk <- conv2_6/blk/bn
I0404 10:54:10.173104 31384 net.cpp:423] relu2_6/blk -> conv2_6/blk/bn (in-place)
I0404 10:54:10.173509 31384 net.cpp:145] Setting up relu2_6/blk
I0404 10:54:10.173521 31384 net.cpp:152] Top shape: 16 256 38 38 (5914624)
I0404 10:54:10.173527 31384 net.cpp:160] Memory required for data: 971844416
I0404 10:54:10.173532 31384 layer_factory.hpp:77] Creating layer conv2_6/blk
I0404 10:54:10.173550 31384 net.cpp:95] Creating Layer conv2_6/blk
I0404 10:54:10.173557 31384 net.cpp:462] conv2_6/blk <- conv2_6/blk/bn
I0404 10:54:10.173566 31384 net.cpp:436] conv2_6/blk -> conv2_6/blk
I0404 10:54:10.174695 31384 net.cpp:145] Setting up conv2_6/blk
I0404 10:54:10.174710 31384 net.cpp:152] Top shape: 16 128 38 38 (2957312)
I0404 10:54:10.174715 31384 net.cpp:160] Memory required for data: 983673664
I0404 10:54:10.174721 31384 layer_factory.hpp:77] Creating layer pool2_6
I0404 10:54:10.174734 31384 net.cpp:95] Creating Layer pool2_6
I0404 10:54:10.174741 31384 net.cpp:462] pool2_6 <- conv2_6/blk
I0404 10:54:10.174749 31384 net.cpp:436] pool2_6 -> pool2_6
I0404 10:54:10.174928 31384 net.cpp:145] Setting up pool2_6
I0404 10:54:10.174939 31384 net.cpp:152] Top shape: 16 128 19 19 (739328)
I0404 10:54:10.174944 31384 net.cpp:160] Memory required for data: 986630976
I0404 10:54:10.174948 31384 layer_factory.hpp:77] Creating layer pool2_6_pool2_6_0_split
I0404 10:54:10.174957 31384 net.cpp:95] Creating Layer pool2_6_pool2_6_0_split
I0404 10:54:10.174962 31384 net.cpp:462] pool2_6_pool2_6_0_split <- pool2_6
I0404 10:54:10.174968 31384 net.cpp:436] pool2_6_pool2_6_0_split -> pool2_6_pool2_6_0_split_0
I0404 10:54:10.174981 31384 net.cpp:436] pool2_6_pool2_6_0_split -> pool2_6_pool2_6_0_split_1
I0404 10:54:10.175027 31384 net.cpp:145] Setting up pool2_6_pool2_6_0_split
I0404 10:54:10.175040 31384 net.cpp:152] Top shape: 16 128 19 19 (739328)
I0404 10:54:10.175050 31384 net.cpp:152] Top shape: 16 128 19 19 (739328)
I0404 10:54:10.175060 31384 net.cpp:160] Memory required for data: 992545600
I0404 10:54:10.175070 31384 layer_factory.hpp:77] Creating layer conv3_1/x1/bn
I0404 10:54:10.175081 31384 net.cpp:95] Creating Layer conv3_1/x1/bn
I0404 10:54:10.175086 31384 net.cpp:462] conv3_1/x1/bn <- pool2_6_pool2_6_0_split_0
I0404 10:54:10.175092 31384 net.cpp:436] conv3_1/x1/bn -> conv3_1/x1/bn
I0404 10:54:10.175923 31384 net.cpp:145] Setting up conv3_1/x1/bn
I0404 10:54:10.175940 31384 net.cpp:152] Top shape: 16 128 19 19 (739328)
I0404 10:54:10.175945 31384 net.cpp:160] Memory required for data: 995502912
I0404 10:54:10.175956 31384 layer_factory.hpp:77] Creating layer conv3_1/x1/scale
I0404 10:54:10.175963 31384 net.cpp:95] Creating Layer conv3_1/x1/scale
I0404 10:54:10.175969 31384 net.cpp:462] conv3_1/x1/scale <- conv3_1/x1/bn
I0404 10:54:10.175977 31384 net.cpp:423] conv3_1/x1/scale -> conv3_1/x1/bn (in-place)
I0404 10:54:10.176019 31384 layer_factory.hpp:77] Creating layer conv3_1/x1/scale
I0404 10:54:10.176118 31384 net.cpp:145] Setting up conv3_1/x1/scale
I0404 10:54:10.176127 31384 net.cpp:152] Top shape: 16 128 19 19 (739328)
I0404 10:54:10.176132 31384 net.cpp:160] Memory required for data: 998460224
I0404 10:54:10.176139 31384 layer_factory.hpp:77] Creating layer relu3_1/x1
I0404 10:54:10.176147 31384 net.cpp:95] Creating Layer relu3_1/x1
I0404 10:54:10.176154 31384 net.cpp:462] relu3_1/x1 <- conv3_1/x1/bn
I0404 10:54:10.176160 31384 net.cpp:423] relu3_1/x1 -> conv3_1/x1/bn (in-place)
I0404 10:54:10.176327 31384 net.cpp:145] Setting up relu3_1/x1
I0404 10:54:10.176337 31384 net.cpp:152] Top shape: 16 128 19 19 (739328)
I0404 10:54:10.176342 31384 net.cpp:160] Memory required for data: 1001417536
I0404 10:54:10.176347 31384 layer_factory.hpp:77] Creating layer conv3_1/x1
I0404 10:54:10.176357 31384 net.cpp:95] Creating Layer conv3_1/x1
I0404 10:54:10.176362 31384 net.cpp:462] conv3_1/x1 <- conv3_1/x1/bn
I0404 10:54:10.176368 31384 net.cpp:436] conv3_1/x1 -> conv3_1/x1
I0404 10:54:10.177572 31384 net.cpp:145] Setting up conv3_1/x1
I0404 10:54:10.177587 31384 net.cpp:152] Top shape: 16 128 19 19 (739328)
I0404 10:54:10.177593 31384 net.cpp:160] Memory required for data: 1004374848
I0404 10:54:10.177600 31384 layer_factory.hpp:77] Creating layer conv3_1/x2/bn
I0404 10:54:10.177608 31384 net.cpp:95] Creating Layer conv3_1/x2/bn
I0404 10:54:10.177613 31384 net.cpp:462] conv3_1/x2/bn <- conv3_1/x1
I0404 10:54:10.177621 31384 net.cpp:436] conv3_1/x2/bn -> conv3_1/x2/bn
I0404 10:54:10.177784 31384 net.cpp:145] Setting up conv3_1/x2/bn
I0404 10:54:10.177803 31384 net.cpp:152] Top shape: 16 128 19 19 (739328)
I0404 10:54:10.177809 31384 net.cpp:160] Memory required for data: 1007332160
I0404 10:54:10.177817 31384 layer_factory.hpp:77] Creating layer conv3_1/x2/scale
I0404 10:54:10.177827 31384 net.cpp:95] Creating Layer conv3_1/x2/scale
I0404 10:54:10.177834 31384 net.cpp:462] conv3_1/x2/scale <- conv3_1/x2/bn
I0404 10:54:10.177840 31384 net.cpp:423] conv3_1/x2/scale -> conv3_1/x2/bn (in-place)
I0404 10:54:10.177878 31384 layer_factory.hpp:77] Creating layer conv3_1/x2/scale
I0404 10:54:10.177973 31384 net.cpp:145] Setting up conv3_1/x2/scale
I0404 10:54:10.177983 31384 net.cpp:152] Top shape: 16 128 19 19 (739328)
I0404 10:54:10.177987 31384 net.cpp:160] Memory required for data: 1010289472
I0404 10:54:10.177994 31384 layer_factory.hpp:77] Creating layer relu3_1/x2
I0404 10:54:10.178001 31384 net.cpp:95] Creating Layer relu3_1/x2
I0404 10:54:10.178006 31384 net.cpp:462] relu3_1/x2 <- conv3_1/x2/bn
I0404 10:54:10.178014 31384 net.cpp:423] relu3_1/x2 -> conv3_1/x2/bn (in-place)
I0404 10:54:10.178158 31384 net.cpp:145] Setting up relu3_1/x2
I0404 10:54:10.178171 31384 net.cpp:152] Top shape: 16 128 19 19 (739328)
I0404 10:54:10.178181 31384 net.cpp:160] Memory required for data: 1013246784
I0404 10:54:10.178191 31384 layer_factory.hpp:77] Creating layer conv3_1/x2
I0404 10:54:10.178205 31384 net.cpp:95] Creating Layer conv3_1/x2
I0404 10:54:10.178215 31384 net.cpp:462] conv3_1/x2 <- conv3_1/x2/bn
I0404 10:54:10.178225 31384 net.cpp:436] conv3_1/x2 -> conv3_1/x2
I0404 10:54:10.179451 31384 net.cpp:145] Setting up conv3_1/x2
I0404 10:54:10.179474 31384 net.cpp:152] Top shape: 16 32 19 19 (184832)
I0404 10:54:10.179481 31384 net.cpp:160] Memory required for data: 1013986112
I0404 10:54:10.179487 31384 layer_factory.hpp:77] Creating layer concat_3_1
I0404 10:54:10.179497 31384 net.cpp:95] Creating Layer concat_3_1
I0404 10:54:10.179503 31384 net.cpp:462] concat_3_1 <- pool2_6_pool2_6_0_split_1
I0404 10:54:10.179509 31384 net.cpp:462] concat_3_1 <- conv3_1/x2
I0404 10:54:10.179517 31384 net.cpp:436] concat_3_1 -> concat_3_1
I0404 10:54:10.179546 31384 net.cpp:145] Setting up concat_3_1
I0404 10:54:10.179555 31384 net.cpp:152] Top shape: 16 160 19 19 (924160)
I0404 10:54:10.179559 31384 net.cpp:160] Memory required for data: 1017682752
I0404 10:54:10.179566 31384 layer_factory.hpp:77] Creating layer concat_3_1_concat_3_1_0_split
I0404 10:54:10.179579 31384 net.cpp:95] Creating Layer concat_3_1_concat_3_1_0_split
I0404 10:54:10.179587 31384 net.cpp:462] concat_3_1_concat_3_1_0_split <- concat_3_1
I0404 10:54:10.179602 31384 net.cpp:436] concat_3_1_concat_3_1_0_split -> concat_3_1_concat_3_1_0_split_0
I0404 10:54:10.179616 31384 net.cpp:436] concat_3_1_concat_3_1_0_split -> concat_3_1_concat_3_1_0_split_1
I0404 10:54:10.179658 31384 net.cpp:145] Setting up concat_3_1_concat_3_1_0_split
I0404 10:54:10.179668 31384 net.cpp:152] Top shape: 16 160 19 19 (924160)
I0404 10:54:10.179673 31384 net.cpp:152] Top shape: 16 160 19 19 (924160)
I0404 10:54:10.179678 31384 net.cpp:160] Memory required for data: 1025076032
I0404 10:54:10.179682 31384 layer_factory.hpp:77] Creating layer conv3_2/x1/bn
I0404 10:54:10.179692 31384 net.cpp:95] Creating Layer conv3_2/x1/bn
I0404 10:54:10.179697 31384 net.cpp:462] conv3_2/x1/bn <- concat_3_1_concat_3_1_0_split_0
I0404 10:54:10.179704 31384 net.cpp:436] conv3_2/x1/bn -> conv3_2/x1/bn
I0404 10:54:10.179872 31384 net.cpp:145] Setting up conv3_2/x1/bn
I0404 10:54:10.179880 31384 net.cpp:152] Top shape: 16 160 19 19 (924160)
I0404 10:54:10.179885 31384 net.cpp:160] Memory required for data: 1028772672
I0404 10:54:10.179893 31384 layer_factory.hpp:77] Creating layer conv3_2/x1/scale
I0404 10:54:10.179901 31384 net.cpp:95] Creating Layer conv3_2/x1/scale
I0404 10:54:10.179906 31384 net.cpp:462] conv3_2/x1/scale <- conv3_2/x1/bn
I0404 10:54:10.179914 31384 net.cpp:423] conv3_2/x1/scale -> conv3_2/x1/bn (in-place)
I0404 10:54:10.179962 31384 layer_factory.hpp:77] Creating layer conv3_2/x1/scale
I0404 10:54:10.180083 31384 net.cpp:145] Setting up conv3_2/x1/scale
I0404 10:54:10.180109 31384 net.cpp:152] Top shape: 16 160 19 19 (924160)
I0404 10:54:10.180114 31384 net.cpp:160] Memory required for data: 1032469312
I0404 10:54:10.180122 31384 layer_factory.hpp:77] Creating layer relu3_2/x1
I0404 10:54:10.180130 31384 net.cpp:95] Creating Layer relu3_2/x1
I0404 10:54:10.180135 31384 net.cpp:462] relu3_2/x1 <- conv3_2/x1/bn
I0404 10:54:10.180141 31384 net.cpp:423] relu3_2/x1 -> conv3_2/x1/bn (in-place)
I0404 10:54:10.180295 31384 net.cpp:145] Setting up relu3_2/x1
I0404 10:54:10.180315 31384 net.cpp:152] Top shape: 16 160 19 19 (924160)
I0404 10:54:10.180320 31384 net.cpp:160] Memory required for data: 1036165952
I0404 10:54:10.180325 31384 layer_factory.hpp:77] Creating layer conv3_2/x1
I0404 10:54:10.180336 31384 net.cpp:95] Creating Layer conv3_2/x1
I0404 10:54:10.180341 31384 net.cpp:462] conv3_2/x1 <- conv3_2/x1/bn
I0404 10:54:10.180347 31384 net.cpp:436] conv3_2/x1 -> conv3_2/x1
I0404 10:54:10.181262 31384 net.cpp:145] Setting up conv3_2/x1
I0404 10:54:10.181275 31384 net.cpp:152] Top shape: 16 128 19 19 (739328)
I0404 10:54:10.181280 31384 net.cpp:160] Memory required for data: 1039123264
I0404 10:54:10.181288 31384 layer_factory.hpp:77] Creating layer conv3_2/x2/bn
I0404 10:54:10.181295 31384 net.cpp:95] Creating Layer conv3_2/x2/bn
I0404 10:54:10.181301 31384 net.cpp:462] conv3_2/x2/bn <- conv3_2/x1
I0404 10:54:10.181308 31384 net.cpp:436] conv3_2/x2/bn -> conv3_2/x2/bn
I0404 10:54:10.181473 31384 net.cpp:145] Setting up conv3_2/x2/bn
I0404 10:54:10.181483 31384 net.cpp:152] Top shape: 16 128 19 19 (739328)
I0404 10:54:10.181488 31384 net.cpp:160] Memory required for data: 1042080576
I0404 10:54:10.181495 31384 layer_factory.hpp:77] Creating layer conv3_2/x2/scale
I0404 10:54:10.181504 31384 net.cpp:95] Creating Layer conv3_2/x2/scale
I0404 10:54:10.181509 31384 net.cpp:462] conv3_2/x2/scale <- conv3_2/x2/bn
I0404 10:54:10.181516 31384 net.cpp:423] conv3_2/x2/scale -> conv3_2/x2/bn (in-place)
I0404 10:54:10.181555 31384 layer_factory.hpp:77] Creating layer conv3_2/x2/scale
I0404 10:54:10.181648 31384 net.cpp:145] Setting up conv3_2/x2/scale
I0404 10:54:10.181658 31384 net.cpp:152] Top shape: 16 128 19 19 (739328)
I0404 10:54:10.181663 31384 net.cpp:160] Memory required for data: 1045037888
I0404 10:54:10.181670 31384 layer_factory.hpp:77] Creating layer relu3_2/x2
I0404 10:54:10.181676 31384 net.cpp:95] Creating Layer relu3_2/x2
I0404 10:54:10.181681 31384 net.cpp:462] relu3_2/x2 <- conv3_2/x2/bn
I0404 10:54:10.181687 31384 net.cpp:423] relu3_2/x2 -> conv3_2/x2/bn (in-place)
I0404 10:54:10.182092 31384 net.cpp:145] Setting up relu3_2/x2
I0404 10:54:10.182104 31384 net.cpp:152] Top shape: 16 128 19 19 (739328)
I0404 10:54:10.182109 31384 net.cpp:160] Memory required for data: 1047995200
I0404 10:54:10.182114 31384 layer_factory.hpp:77] Creating layer conv3_2/x2
I0404 10:54:10.182124 31384 net.cpp:95] Creating Layer conv3_2/x2
I0404 10:54:10.182130 31384 net.cpp:462] conv3_2/x2 <- conv3_2/x2/bn
I0404 10:54:10.182137 31384 net.cpp:436] conv3_2/x2 -> conv3_2/x2
I0404 10:54:10.182756 31384 net.cpp:145] Setting up conv3_2/x2
I0404 10:54:10.182768 31384 net.cpp:152] Top shape: 16 32 19 19 (184832)
I0404 10:54:10.182773 31384 net.cpp:160] Memory required for data: 1048734528
I0404 10:54:10.182780 31384 layer_factory.hpp:77] Creating layer concat_3_2
I0404 10:54:10.182788 31384 net.cpp:95] Creating Layer concat_3_2
I0404 10:54:10.182796 31384 net.cpp:462] concat_3_2 <- concat_3_1_concat_3_1_0_split_1
I0404 10:54:10.182801 31384 net.cpp:462] concat_3_2 <- conv3_2/x2
I0404 10:54:10.182809 31384 net.cpp:436] concat_3_2 -> concat_3_2
I0404 10:54:10.182835 31384 net.cpp:145] Setting up concat_3_2
I0404 10:54:10.182844 31384 net.cpp:152] Top shape: 16 192 19 19 (1108992)
I0404 10:54:10.182848 31384 net.cpp:160] Memory required for data: 1053170496
I0404 10:54:10.182853 31384 layer_factory.hpp:77] Creating layer concat_3_2_concat_3_2_0_split
I0404 10:54:10.182862 31384 net.cpp:95] Creating Layer concat_3_2_concat_3_2_0_split
I0404 10:54:10.182867 31384 net.cpp:462] concat_3_2_concat_3_2_0_split <- concat_3_2
I0404 10:54:10.182883 31384 net.cpp:436] concat_3_2_concat_3_2_0_split -> concat_3_2_concat_3_2_0_split_0
I0404 10:54:10.182896 31384 net.cpp:436] concat_3_2_concat_3_2_0_split -> concat_3_2_concat_3_2_0_split_1
I0404 10:54:10.182934 31384 net.cpp:145] Setting up concat_3_2_concat_3_2_0_split
I0404 10:54:10.182942 31384 net.cpp:152] Top shape: 16 192 19 19 (1108992)
I0404 10:54:10.182948 31384 net.cpp:152] Top shape: 16 192 19 19 (1108992)
I0404 10:54:10.182952 31384 net.cpp:160] Memory required for data: 1062042432
I0404 10:54:10.182957 31384 layer_factory.hpp:77] Creating layer conv3_3/x1/bn
I0404 10:54:10.182965 31384 net.cpp:95] Creating Layer conv3_3/x1/bn
I0404 10:54:10.182971 31384 net.cpp:462] conv3_3/x1/bn <- concat_3_2_concat_3_2_0_split_0
I0404 10:54:10.182977 31384 net.cpp:436] conv3_3/x1/bn -> conv3_3/x1/bn
I0404 10:54:10.183140 31384 net.cpp:145] Setting up conv3_3/x1/bn
I0404 10:54:10.183151 31384 net.cpp:152] Top shape: 16 192 19 19 (1108992)
I0404 10:54:10.183154 31384 net.cpp:160] Memory required for data: 1066478400
I0404 10:54:10.183163 31384 layer_factory.hpp:77] Creating layer conv3_3/x1/scale
I0404 10:54:10.183171 31384 net.cpp:95] Creating Layer conv3_3/x1/scale
I0404 10:54:10.183177 31384 net.cpp:462] conv3_3/x1/scale <- conv3_3/x1/bn
I0404 10:54:10.183183 31384 net.cpp:423] conv3_3/x1/scale -> conv3_3/x1/bn (in-place)
I0404 10:54:10.183221 31384 layer_factory.hpp:77] Creating layer conv3_3/x1/scale
I0404 10:54:10.183321 31384 net.cpp:145] Setting up conv3_3/x1/scale
I0404 10:54:10.183331 31384 net.cpp:152] Top shape: 16 192 19 19 (1108992)
I0404 10:54:10.183336 31384 net.cpp:160] Memory required for data: 1070914368
I0404 10:54:10.183342 31384 layer_factory.hpp:77] Creating layer relu3_3/x1
I0404 10:54:10.183348 31384 net.cpp:95] Creating Layer relu3_3/x1
I0404 10:54:10.183353 31384 net.cpp:462] relu3_3/x1 <- conv3_3/x1/bn
I0404 10:54:10.183362 31384 net.cpp:423] relu3_3/x1 -> conv3_3/x1/bn (in-place)
I0404 10:54:10.183773 31384 net.cpp:145] Setting up relu3_3/x1
I0404 10:54:10.183787 31384 net.cpp:152] Top shape: 16 192 19 19 (1108992)
I0404 10:54:10.183796 31384 net.cpp:160] Memory required for data: 1075350336
I0404 10:54:10.183805 31384 layer_factory.hpp:77] Creating layer conv3_3/x1
I0404 10:54:10.183822 31384 net.cpp:95] Creating Layer conv3_3/x1
I0404 10:54:10.183830 31384 net.cpp:462] conv3_3/x1 <- conv3_3/x1/bn
I0404 10:54:10.183836 31384 net.cpp:436] conv3_3/x1 -> conv3_3/x1
I0404 10:54:10.184725 31384 net.cpp:145] Setting up conv3_3/x1
I0404 10:54:10.184747 31384 net.cpp:152] Top shape: 16 128 19 19 (739328)
I0404 10:54:10.184752 31384 net.cpp:160] Memory required for data: 1078307648
I0404 10:54:10.184759 31384 layer_factory.hpp:77] Creating layer conv3_3/x2/bn
I0404 10:54:10.184768 31384 net.cpp:95] Creating Layer conv3_3/x2/bn
I0404 10:54:10.184773 31384 net.cpp:462] conv3_3/x2/bn <- conv3_3/x1
I0404 10:54:10.184784 31384 net.cpp:436] conv3_3/x2/bn -> conv3_3/x2/bn
I0404 10:54:10.184953 31384 net.cpp:145] Setting up conv3_3/x2/bn
I0404 10:54:10.184963 31384 net.cpp:152] Top shape: 16 128 19 19 (739328)
I0404 10:54:10.184967 31384 net.cpp:160] Memory required for data: 1081264960
I0404 10:54:10.184975 31384 layer_factory.hpp:77] Creating layer conv3_3/x2/scale
I0404 10:54:10.184984 31384 net.cpp:95] Creating Layer conv3_3/x2/scale
I0404 10:54:10.184990 31384 net.cpp:462] conv3_3/x2/scale <- conv3_3/x2/bn
I0404 10:54:10.184996 31384 net.cpp:423] conv3_3/x2/scale -> conv3_3/x2/bn (in-place)
I0404 10:54:10.185032 31384 layer_factory.hpp:77] Creating layer conv3_3/x2/scale
I0404 10:54:10.185124 31384 net.cpp:145] Setting up conv3_3/x2/scale
I0404 10:54:10.185133 31384 net.cpp:152] Top shape: 16 128 19 19 (739328)
I0404 10:54:10.185137 31384 net.cpp:160] Memory required for data: 1084222272
I0404 10:54:10.185144 31384 layer_factory.hpp:77] Creating layer relu3_3/x2
I0404 10:54:10.185153 31384 net.cpp:95] Creating Layer relu3_3/x2
I0404 10:54:10.185158 31384 net.cpp:462] relu3_3/x2 <- conv3_3/x2/bn
I0404 10:54:10.185163 31384 net.cpp:423] relu3_3/x2 -> conv3_3/x2/bn (in-place)
I0404 10:54:10.185336 31384 net.cpp:145] Setting up relu3_3/x2
I0404 10:54:10.185348 31384 net.cpp:152] Top shape: 16 128 19 19 (739328)
I0404 10:54:10.185351 31384 net.cpp:160] Memory required for data: 1087179584
I0404 10:54:10.185356 31384 layer_factory.hpp:77] Creating layer conv3_3/x2
I0404 10:54:10.185369 31384 net.cpp:95] Creating Layer conv3_3/x2
I0404 10:54:10.185374 31384 net.cpp:462] conv3_3/x2 <- conv3_3/x2/bn
I0404 10:54:10.185381 31384 net.cpp:436] conv3_3/x2 -> conv3_3/x2
I0404 10:54:10.186548 31384 net.cpp:145] Setting up conv3_3/x2
I0404 10:54:10.186561 31384 net.cpp:152] Top shape: 16 32 19 19 (184832)
I0404 10:54:10.186568 31384 net.cpp:160] Memory required for data: 1087918912
I0404 10:54:10.186574 31384 layer_factory.hpp:77] Creating layer concat_3_3
I0404 10:54:10.186581 31384 net.cpp:95] Creating Layer concat_3_3
I0404 10:54:10.186586 31384 net.cpp:462] concat_3_3 <- concat_3_2_concat_3_2_0_split_1
I0404 10:54:10.186594 31384 net.cpp:462] concat_3_3 <- conv3_3/x2
I0404 10:54:10.186600 31384 net.cpp:436] concat_3_3 -> concat_3_3
I0404 10:54:10.186628 31384 net.cpp:145] Setting up concat_3_3
I0404 10:54:10.186637 31384 net.cpp:152] Top shape: 16 224 19 19 (1293824)
I0404 10:54:10.186641 31384 net.cpp:160] Memory required for data: 1093094208
I0404 10:54:10.186646 31384 layer_factory.hpp:77] Creating layer concat_3_3_concat_3_3_0_split
I0404 10:54:10.186652 31384 net.cpp:95] Creating Layer concat_3_3_concat_3_3_0_split
I0404 10:54:10.186656 31384 net.cpp:462] concat_3_3_concat_3_3_0_split <- concat_3_3
I0404 10:54:10.186664 31384 net.cpp:436] concat_3_3_concat_3_3_0_split -> concat_3_3_concat_3_3_0_split_0
I0404 10:54:10.186671 31384 net.cpp:436] concat_3_3_concat_3_3_0_split -> concat_3_3_concat_3_3_0_split_1
I0404 10:54:10.186705 31384 net.cpp:145] Setting up concat_3_3_concat_3_3_0_split
I0404 10:54:10.186714 31384 net.cpp:152] Top shape: 16 224 19 19 (1293824)
I0404 10:54:10.186719 31384 net.cpp:152] Top shape: 16 224 19 19 (1293824)
I0404 10:54:10.186723 31384 net.cpp:160] Memory required for data: 1103444800
I0404 10:54:10.186728 31384 layer_factory.hpp:77] Creating layer conv3_4/x1/bn
I0404 10:54:10.186736 31384 net.cpp:95] Creating Layer conv3_4/x1/bn
I0404 10:54:10.186741 31384 net.cpp:462] conv3_4/x1/bn <- concat_3_3_concat_3_3_0_split_0
I0404 10:54:10.186748 31384 net.cpp:436] conv3_4/x1/bn -> conv3_4/x1/bn
I0404 10:54:10.186913 31384 net.cpp:145] Setting up conv3_4/x1/bn
I0404 10:54:10.186921 31384 net.cpp:152] Top shape: 16 224 19 19 (1293824)
I0404 10:54:10.186926 31384 net.cpp:160] Memory required for data: 1108620096
I0404 10:54:10.186934 31384 layer_factory.hpp:77] Creating layer conv3_4/x1/scale
I0404 10:54:10.186941 31384 net.cpp:95] Creating Layer conv3_4/x1/scale
I0404 10:54:10.186947 31384 net.cpp:462] conv3_4/x1/scale <- conv3_4/x1/bn
I0404 10:54:10.186955 31384 net.cpp:423] conv3_4/x1/scale -> conv3_4/x1/bn (in-place)
I0404 10:54:10.186992 31384 layer_factory.hpp:77] Creating layer conv3_4/x1/scale
I0404 10:54:10.187090 31384 net.cpp:145] Setting up conv3_4/x1/scale
I0404 10:54:10.187099 31384 net.cpp:152] Top shape: 16 224 19 19 (1293824)
I0404 10:54:10.187104 31384 net.cpp:160] Memory required for data: 1113795392
I0404 10:54:10.187111 31384 layer_factory.hpp:77] Creating layer relu3_4/x1
I0404 10:54:10.187119 31384 net.cpp:95] Creating Layer relu3_4/x1
I0404 10:54:10.187124 31384 net.cpp:462] relu3_4/x1 <- conv3_4/x1/bn
I0404 10:54:10.187129 31384 net.cpp:423] relu3_4/x1 -> conv3_4/x1/bn (in-place)
I0404 10:54:10.187275 31384 net.cpp:145] Setting up relu3_4/x1
I0404 10:54:10.187285 31384 net.cpp:152] Top shape: 16 224 19 19 (1293824)
I0404 10:54:10.187289 31384 net.cpp:160] Memory required for data: 1118970688
I0404 10:54:10.187294 31384 layer_factory.hpp:77] Creating layer conv3_4/x1
I0404 10:54:10.187304 31384 net.cpp:95] Creating Layer conv3_4/x1
I0404 10:54:10.187312 31384 net.cpp:462] conv3_4/x1 <- conv3_4/x1/bn
I0404 10:54:10.187319 31384 net.cpp:436] conv3_4/x1 -> conv3_4/x1
I0404 10:54:10.188215 31384 net.cpp:145] Setting up conv3_4/x1
I0404 10:54:10.188236 31384 net.cpp:152] Top shape: 16 128 19 19 (739328)
I0404 10:54:10.188242 31384 net.cpp:160] Memory required for data: 1121928000
I0404 10:54:10.188249 31384 layer_factory.hpp:77] Creating layer conv3_4/x2/bn
I0404 10:54:10.188257 31384 net.cpp:95] Creating Layer conv3_4/x2/bn
I0404 10:54:10.188263 31384 net.cpp:462] conv3_4/x2/bn <- conv3_4/x1
I0404 10:54:10.188271 31384 net.cpp:436] conv3_4/x2/bn -> conv3_4/x2/bn
I0404 10:54:10.188437 31384 net.cpp:145] Setting up conv3_4/x2/bn
I0404 10:54:10.188446 31384 net.cpp:152] Top shape: 16 128 19 19 (739328)
I0404 10:54:10.188450 31384 net.cpp:160] Memory required for data: 1124885312
I0404 10:54:10.188465 31384 layer_factory.hpp:77] Creating layer conv3_4/x2/scale
I0404 10:54:10.188475 31384 net.cpp:95] Creating Layer conv3_4/x2/scale
I0404 10:54:10.188482 31384 net.cpp:462] conv3_4/x2/scale <- conv3_4/x2/bn
I0404 10:54:10.188489 31384 net.cpp:423] conv3_4/x2/scale -> conv3_4/x2/bn (in-place)
I0404 10:54:10.188525 31384 layer_factory.hpp:77] Creating layer conv3_4/x2/scale
I0404 10:54:10.188618 31384 net.cpp:145] Setting up conv3_4/x2/scale
I0404 10:54:10.188627 31384 net.cpp:152] Top shape: 16 128 19 19 (739328)
I0404 10:54:10.188632 31384 net.cpp:160] Memory required for data: 1127842624
I0404 10:54:10.188638 31384 layer_factory.hpp:77] Creating layer relu3_4/x2
I0404 10:54:10.188645 31384 net.cpp:95] Creating Layer relu3_4/x2
I0404 10:54:10.188650 31384 net.cpp:462] relu3_4/x2 <- conv3_4/x2/bn
I0404 10:54:10.188655 31384 net.cpp:423] relu3_4/x2 -> conv3_4/x2/bn (in-place)
I0404 10:54:10.188796 31384 net.cpp:145] Setting up relu3_4/x2
I0404 10:54:10.188807 31384 net.cpp:152] Top shape: 16 128 19 19 (739328)
I0404 10:54:10.188812 31384 net.cpp:160] Memory required for data: 1130799936
I0404 10:54:10.188817 31384 layer_factory.hpp:77] Creating layer conv3_4/x2
I0404 10:54:10.188835 31384 net.cpp:95] Creating Layer conv3_4/x2
I0404 10:54:10.188840 31384 net.cpp:462] conv3_4/x2 <- conv3_4/x2/bn
I0404 10:54:10.188848 31384 net.cpp:436] conv3_4/x2 -> conv3_4/x2
I0404 10:54:10.190374 31384 net.cpp:145] Setting up conv3_4/x2
I0404 10:54:10.190399 31384 net.cpp:152] Top shape: 16 32 19 19 (184832)
I0404 10:54:10.190405 31384 net.cpp:160] Memory required for data: 1131539264
I0404 10:54:10.190412 31384 layer_factory.hpp:77] Creating layer concat_3_4
I0404 10:54:10.190419 31384 net.cpp:95] Creating Layer concat_3_4
I0404 10:54:10.190424 31384 net.cpp:462] concat_3_4 <- concat_3_3_concat_3_3_0_split_1
I0404 10:54:10.190431 31384 net.cpp:462] concat_3_4 <- conv3_4/x2
I0404 10:54:10.190438 31384 net.cpp:436] concat_3_4 -> concat_3_4
I0404 10:54:10.190472 31384 net.cpp:145] Setting up concat_3_4
I0404 10:54:10.190490 31384 net.cpp:152] Top shape: 16 256 19 19 (1478656)
I0404 10:54:10.190495 31384 net.cpp:160] Memory required for data: 1137453888
I0404 10:54:10.190500 31384 layer_factory.hpp:77] Creating layer concat_3_4_concat_3_4_0_split
I0404 10:54:10.190507 31384 net.cpp:95] Creating Layer concat_3_4_concat_3_4_0_split
I0404 10:54:10.190512 31384 net.cpp:462] concat_3_4_concat_3_4_0_split <- concat_3_4
I0404 10:54:10.190518 31384 net.cpp:436] concat_3_4_concat_3_4_0_split -> concat_3_4_concat_3_4_0_split_0
I0404 10:54:10.190526 31384 net.cpp:436] concat_3_4_concat_3_4_0_split -> concat_3_4_concat_3_4_0_split_1
I0404 10:54:10.190568 31384 net.cpp:145] Setting up concat_3_4_concat_3_4_0_split
I0404 10:54:10.190577 31384 net.cpp:152] Top shape: 16 256 19 19 (1478656)
I0404 10:54:10.190591 31384 net.cpp:152] Top shape: 16 256 19 19 (1478656)
I0404 10:54:10.190596 31384 net.cpp:160] Memory required for data: 1149283136
I0404 10:54:10.190600 31384 layer_factory.hpp:77] Creating layer conv3_5/x1/bn
I0404 10:54:10.190608 31384 net.cpp:95] Creating Layer conv3_5/x1/bn
I0404 10:54:10.190613 31384 net.cpp:462] conv3_5/x1/bn <- concat_3_4_concat_3_4_0_split_0
I0404 10:54:10.190619 31384 net.cpp:436] conv3_5/x1/bn -> conv3_5/x1/bn
I0404 10:54:10.190786 31384 net.cpp:145] Setting up conv3_5/x1/bn
I0404 10:54:10.190795 31384 net.cpp:152] Top shape: 16 256 19 19 (1478656)
I0404 10:54:10.190819 31384 net.cpp:160] Memory required for data: 1155197760
I0404 10:54:10.190827 31384 layer_factory.hpp:77] Creating layer conv3_5/x1/scale
I0404 10:54:10.190838 31384 net.cpp:95] Creating Layer conv3_5/x1/scale
I0404 10:54:10.190843 31384 net.cpp:462] conv3_5/x1/scale <- conv3_5/x1/bn
I0404 10:54:10.190850 31384 net.cpp:423] conv3_5/x1/scale -> conv3_5/x1/bn (in-place)
I0404 10:54:10.190897 31384 layer_factory.hpp:77] Creating layer conv3_5/x1/scale
I0404 10:54:10.191020 31384 net.cpp:145] Setting up conv3_5/x1/scale
I0404 10:54:10.191028 31384 net.cpp:152] Top shape: 16 256 19 19 (1478656)
I0404 10:54:10.191032 31384 net.cpp:160] Memory required for data: 1161112384
I0404 10:54:10.191040 31384 layer_factory.hpp:77] Creating layer relu3_5/x1
I0404 10:54:10.191048 31384 net.cpp:95] Creating Layer relu3_5/x1
I0404 10:54:10.191053 31384 net.cpp:462] relu3_5/x1 <- conv3_5/x1/bn
I0404 10:54:10.191068 31384 net.cpp:423] relu3_5/x1 -> conv3_5/x1/bn (in-place)
I0404 10:54:10.191217 31384 net.cpp:145] Setting up relu3_5/x1
I0404 10:54:10.191227 31384 net.cpp:152] Top shape: 16 256 19 19 (1478656)
I0404 10:54:10.191231 31384 net.cpp:160] Memory required for data: 1167027008
I0404 10:54:10.191236 31384 layer_factory.hpp:77] Creating layer conv3_5/x1
I0404 10:54:10.191246 31384 net.cpp:95] Creating Layer conv3_5/x1
I0404 10:54:10.191251 31384 net.cpp:462] conv3_5/x1 <- conv3_5/x1/bn
I0404 10:54:10.191257 31384 net.cpp:436] conv3_5/x1 -> conv3_5/x1
I0404 10:54:10.192126 31384 net.cpp:145] Setting up conv3_5/x1
I0404 10:54:10.192140 31384 net.cpp:152] Top shape: 16 128 19 19 (739328)
I0404 10:54:10.192145 31384 net.cpp:160] Memory required for data: 1169984320
I0404 10:54:10.192162 31384 layer_factory.hpp:77] Creating layer conv3_5/x2/bn
I0404 10:54:10.192169 31384 net.cpp:95] Creating Layer conv3_5/x2/bn
I0404 10:54:10.192174 31384 net.cpp:462] conv3_5/x2/bn <- conv3_5/x1
I0404 10:54:10.192183 31384 net.cpp:436] conv3_5/x2/bn -> conv3_5/x2/bn
I0404 10:54:10.192356 31384 net.cpp:145] Setting up conv3_5/x2/bn
I0404 10:54:10.192365 31384 net.cpp:152] Top shape: 16 128 19 19 (739328)
I0404 10:54:10.192370 31384 net.cpp:160] Memory required for data: 1172941632
I0404 10:54:10.192378 31384 layer_factory.hpp:77] Creating layer conv3_5/x2/scale
I0404 10:54:10.192386 31384 net.cpp:95] Creating Layer conv3_5/x2/scale
I0404 10:54:10.192392 31384 net.cpp:462] conv3_5/x2/scale <- conv3_5/x2/bn
I0404 10:54:10.192399 31384 net.cpp:423] conv3_5/x2/scale -> conv3_5/x2/bn (in-place)
I0404 10:54:10.192435 31384 layer_factory.hpp:77] Creating layer conv3_5/x2/scale
I0404 10:54:10.192531 31384 net.cpp:145] Setting up conv3_5/x2/scale
I0404 10:54:10.192540 31384 net.cpp:152] Top shape: 16 128 19 19 (739328)
I0404 10:54:10.192545 31384 net.cpp:160] Memory required for data: 1175898944
I0404 10:54:10.192553 31384 layer_factory.hpp:77] Creating layer relu3_5/x2
I0404 10:54:10.192559 31384 net.cpp:95] Creating Layer relu3_5/x2
I0404 10:54:10.192564 31384 net.cpp:462] relu3_5/x2 <- conv3_5/x2/bn
I0404 10:54:10.192570 31384 net.cpp:423] relu3_5/x2 -> conv3_5/x2/bn (in-place)
I0404 10:54:10.192975 31384 net.cpp:145] Setting up relu3_5/x2
I0404 10:54:10.192986 31384 net.cpp:152] Top shape: 16 128 19 19 (739328)
I0404 10:54:10.192991 31384 net.cpp:160] Memory required for data: 1178856256
I0404 10:54:10.192996 31384 layer_factory.hpp:77] Creating layer conv3_5/x2
I0404 10:54:10.193006 31384 net.cpp:95] Creating Layer conv3_5/x2
I0404 10:54:10.193011 31384 net.cpp:462] conv3_5/x2 <- conv3_5/x2/bn
I0404 10:54:10.193018 31384 net.cpp:436] conv3_5/x2 -> conv3_5/x2
I0404 10:54:10.193913 31384 net.cpp:145] Setting up conv3_5/x2
I0404 10:54:10.193928 31384 net.cpp:152] Top shape: 16 32 19 19 (184832)
I0404 10:54:10.193933 31384 net.cpp:160] Memory required for data: 1179595584
I0404 10:54:10.193939 31384 layer_factory.hpp:77] Creating layer concat_3_5
I0404 10:54:10.193948 31384 net.cpp:95] Creating Layer concat_3_5
I0404 10:54:10.193962 31384 net.cpp:462] concat_3_5 <- concat_3_4_concat_3_4_0_split_1
I0404 10:54:10.193969 31384 net.cpp:462] concat_3_5 <- conv3_5/x2
I0404 10:54:10.193987 31384 net.cpp:436] concat_3_5 -> concat_3_5
I0404 10:54:10.194017 31384 net.cpp:145] Setting up concat_3_5
I0404 10:54:10.194025 31384 net.cpp:152] Top shape: 16 288 19 19 (1663488)
I0404 10:54:10.194031 31384 net.cpp:160] Memory required for data: 1186249536
I0404 10:54:10.194034 31384 layer_factory.hpp:77] Creating layer concat_3_5_concat_3_5_0_split
I0404 10:54:10.194041 31384 net.cpp:95] Creating Layer concat_3_5_concat_3_5_0_split
I0404 10:54:10.194046 31384 net.cpp:462] concat_3_5_concat_3_5_0_split <- concat_3_5
I0404 10:54:10.194053 31384 net.cpp:436] concat_3_5_concat_3_5_0_split -> concat_3_5_concat_3_5_0_split_0
I0404 10:54:10.194061 31384 net.cpp:436] concat_3_5_concat_3_5_0_split -> concat_3_5_concat_3_5_0_split_1
I0404 10:54:10.194094 31384 net.cpp:145] Setting up concat_3_5_concat_3_5_0_split
I0404 10:54:10.194103 31384 net.cpp:152] Top shape: 16 288 19 19 (1663488)
I0404 10:54:10.194108 31384 net.cpp:152] Top shape: 16 288 19 19 (1663488)
I0404 10:54:10.194113 31384 net.cpp:160] Memory required for data: 1199557440
I0404 10:54:10.194116 31384 layer_factory.hpp:77] Creating layer conv3_6/x1/bn
I0404 10:54:10.194124 31384 net.cpp:95] Creating Layer conv3_6/x1/bn
I0404 10:54:10.194129 31384 net.cpp:462] conv3_6/x1/bn <- concat_3_5_concat_3_5_0_split_0
I0404 10:54:10.194138 31384 net.cpp:436] conv3_6/x1/bn -> conv3_6/x1/bn
I0404 10:54:10.194327 31384 net.cpp:145] Setting up conv3_6/x1/bn
I0404 10:54:10.194335 31384 net.cpp:152] Top shape: 16 288 19 19 (1663488)
I0404 10:54:10.194340 31384 net.cpp:160] Memory required for data: 1206211392
I0404 10:54:10.194348 31384 layer_factory.hpp:77] Creating layer conv3_6/x1/scale
I0404 10:54:10.194355 31384 net.cpp:95] Creating Layer conv3_6/x1/scale
I0404 10:54:10.194360 31384 net.cpp:462] conv3_6/x1/scale <- conv3_6/x1/bn
I0404 10:54:10.194368 31384 net.cpp:423] conv3_6/x1/scale -> conv3_6/x1/bn (in-place)
I0404 10:54:10.194408 31384 layer_factory.hpp:77] Creating layer conv3_6/x1/scale
I0404 10:54:10.194509 31384 net.cpp:145] Setting up conv3_6/x1/scale
I0404 10:54:10.194519 31384 net.cpp:152] Top shape: 16 288 19 19 (1663488)
I0404 10:54:10.194522 31384 net.cpp:160] Memory required for data: 1212865344
I0404 10:54:10.194530 31384 layer_factory.hpp:77] Creating layer relu3_6/x1
I0404 10:54:10.194538 31384 net.cpp:95] Creating Layer relu3_6/x1
I0404 10:54:10.194545 31384 net.cpp:462] relu3_6/x1 <- conv3_6/x1/bn
I0404 10:54:10.194550 31384 net.cpp:423] relu3_6/x1 -> conv3_6/x1/bn (in-place)
I0404 10:54:10.194950 31384 net.cpp:145] Setting up relu3_6/x1
I0404 10:54:10.194963 31384 net.cpp:152] Top shape: 16 288 19 19 (1663488)
I0404 10:54:10.194969 31384 net.cpp:160] Memory required for data: 1219519296
I0404 10:54:10.194974 31384 layer_factory.hpp:77] Creating layer conv3_6/x1
I0404 10:54:10.194983 31384 net.cpp:95] Creating Layer conv3_6/x1
I0404 10:54:10.194988 31384 net.cpp:462] conv3_6/x1 <- conv3_6/x1/bn
I0404 10:54:10.194994 31384 net.cpp:436] conv3_6/x1 -> conv3_6/x1
I0404 10:54:10.195890 31384 net.cpp:145] Setting up conv3_6/x1
I0404 10:54:10.195904 31384 net.cpp:152] Top shape: 16 128 19 19 (739328)
I0404 10:54:10.195909 31384 net.cpp:160] Memory required for data: 1222476608
I0404 10:54:10.195915 31384 layer_factory.hpp:77] Creating layer conv3_6/x2/bn
I0404 10:54:10.195924 31384 net.cpp:95] Creating Layer conv3_6/x2/bn
I0404 10:54:10.195930 31384 net.cpp:462] conv3_6/x2/bn <- conv3_6/x1
I0404 10:54:10.195937 31384 net.cpp:436] conv3_6/x2/bn -> conv3_6/x2/bn
I0404 10:54:10.196105 31384 net.cpp:145] Setting up conv3_6/x2/bn
I0404 10:54:10.196113 31384 net.cpp:152] Top shape: 16 128 19 19 (739328)
I0404 10:54:10.196118 31384 net.cpp:160] Memory required for data: 1225433920
I0404 10:54:10.196126 31384 layer_factory.hpp:77] Creating layer conv3_6/x2/scale
I0404 10:54:10.196135 31384 net.cpp:95] Creating Layer conv3_6/x2/scale
I0404 10:54:10.196141 31384 net.cpp:462] conv3_6/x2/scale <- conv3_6/x2/bn
I0404 10:54:10.196146 31384 net.cpp:423] conv3_6/x2/scale -> conv3_6/x2/bn (in-place)
I0404 10:54:10.196184 31384 layer_factory.hpp:77] Creating layer conv3_6/x2/scale
I0404 10:54:10.196287 31384 net.cpp:145] Setting up conv3_6/x2/scale
I0404 10:54:10.196296 31384 net.cpp:152] Top shape: 16 128 19 19 (739328)
I0404 10:54:10.196301 31384 net.cpp:160] Memory required for data: 1228391232
I0404 10:54:10.196308 31384 layer_factory.hpp:77] Creating layer relu3_6/x2
I0404 10:54:10.196321 31384 net.cpp:95] Creating Layer relu3_6/x2
I0404 10:54:10.196326 31384 net.cpp:462] relu3_6/x2 <- conv3_6/x2/bn
I0404 10:54:10.196332 31384 net.cpp:423] relu3_6/x2 -> conv3_6/x2/bn (in-place)
I0404 10:54:10.196475 31384 net.cpp:145] Setting up relu3_6/x2
I0404 10:54:10.196485 31384 net.cpp:152] Top shape: 16 128 19 19 (739328)
I0404 10:54:10.196488 31384 net.cpp:160] Memory required for data: 1231348544
I0404 10:54:10.196494 31384 layer_factory.hpp:77] Creating layer conv3_6/x2
I0404 10:54:10.196503 31384 net.cpp:95] Creating Layer conv3_6/x2
I0404 10:54:10.196508 31384 net.cpp:462] conv3_6/x2 <- conv3_6/x2/bn
I0404 10:54:10.196516 31384 net.cpp:436] conv3_6/x2 -> conv3_6/x2
I0404 10:54:10.197432 31384 net.cpp:145] Setting up conv3_6/x2
I0404 10:54:10.197444 31384 net.cpp:152] Top shape: 16 32 19 19 (184832)
I0404 10:54:10.197449 31384 net.cpp:160] Memory required for data: 1232087872
I0404 10:54:10.197455 31384 layer_factory.hpp:77] Creating layer concat_3_6
I0404 10:54:10.197464 31384 net.cpp:95] Creating Layer concat_3_6
I0404 10:54:10.197470 31384 net.cpp:462] concat_3_6 <- concat_3_5_concat_3_5_0_split_1
I0404 10:54:10.197476 31384 net.cpp:462] concat_3_6 <- conv3_6/x2
I0404 10:54:10.197482 31384 net.cpp:436] concat_3_6 -> concat_3_6
I0404 10:54:10.197510 31384 net.cpp:145] Setting up concat_3_6
I0404 10:54:10.197518 31384 net.cpp:152] Top shape: 16 320 19 19 (1848320)
I0404 10:54:10.197522 31384 net.cpp:160] Memory required for data: 1239481152
I0404 10:54:10.197527 31384 layer_factory.hpp:77] Creating layer concat_3_6_concat_3_6_0_split
I0404 10:54:10.197533 31384 net.cpp:95] Creating Layer concat_3_6_concat_3_6_0_split
I0404 10:54:10.197538 31384 net.cpp:462] concat_3_6_concat_3_6_0_split <- concat_3_6
I0404 10:54:10.197546 31384 net.cpp:436] concat_3_6_concat_3_6_0_split -> concat_3_6_concat_3_6_0_split_0
I0404 10:54:10.197553 31384 net.cpp:436] concat_3_6_concat_3_6_0_split -> concat_3_6_concat_3_6_0_split_1
I0404 10:54:10.197587 31384 net.cpp:145] Setting up concat_3_6_concat_3_6_0_split
I0404 10:54:10.197595 31384 net.cpp:152] Top shape: 16 320 19 19 (1848320)
I0404 10:54:10.197602 31384 net.cpp:152] Top shape: 16 320 19 19 (1848320)
I0404 10:54:10.197605 31384 net.cpp:160] Memory required for data: 1254267712
I0404 10:54:10.197609 31384 layer_factory.hpp:77] Creating layer conv3_7/x1/bn
I0404 10:54:10.197616 31384 net.cpp:95] Creating Layer conv3_7/x1/bn
I0404 10:54:10.197621 31384 net.cpp:462] conv3_7/x1/bn <- concat_3_6_concat_3_6_0_split_0
I0404 10:54:10.197629 31384 net.cpp:436] conv3_7/x1/bn -> conv3_7/x1/bn
I0404 10:54:10.197824 31384 net.cpp:145] Setting up conv3_7/x1/bn
I0404 10:54:10.197834 31384 net.cpp:152] Top shape: 16 320 19 19 (1848320)
I0404 10:54:10.197839 31384 net.cpp:160] Memory required for data: 1261660992
I0404 10:54:10.197849 31384 layer_factory.hpp:77] Creating layer conv3_7/x1/scale
I0404 10:54:10.197855 31384 net.cpp:95] Creating Layer conv3_7/x1/scale
I0404 10:54:10.197862 31384 net.cpp:462] conv3_7/x1/scale <- conv3_7/x1/bn
I0404 10:54:10.197868 31384 net.cpp:423] conv3_7/x1/scale -> conv3_7/x1/bn (in-place)
I0404 10:54:10.197911 31384 layer_factory.hpp:77] Creating layer conv3_7/x1/scale
I0404 10:54:10.198011 31384 net.cpp:145] Setting up conv3_7/x1/scale
I0404 10:54:10.198020 31384 net.cpp:152] Top shape: 16 320 19 19 (1848320)
I0404 10:54:10.198025 31384 net.cpp:160] Memory required for data: 1269054272
I0404 10:54:10.198031 31384 layer_factory.hpp:77] Creating layer relu3_7/x1
I0404 10:54:10.198040 31384 net.cpp:95] Creating Layer relu3_7/x1
I0404 10:54:10.198046 31384 net.cpp:462] relu3_7/x1 <- conv3_7/x1/bn
I0404 10:54:10.198052 31384 net.cpp:423] relu3_7/x1 -> conv3_7/x1/bn (in-place)
I0404 10:54:10.198196 31384 net.cpp:145] Setting up relu3_7/x1
I0404 10:54:10.198217 31384 net.cpp:152] Top shape: 16 320 19 19 (1848320)
I0404 10:54:10.198223 31384 net.cpp:160] Memory required for data: 1276447552
I0404 10:54:10.198228 31384 layer_factory.hpp:77] Creating layer conv3_7/x1
I0404 10:54:10.198236 31384 net.cpp:95] Creating Layer conv3_7/x1
I0404 10:54:10.198241 31384 net.cpp:462] conv3_7/x1 <- conv3_7/x1/bn
I0404 10:54:10.198249 31384 net.cpp:436] conv3_7/x1 -> conv3_7/x1
I0404 10:54:10.199205 31384 net.cpp:145] Setting up conv3_7/x1
I0404 10:54:10.199218 31384 net.cpp:152] Top shape: 16 128 19 19 (739328)
I0404 10:54:10.199223 31384 net.cpp:160] Memory required for data: 1279404864
I0404 10:54:10.199230 31384 layer_factory.hpp:77] Creating layer conv3_7/x2/bn
I0404 10:54:10.199239 31384 net.cpp:95] Creating Layer conv3_7/x2/bn
I0404 10:54:10.199244 31384 net.cpp:462] conv3_7/x2/bn <- conv3_7/x1
I0404 10:54:10.199252 31384 net.cpp:436] conv3_7/x2/bn -> conv3_7/x2/bn
I0404 10:54:10.199420 31384 net.cpp:145] Setting up conv3_7/x2/bn
I0404 10:54:10.199429 31384 net.cpp:152] Top shape: 16 128 19 19 (739328)
I0404 10:54:10.199434 31384 net.cpp:160] Memory required for data: 1282362176
I0404 10:54:10.199442 31384 layer_factory.hpp:77] Creating layer conv3_7/x2/scale
I0404 10:54:10.199450 31384 net.cpp:95] Creating Layer conv3_7/x2/scale
I0404 10:54:10.199455 31384 net.cpp:462] conv3_7/x2/scale <- conv3_7/x2/bn
I0404 10:54:10.199460 31384 net.cpp:423] conv3_7/x2/scale -> conv3_7/x2/bn (in-place)
I0404 10:54:10.199501 31384 layer_factory.hpp:77] Creating layer conv3_7/x2/scale
I0404 10:54:10.199595 31384 net.cpp:145] Setting up conv3_7/x2/scale
I0404 10:54:10.199604 31384 net.cpp:152] Top shape: 16 128 19 19 (739328)
I0404 10:54:10.199609 31384 net.cpp:160] Memory required for data: 1285319488
I0404 10:54:10.199616 31384 layer_factory.hpp:77] Creating layer relu3_7/x2
I0404 10:54:10.199622 31384 net.cpp:95] Creating Layer relu3_7/x2
I0404 10:54:10.199627 31384 net.cpp:462] relu3_7/x2 <- conv3_7/x2/bn
I0404 10:54:10.199635 31384 net.cpp:423] relu3_7/x2 -> conv3_7/x2/bn (in-place)
I0404 10:54:10.199776 31384 net.cpp:145] Setting up relu3_7/x2
I0404 10:54:10.199786 31384 net.cpp:152] Top shape: 16 128 19 19 (739328)
I0404 10:54:10.199790 31384 net.cpp:160] Memory required for data: 1288276800
I0404 10:54:10.199795 31384 layer_factory.hpp:77] Creating layer conv3_7/x2
I0404 10:54:10.199805 31384 net.cpp:95] Creating Layer conv3_7/x2
I0404 10:54:10.199810 31384 net.cpp:462] conv3_7/x2 <- conv3_7/x2/bn
I0404 10:54:10.199817 31384 net.cpp:436] conv3_7/x2 -> conv3_7/x2
I0404 10:54:10.200989 31384 net.cpp:145] Setting up conv3_7/x2
I0404 10:54:10.201002 31384 net.cpp:152] Top shape: 16 32 19 19 (184832)
I0404 10:54:10.201009 31384 net.cpp:160] Memory required for data: 1289016128
I0404 10:54:10.201014 31384 layer_factory.hpp:77] Creating layer concat_3_7
I0404 10:54:10.201022 31384 net.cpp:95] Creating Layer concat_3_7
I0404 10:54:10.201027 31384 net.cpp:462] concat_3_7 <- concat_3_6_concat_3_6_0_split_1
I0404 10:54:10.201035 31384 net.cpp:462] concat_3_7 <- conv3_7/x2
I0404 10:54:10.201041 31384 net.cpp:436] concat_3_7 -> concat_3_7
I0404 10:54:10.201067 31384 net.cpp:145] Setting up concat_3_7
I0404 10:54:10.201076 31384 net.cpp:152] Top shape: 16 352 19 19 (2033152)
I0404 10:54:10.201081 31384 net.cpp:160] Memory required for data: 1297148736
I0404 10:54:10.201086 31384 layer_factory.hpp:77] Creating layer concat_3_7_concat_3_7_0_split
I0404 10:54:10.201093 31384 net.cpp:95] Creating Layer concat_3_7_concat_3_7_0_split
I0404 10:54:10.201098 31384 net.cpp:462] concat_3_7_concat_3_7_0_split <- concat_3_7
I0404 10:54:10.201107 31384 net.cpp:436] concat_3_7_concat_3_7_0_split -> concat_3_7_concat_3_7_0_split_0
I0404 10:54:10.201113 31384 net.cpp:436] concat_3_7_concat_3_7_0_split -> concat_3_7_concat_3_7_0_split_1
I0404 10:54:10.201149 31384 net.cpp:145] Setting up concat_3_7_concat_3_7_0_split
I0404 10:54:10.201158 31384 net.cpp:152] Top shape: 16 352 19 19 (2033152)
I0404 10:54:10.201164 31384 net.cpp:152] Top shape: 16 352 19 19 (2033152)
I0404 10:54:10.201179 31384 net.cpp:160] Memory required for data: 1313413952
I0404 10:54:10.201184 31384 layer_factory.hpp:77] Creating layer conv3_8/x1/bn
I0404 10:54:10.201203 31384 net.cpp:95] Creating Layer conv3_8/x1/bn
I0404 10:54:10.201210 31384 net.cpp:462] conv3_8/x1/bn <- concat_3_7_concat_3_7_0_split_0
I0404 10:54:10.201216 31384 net.cpp:436] conv3_8/x1/bn -> conv3_8/x1/bn
I0404 10:54:10.201392 31384 net.cpp:145] Setting up conv3_8/x1/bn
I0404 10:54:10.201401 31384 net.cpp:152] Top shape: 16 352 19 19 (2033152)
I0404 10:54:10.201406 31384 net.cpp:160] Memory required for data: 1321546560
I0404 10:54:10.201424 31384 layer_factory.hpp:77] Creating layer conv3_8/x1/scale
I0404 10:54:10.201433 31384 net.cpp:95] Creating Layer conv3_8/x1/scale
I0404 10:54:10.201439 31384 net.cpp:462] conv3_8/x1/scale <- conv3_8/x1/bn
I0404 10:54:10.201447 31384 net.cpp:423] conv3_8/x1/scale -> conv3_8/x1/bn (in-place)
I0404 10:54:10.201489 31384 layer_factory.hpp:77] Creating layer conv3_8/x1/scale
I0404 10:54:10.201602 31384 net.cpp:145] Setting up conv3_8/x1/scale
I0404 10:54:10.201611 31384 net.cpp:152] Top shape: 16 352 19 19 (2033152)
I0404 10:54:10.201617 31384 net.cpp:160] Memory required for data: 1329679168
I0404 10:54:10.201623 31384 layer_factory.hpp:77] Creating layer relu3_8/x1
I0404 10:54:10.201629 31384 net.cpp:95] Creating Layer relu3_8/x1
I0404 10:54:10.201634 31384 net.cpp:462] relu3_8/x1 <- conv3_8/x1/bn
I0404 10:54:10.201642 31384 net.cpp:423] relu3_8/x1 -> conv3_8/x1/bn (in-place)
I0404 10:54:10.201786 31384 net.cpp:145] Setting up relu3_8/x1
I0404 10:54:10.201795 31384 net.cpp:152] Top shape: 16 352 19 19 (2033152)
I0404 10:54:10.201800 31384 net.cpp:160] Memory required for data: 1337811776
I0404 10:54:10.201804 31384 layer_factory.hpp:77] Creating layer conv3_8/x1
I0404 10:54:10.201813 31384 net.cpp:95] Creating Layer conv3_8/x1
I0404 10:54:10.201819 31384 net.cpp:462] conv3_8/x1 <- conv3_8/x1/bn
I0404 10:54:10.201828 31384 net.cpp:436] conv3_8/x1 -> conv3_8/x1
I0404 10:54:10.203047 31384 net.cpp:145] Setting up conv3_8/x1
I0404 10:54:10.203070 31384 net.cpp:152] Top shape: 16 128 19 19 (739328)
I0404 10:54:10.203075 31384 net.cpp:160] Memory required for data: 1340769088
I0404 10:54:10.203083 31384 layer_factory.hpp:77] Creating layer conv3_8/x2/bn
I0404 10:54:10.203091 31384 net.cpp:95] Creating Layer conv3_8/x2/bn
I0404 10:54:10.203096 31384 net.cpp:462] conv3_8/x2/bn <- conv3_8/x1
I0404 10:54:10.203104 31384 net.cpp:436] conv3_8/x2/bn -> conv3_8/x2/bn
I0404 10:54:10.203275 31384 net.cpp:145] Setting up conv3_8/x2/bn
I0404 10:54:10.203284 31384 net.cpp:152] Top shape: 16 128 19 19 (739328)
I0404 10:54:10.203289 31384 net.cpp:160] Memory required for data: 1343726400
I0404 10:54:10.203297 31384 layer_factory.hpp:77] Creating layer conv3_8/x2/scale
I0404 10:54:10.203305 31384 net.cpp:95] Creating Layer conv3_8/x2/scale
I0404 10:54:10.203310 31384 net.cpp:462] conv3_8/x2/scale <- conv3_8/x2/bn
I0404 10:54:10.203317 31384 net.cpp:423] conv3_8/x2/scale -> conv3_8/x2/bn (in-place)
I0404 10:54:10.203357 31384 layer_factory.hpp:77] Creating layer conv3_8/x2/scale
I0404 10:54:10.203456 31384 net.cpp:145] Setting up conv3_8/x2/scale
I0404 10:54:10.203465 31384 net.cpp:152] Top shape: 16 128 19 19 (739328)
I0404 10:54:10.203470 31384 net.cpp:160] Memory required for data: 1346683712
I0404 10:54:10.203477 31384 layer_factory.hpp:77] Creating layer relu3_8/x2
I0404 10:54:10.203483 31384 net.cpp:95] Creating Layer relu3_8/x2
I0404 10:54:10.203488 31384 net.cpp:462] relu3_8/x2 <- conv3_8/x2/bn
I0404 10:54:10.203495 31384 net.cpp:423] relu3_8/x2 -> conv3_8/x2/bn (in-place)
I0404 10:54:10.203900 31384 net.cpp:145] Setting up relu3_8/x2
I0404 10:54:10.203912 31384 net.cpp:152] Top shape: 16 128 19 19 (739328)
I0404 10:54:10.203917 31384 net.cpp:160] Memory required for data: 1349641024
I0404 10:54:10.203922 31384 layer_factory.hpp:77] Creating layer conv3_8/x2
I0404 10:54:10.203930 31384 net.cpp:95] Creating Layer conv3_8/x2
I0404 10:54:10.203935 31384 net.cpp:462] conv3_8/x2 <- conv3_8/x2/bn
I0404 10:54:10.203943 31384 net.cpp:436] conv3_8/x2 -> conv3_8/x2
I0404 10:54:10.204598 31384 net.cpp:145] Setting up conv3_8/x2
I0404 10:54:10.204609 31384 net.cpp:152] Top shape: 16 32 19 19 (184832)
I0404 10:54:10.204614 31384 net.cpp:160] Memory required for data: 1350380352
I0404 10:54:10.204622 31384 layer_factory.hpp:77] Creating layer concat_3_8
I0404 10:54:10.204629 31384 net.cpp:95] Creating Layer concat_3_8
I0404 10:54:10.204635 31384 net.cpp:462] concat_3_8 <- concat_3_7_concat_3_7_0_split_1
I0404 10:54:10.204641 31384 net.cpp:462] concat_3_8 <- conv3_8/x2
I0404 10:54:10.204649 31384 net.cpp:436] concat_3_8 -> concat_3_8
I0404 10:54:10.204675 31384 net.cpp:145] Setting up concat_3_8
I0404 10:54:10.204684 31384 net.cpp:152] Top shape: 16 384 19 19 (2217984)
I0404 10:54:10.204689 31384 net.cpp:160] Memory required for data: 1359252288
I0404 10:54:10.204692 31384 layer_factory.hpp:77] Creating layer concat_3_8_concat_3_8_0_split
I0404 10:54:10.204700 31384 net.cpp:95] Creating Layer concat_3_8_concat_3_8_0_split
I0404 10:54:10.204705 31384 net.cpp:462] concat_3_8_concat_3_8_0_split <- concat_3_8
I0404 10:54:10.204711 31384 net.cpp:436] concat_3_8_concat_3_8_0_split -> concat_3_8_concat_3_8_0_split_0
I0404 10:54:10.204718 31384 net.cpp:436] concat_3_8_concat_3_8_0_split -> concat_3_8_concat_3_8_0_split_1
I0404 10:54:10.204753 31384 net.cpp:145] Setting up concat_3_8_concat_3_8_0_split
I0404 10:54:10.204761 31384 net.cpp:152] Top shape: 16 384 19 19 (2217984)
I0404 10:54:10.204767 31384 net.cpp:152] Top shape: 16 384 19 19 (2217984)
I0404 10:54:10.204771 31384 net.cpp:160] Memory required for data: 1376996160
I0404 10:54:10.204776 31384 layer_factory.hpp:77] Creating layer conv3_9/x1/bn
I0404 10:54:10.204783 31384 net.cpp:95] Creating Layer conv3_9/x1/bn
I0404 10:54:10.204788 31384 net.cpp:462] conv3_9/x1/bn <- concat_3_8_concat_3_8_0_split_0
I0404 10:54:10.204794 31384 net.cpp:436] conv3_9/x1/bn -> conv3_9/x1/bn
I0404 10:54:10.204959 31384 net.cpp:145] Setting up conv3_9/x1/bn
I0404 10:54:10.204968 31384 net.cpp:152] Top shape: 16 384 19 19 (2217984)
I0404 10:54:10.204972 31384 net.cpp:160] Memory required for data: 1385868096
I0404 10:54:10.204982 31384 layer_factory.hpp:77] Creating layer conv3_9/x1/scale
I0404 10:54:10.204988 31384 net.cpp:95] Creating Layer conv3_9/x1/scale
I0404 10:54:10.204993 31384 net.cpp:462] conv3_9/x1/scale <- conv3_9/x1/bn
I0404 10:54:10.205000 31384 net.cpp:423] conv3_9/x1/scale -> conv3_9/x1/bn (in-place)
I0404 10:54:10.205041 31384 layer_factory.hpp:77] Creating layer conv3_9/x1/scale
I0404 10:54:10.205137 31384 net.cpp:145] Setting up conv3_9/x1/scale
I0404 10:54:10.205147 31384 net.cpp:152] Top shape: 16 384 19 19 (2217984)
I0404 10:54:10.205152 31384 net.cpp:160] Memory required for data: 1394740032
I0404 10:54:10.205158 31384 layer_factory.hpp:77] Creating layer relu3_9/x1
I0404 10:54:10.205164 31384 net.cpp:95] Creating Layer relu3_9/x1
I0404 10:54:10.205169 31384 net.cpp:462] relu3_9/x1 <- conv3_9/x1/bn
I0404 10:54:10.205175 31384 net.cpp:423] relu3_9/x1 -> conv3_9/x1/bn (in-place)
I0404 10:54:10.205612 31384 net.cpp:145] Setting up relu3_9/x1
I0404 10:54:10.205624 31384 net.cpp:152] Top shape: 16 384 19 19 (2217984)
I0404 10:54:10.205629 31384 net.cpp:160] Memory required for data: 1403611968
I0404 10:54:10.205633 31384 layer_factory.hpp:77] Creating layer conv3_9/x1
I0404 10:54:10.205643 31384 net.cpp:95] Creating Layer conv3_9/x1
I0404 10:54:10.205651 31384 net.cpp:462] conv3_9/x1 <- conv3_9/x1/bn
I0404 10:54:10.205657 31384 net.cpp:436] conv3_9/x1 -> conv3_9/x1
I0404 10:54:10.206584 31384 net.cpp:145] Setting up conv3_9/x1
I0404 10:54:10.206598 31384 net.cpp:152] Top shape: 16 128 19 19 (739328)
I0404 10:54:10.206604 31384 net.cpp:160] Memory required for data: 1406569280
I0404 10:54:10.206610 31384 layer_factory.hpp:77] Creating layer conv3_9/x2/bn
I0404 10:54:10.206617 31384 net.cpp:95] Creating Layer conv3_9/x2/bn
I0404 10:54:10.206624 31384 net.cpp:462] conv3_9/x2/bn <- conv3_9/x1
I0404 10:54:10.206631 31384 net.cpp:436] conv3_9/x2/bn -> conv3_9/x2/bn
I0404 10:54:10.206815 31384 net.cpp:145] Setting up conv3_9/x2/bn
I0404 10:54:10.206842 31384 net.cpp:152] Top shape: 16 128 19 19 (739328)
I0404 10:54:10.206848 31384 net.cpp:160] Memory required for data: 1409526592
I0404 10:54:10.206857 31384 layer_factory.hpp:77] Creating layer conv3_9/x2/scale
I0404 10:54:10.206866 31384 net.cpp:95] Creating Layer conv3_9/x2/scale
I0404 10:54:10.206871 31384 net.cpp:462] conv3_9/x2/scale <- conv3_9/x2/bn
I0404 10:54:10.206877 31384 net.cpp:423] conv3_9/x2/scale -> conv3_9/x2/bn (in-place)
I0404 10:54:10.206919 31384 layer_factory.hpp:77] Creating layer conv3_9/x2/scale
I0404 10:54:10.207020 31384 net.cpp:145] Setting up conv3_9/x2/scale
I0404 10:54:10.207028 31384 net.cpp:152] Top shape: 16 128 19 19 (739328)
I0404 10:54:10.207033 31384 net.cpp:160] Memory required for data: 1412483904
I0404 10:54:10.207041 31384 layer_factory.hpp:77] Creating layer relu3_9/x2
I0404 10:54:10.207047 31384 net.cpp:95] Creating Layer relu3_9/x2
I0404 10:54:10.207052 31384 net.cpp:462] relu3_9/x2 <- conv3_9/x2/bn
I0404 10:54:10.207059 31384 net.cpp:423] relu3_9/x2 -> conv3_9/x2/bn (in-place)
I0404 10:54:10.207207 31384 net.cpp:145] Setting up relu3_9/x2
I0404 10:54:10.207218 31384 net.cpp:152] Top shape: 16 128 19 19 (739328)
I0404 10:54:10.207223 31384 net.cpp:160] Memory required for data: 1415441216
I0404 10:54:10.207227 31384 layer_factory.hpp:77] Creating layer conv3_9/x2
I0404 10:54:10.207242 31384 net.cpp:95] Creating Layer conv3_9/x2
I0404 10:54:10.207252 31384 net.cpp:462] conv3_9/x2 <- conv3_9/x2/bn
I0404 10:54:10.207270 31384 net.cpp:436] conv3_9/x2 -> conv3_9/x2
I0404 10:54:10.208534 31384 net.cpp:145] Setting up conv3_9/x2
I0404 10:54:10.208549 31384 net.cpp:152] Top shape: 16 32 19 19 (184832)
I0404 10:54:10.208554 31384 net.cpp:160] Memory required for data: 1416180544
I0404 10:54:10.208562 31384 layer_factory.hpp:77] Creating layer concat_3_9
I0404 10:54:10.208572 31384 net.cpp:95] Creating Layer concat_3_9
I0404 10:54:10.208580 31384 net.cpp:462] concat_3_9 <- concat_3_8_concat_3_8_0_split_1
I0404 10:54:10.208586 31384 net.cpp:462] concat_3_9 <- conv3_9/x2
I0404 10:54:10.208595 31384 net.cpp:436] concat_3_9 -> concat_3_9
I0404 10:54:10.208626 31384 net.cpp:145] Setting up concat_3_9
I0404 10:54:10.208634 31384 net.cpp:152] Top shape: 16 416 19 19 (2402816)
I0404 10:54:10.208640 31384 net.cpp:160] Memory required for data: 1425791808
I0404 10:54:10.208645 31384 layer_factory.hpp:77] Creating layer concat_3_9_concat_3_9_0_split
I0404 10:54:10.208652 31384 net.cpp:95] Creating Layer concat_3_9_concat_3_9_0_split
I0404 10:54:10.208658 31384 net.cpp:462] concat_3_9_concat_3_9_0_split <- concat_3_9
I0404 10:54:10.208667 31384 net.cpp:436] concat_3_9_concat_3_9_0_split -> concat_3_9_concat_3_9_0_split_0
I0404 10:54:10.208675 31384 net.cpp:436] concat_3_9_concat_3_9_0_split -> concat_3_9_concat_3_9_0_split_1
I0404 10:54:10.208711 31384 net.cpp:145] Setting up concat_3_9_concat_3_9_0_split
I0404 10:54:10.208720 31384 net.cpp:152] Top shape: 16 416 19 19 (2402816)
I0404 10:54:10.208726 31384 net.cpp:152] Top shape: 16 416 19 19 (2402816)
I0404 10:54:10.208732 31384 net.cpp:160] Memory required for data: 1445014336
I0404 10:54:10.208737 31384 layer_factory.hpp:77] Creating layer conv3_10/x1/bn
I0404 10:54:10.208746 31384 net.cpp:95] Creating Layer conv3_10/x1/bn
I0404 10:54:10.208752 31384 net.cpp:462] conv3_10/x1/bn <- concat_3_9_concat_3_9_0_split_0
I0404 10:54:10.208760 31384 net.cpp:436] conv3_10/x1/bn -> conv3_10/x1/bn
I0404 10:54:10.208958 31384 net.cpp:145] Setting up conv3_10/x1/bn
I0404 10:54:10.208969 31384 net.cpp:152] Top shape: 16 416 19 19 (2402816)
I0404 10:54:10.208973 31384 net.cpp:160] Memory required for data: 1454625600
I0404 10:54:10.208982 31384 layer_factory.hpp:77] Creating layer conv3_10/x1/scale
I0404 10:54:10.208990 31384 net.cpp:95] Creating Layer conv3_10/x1/scale
I0404 10:54:10.208995 31384 net.cpp:462] conv3_10/x1/scale <- conv3_10/x1/bn
I0404 10:54:10.209002 31384 net.cpp:423] conv3_10/x1/scale -> conv3_10/x1/bn (in-place)
I0404 10:54:10.209048 31384 layer_factory.hpp:77] Creating layer conv3_10/x1/scale
I0404 10:54:10.209168 31384 net.cpp:145] Setting up conv3_10/x1/scale
I0404 10:54:10.209178 31384 net.cpp:152] Top shape: 16 416 19 19 (2402816)
I0404 10:54:10.209182 31384 net.cpp:160] Memory required for data: 1464236864
I0404 10:54:10.209195 31384 layer_factory.hpp:77] Creating layer relu3_10/x1
I0404 10:54:10.209205 31384 net.cpp:95] Creating Layer relu3_10/x1
I0404 10:54:10.209210 31384 net.cpp:462] relu3_10/x1 <- conv3_10/x1/bn
I0404 10:54:10.209216 31384 net.cpp:423] relu3_10/x1 -> conv3_10/x1/bn (in-place)
I0404 10:54:10.209372 31384 net.cpp:145] Setting up relu3_10/x1
I0404 10:54:10.209381 31384 net.cpp:152] Top shape: 16 416 19 19 (2402816)
I0404 10:54:10.209386 31384 net.cpp:160] Memory required for data: 1473848128
I0404 10:54:10.209390 31384 layer_factory.hpp:77] Creating layer conv3_10/x1
I0404 10:54:10.209403 31384 net.cpp:95] Creating Layer conv3_10/x1
I0404 10:54:10.209408 31384 net.cpp:462] conv3_10/x1 <- conv3_10/x1/bn
I0404 10:54:10.209414 31384 net.cpp:436] conv3_10/x1 -> conv3_10/x1
I0404 10:54:10.210451 31384 net.cpp:145] Setting up conv3_10/x1
I0404 10:54:10.210469 31384 net.cpp:152] Top shape: 16 128 19 19 (739328)
I0404 10:54:10.210474 31384 net.cpp:160] Memory required for data: 1476805440
I0404 10:54:10.210482 31384 layer_factory.hpp:77] Creating layer conv3_10/x2/bn
I0404 10:54:10.210491 31384 net.cpp:95] Creating Layer conv3_10/x2/bn
I0404 10:54:10.210499 31384 net.cpp:462] conv3_10/x2/bn <- conv3_10/x1
I0404 10:54:10.210505 31384 net.cpp:436] conv3_10/x2/bn -> conv3_10/x2/bn
I0404 10:54:10.210690 31384 net.cpp:145] Setting up conv3_10/x2/bn
I0404 10:54:10.210700 31384 net.cpp:152] Top shape: 16 128 19 19 (739328)
I0404 10:54:10.210705 31384 net.cpp:160] Memory required for data: 1479762752
I0404 10:54:10.210713 31384 layer_factory.hpp:77] Creating layer conv3_10/x2/scale
I0404 10:54:10.210721 31384 net.cpp:95] Creating Layer conv3_10/x2/scale
I0404 10:54:10.210726 31384 net.cpp:462] conv3_10/x2/scale <- conv3_10/x2/bn
I0404 10:54:10.210734 31384 net.cpp:423] conv3_10/x2/scale -> conv3_10/x2/bn (in-place)
I0404 10:54:10.210798 31384 layer_factory.hpp:77] Creating layer conv3_10/x2/scale
I0404 10:54:10.210911 31384 net.cpp:145] Setting up conv3_10/x2/scale
I0404 10:54:10.210921 31384 net.cpp:152] Top shape: 16 128 19 19 (739328)
I0404 10:54:10.210925 31384 net.cpp:160] Memory required for data: 1482720064
I0404 10:54:10.210932 31384 layer_factory.hpp:77] Creating layer relu3_10/x2
I0404 10:54:10.210938 31384 net.cpp:95] Creating Layer relu3_10/x2
I0404 10:54:10.210943 31384 net.cpp:462] relu3_10/x2 <- conv3_10/x2/bn
I0404 10:54:10.210950 31384 net.cpp:423] relu3_10/x2 -> conv3_10/x2/bn (in-place)
I0404 10:54:10.211096 31384 net.cpp:145] Setting up relu3_10/x2
I0404 10:54:10.211104 31384 net.cpp:152] Top shape: 16 128 19 19 (739328)
I0404 10:54:10.211109 31384 net.cpp:160] Memory required for data: 1485677376
I0404 10:54:10.211114 31384 layer_factory.hpp:77] Creating layer conv3_10/x2
I0404 10:54:10.211124 31384 net.cpp:95] Creating Layer conv3_10/x2
I0404 10:54:10.211129 31384 net.cpp:462] conv3_10/x2 <- conv3_10/x2/bn
I0404 10:54:10.211138 31384 net.cpp:436] conv3_10/x2 -> conv3_10/x2
I0404 10:54:10.212188 31384 net.cpp:145] Setting up conv3_10/x2
I0404 10:54:10.212203 31384 net.cpp:152] Top shape: 16 32 19 19 (184832)
I0404 10:54:10.212208 31384 net.cpp:160] Memory required for data: 1486416704
I0404 10:54:10.212215 31384 layer_factory.hpp:77] Creating layer concat_3_10
I0404 10:54:10.212224 31384 net.cpp:95] Creating Layer concat_3_10
I0404 10:54:10.212229 31384 net.cpp:462] concat_3_10 <- concat_3_9_concat_3_9_0_split_1
I0404 10:54:10.212236 31384 net.cpp:462] concat_3_10 <- conv3_10/x2
I0404 10:54:10.212244 31384 net.cpp:436] concat_3_10 -> concat_3_10
I0404 10:54:10.212271 31384 net.cpp:145] Setting up concat_3_10
I0404 10:54:10.212280 31384 net.cpp:152] Top shape: 16 448 19 19 (2587648)
I0404 10:54:10.212285 31384 net.cpp:160] Memory required for data: 1496767296
I0404 10:54:10.212290 31384 layer_factory.hpp:77] Creating layer concat_3_10_concat_3_10_0_split
I0404 10:54:10.212298 31384 net.cpp:95] Creating Layer concat_3_10_concat_3_10_0_split
I0404 10:54:10.212316 31384 net.cpp:462] concat_3_10_concat_3_10_0_split <- concat_3_10
I0404 10:54:10.212327 31384 net.cpp:436] concat_3_10_concat_3_10_0_split -> concat_3_10_concat_3_10_0_split_0
I0404 10:54:10.212335 31384 net.cpp:436] concat_3_10_concat_3_10_0_split -> concat_3_10_concat_3_10_0_split_1
I0404 10:54:10.212371 31384 net.cpp:145] Setting up concat_3_10_concat_3_10_0_split
I0404 10:54:10.212380 31384 net.cpp:152] Top shape: 16 448 19 19 (2587648)
I0404 10:54:10.212385 31384 net.cpp:152] Top shape: 16 448 19 19 (2587648)
I0404 10:54:10.212389 31384 net.cpp:160] Memory required for data: 1517468480
I0404 10:54:10.212394 31384 layer_factory.hpp:77] Creating layer conv3_11/x1/bn
I0404 10:54:10.212402 31384 net.cpp:95] Creating Layer conv3_11/x1/bn
I0404 10:54:10.212407 31384 net.cpp:462] conv3_11/x1/bn <- concat_3_10_concat_3_10_0_split_0
I0404 10:54:10.212414 31384 net.cpp:436] conv3_11/x1/bn -> conv3_11/x1/bn
I0404 10:54:10.212594 31384 net.cpp:145] Setting up conv3_11/x1/bn
I0404 10:54:10.212604 31384 net.cpp:152] Top shape: 16 448 19 19 (2587648)
I0404 10:54:10.212607 31384 net.cpp:160] Memory required for data: 1527819072
I0404 10:54:10.212616 31384 layer_factory.hpp:77] Creating layer conv3_11/x1/scale
I0404 10:54:10.212625 31384 net.cpp:95] Creating Layer conv3_11/x1/scale
I0404 10:54:10.212631 31384 net.cpp:462] conv3_11/x1/scale <- conv3_11/x1/bn
I0404 10:54:10.212638 31384 net.cpp:423] conv3_11/x1/scale -> conv3_11/x1/bn (in-place)
I0404 10:54:10.212682 31384 layer_factory.hpp:77] Creating layer conv3_11/x1/scale
I0404 10:54:10.212791 31384 net.cpp:145] Setting up conv3_11/x1/scale
I0404 10:54:10.212800 31384 net.cpp:152] Top shape: 16 448 19 19 (2587648)
I0404 10:54:10.212805 31384 net.cpp:160] Memory required for data: 1538169664
I0404 10:54:10.212811 31384 layer_factory.hpp:77] Creating layer relu3_11/x1
I0404 10:54:10.212818 31384 net.cpp:95] Creating Layer relu3_11/x1
I0404 10:54:10.212823 31384 net.cpp:462] relu3_11/x1 <- conv3_11/x1/bn
I0404 10:54:10.212831 31384 net.cpp:423] relu3_11/x1 -> conv3_11/x1/bn (in-place)
I0404 10:54:10.212985 31384 net.cpp:145] Setting up relu3_11/x1
I0404 10:54:10.212996 31384 net.cpp:152] Top shape: 16 448 19 19 (2587648)
I0404 10:54:10.212999 31384 net.cpp:160] Memory required for data: 1548520256
I0404 10:54:10.213004 31384 layer_factory.hpp:77] Creating layer conv3_11/x1
I0404 10:54:10.213014 31384 net.cpp:95] Creating Layer conv3_11/x1
I0404 10:54:10.213019 31384 net.cpp:462] conv3_11/x1 <- conv3_11/x1/bn
I0404 10:54:10.213027 31384 net.cpp:436] conv3_11/x1 -> conv3_11/x1
I0404 10:54:10.214758 31384 net.cpp:145] Setting up conv3_11/x1
I0404 10:54:10.214777 31384 net.cpp:152] Top shape: 16 128 19 19 (739328)
I0404 10:54:10.214782 31384 net.cpp:160] Memory required for data: 1551477568
I0404 10:54:10.214790 31384 layer_factory.hpp:77] Creating layer conv3_11/x2/bn
I0404 10:54:10.214800 31384 net.cpp:95] Creating Layer conv3_11/x2/bn
I0404 10:54:10.214807 31384 net.cpp:462] conv3_11/x2/bn <- conv3_11/x1
I0404 10:54:10.214814 31384 net.cpp:436] conv3_11/x2/bn -> conv3_11/x2/bn
I0404 10:54:10.214994 31384 net.cpp:145] Setting up conv3_11/x2/bn
I0404 10:54:10.215004 31384 net.cpp:152] Top shape: 16 128 19 19 (739328)
I0404 10:54:10.215008 31384 net.cpp:160] Memory required for data: 1554434880
I0404 10:54:10.215016 31384 layer_factory.hpp:77] Creating layer conv3_11/x2/scale
I0404 10:54:10.215024 31384 net.cpp:95] Creating Layer conv3_11/x2/scale
I0404 10:54:10.215030 31384 net.cpp:462] conv3_11/x2/scale <- conv3_11/x2/bn
I0404 10:54:10.215037 31384 net.cpp:423] conv3_11/x2/scale -> conv3_11/x2/bn (in-place)
I0404 10:54:10.215082 31384 layer_factory.hpp:77] Creating layer conv3_11/x2/scale
I0404 10:54:10.215184 31384 net.cpp:145] Setting up conv3_11/x2/scale
I0404 10:54:10.215193 31384 net.cpp:152] Top shape: 16 128 19 19 (739328)
I0404 10:54:10.215198 31384 net.cpp:160] Memory required for data: 1557392192
I0404 10:54:10.215204 31384 layer_factory.hpp:77] Creating layer relu3_11/x2
I0404 10:54:10.215211 31384 net.cpp:95] Creating Layer relu3_11/x2
I0404 10:54:10.215229 31384 net.cpp:462] relu3_11/x2 <- conv3_11/x2/bn
I0404 10:54:10.215237 31384 net.cpp:423] relu3_11/x2 -> conv3_11/x2/bn (in-place)
I0404 10:54:10.215659 31384 net.cpp:145] Setting up relu3_11/x2
I0404 10:54:10.215672 31384 net.cpp:152] Top shape: 16 128 19 19 (739328)
I0404 10:54:10.215675 31384 net.cpp:160] Memory required for data: 1560349504
I0404 10:54:10.215680 31384 layer_factory.hpp:77] Creating layer conv3_11/x2
I0404 10:54:10.215690 31384 net.cpp:95] Creating Layer conv3_11/x2
I0404 10:54:10.215697 31384 net.cpp:462] conv3_11/x2 <- conv3_11/x2/bn
I0404 10:54:10.215704 31384 net.cpp:436] conv3_11/x2 -> conv3_11/x2
I0404 10:54:10.216596 31384 net.cpp:145] Setting up conv3_11/x2
I0404 10:54:10.216609 31384 net.cpp:152] Top shape: 16 32 19 19 (184832)
I0404 10:54:10.216615 31384 net.cpp:160] Memory required for data: 1561088832
I0404 10:54:10.216621 31384 layer_factory.hpp:77] Creating layer concat_3_11
I0404 10:54:10.216629 31384 net.cpp:95] Creating Layer concat_3_11
I0404 10:54:10.216634 31384 net.cpp:462] concat_3_11 <- concat_3_10_concat_3_10_0_split_1
I0404 10:54:10.216640 31384 net.cpp:462] concat_3_11 <- conv3_11/x2
I0404 10:54:10.216646 31384 net.cpp:436] concat_3_11 -> concat_3_11
I0404 10:54:10.216675 31384 net.cpp:145] Setting up concat_3_11
I0404 10:54:10.216683 31384 net.cpp:152] Top shape: 16 480 19 19 (2772480)
I0404 10:54:10.216687 31384 net.cpp:160] Memory required for data: 1572178752
I0404 10:54:10.216691 31384 layer_factory.hpp:77] Creating layer concat_3_11_concat_3_11_0_split
I0404 10:54:10.216701 31384 net.cpp:95] Creating Layer concat_3_11_concat_3_11_0_split
I0404 10:54:10.216706 31384 net.cpp:462] concat_3_11_concat_3_11_0_split <- concat_3_11
I0404 10:54:10.216711 31384 net.cpp:436] concat_3_11_concat_3_11_0_split -> concat_3_11_concat_3_11_0_split_0
I0404 10:54:10.216718 31384 net.cpp:436] concat_3_11_concat_3_11_0_split -> concat_3_11_concat_3_11_0_split_1
I0404 10:54:10.216756 31384 net.cpp:145] Setting up concat_3_11_concat_3_11_0_split
I0404 10:54:10.216764 31384 net.cpp:152] Top shape: 16 480 19 19 (2772480)
I0404 10:54:10.216771 31384 net.cpp:152] Top shape: 16 480 19 19 (2772480)
I0404 10:54:10.216775 31384 net.cpp:160] Memory required for data: 1594358592
I0404 10:54:10.216780 31384 layer_factory.hpp:77] Creating layer conv3_12/x1/bn
I0404 10:54:10.216786 31384 net.cpp:95] Creating Layer conv3_12/x1/bn
I0404 10:54:10.216791 31384 net.cpp:462] conv3_12/x1/bn <- concat_3_11_concat_3_11_0_split_0
I0404 10:54:10.216799 31384 net.cpp:436] conv3_12/x1/bn -> conv3_12/x1/bn
I0404 10:54:10.216985 31384 net.cpp:145] Setting up conv3_12/x1/bn
I0404 10:54:10.216994 31384 net.cpp:152] Top shape: 16 480 19 19 (2772480)
I0404 10:54:10.216997 31384 net.cpp:160] Memory required for data: 1605448512
I0404 10:54:10.217005 31384 layer_factory.hpp:77] Creating layer conv3_12/x1/scale
I0404 10:54:10.217012 31384 net.cpp:95] Creating Layer conv3_12/x1/scale
I0404 10:54:10.217017 31384 net.cpp:462] conv3_12/x1/scale <- conv3_12/x1/bn
I0404 10:54:10.217023 31384 net.cpp:423] conv3_12/x1/scale -> conv3_12/x1/bn (in-place)
I0404 10:54:10.217067 31384 layer_factory.hpp:77] Creating layer conv3_12/x1/scale
I0404 10:54:10.217170 31384 net.cpp:145] Setting up conv3_12/x1/scale
I0404 10:54:10.217180 31384 net.cpp:152] Top shape: 16 480 19 19 (2772480)
I0404 10:54:10.217185 31384 net.cpp:160] Memory required for data: 1616538432
I0404 10:54:10.217196 31384 layer_factory.hpp:77] Creating layer relu3_12/x1
I0404 10:54:10.217205 31384 net.cpp:95] Creating Layer relu3_12/x1
I0404 10:54:10.217209 31384 net.cpp:462] relu3_12/x1 <- conv3_12/x1/bn
I0404 10:54:10.217224 31384 net.cpp:423] relu3_12/x1 -> conv3_12/x1/bn (in-place)
I0404 10:54:10.217644 31384 net.cpp:145] Setting up relu3_12/x1
I0404 10:54:10.217653 31384 net.cpp:152] Top shape: 16 480 19 19 (2772480)
I0404 10:54:10.217658 31384 net.cpp:160] Memory required for data: 1627628352
I0404 10:54:10.217664 31384 layer_factory.hpp:77] Creating layer conv3_12/x1
I0404 10:54:10.217674 31384 net.cpp:95] Creating Layer conv3_12/x1
I0404 10:54:10.217689 31384 net.cpp:462] conv3_12/x1 <- conv3_12/x1/bn
I0404 10:54:10.217695 31384 net.cpp:436] conv3_12/x1 -> conv3_12/x1
I0404 10:54:10.218689 31384 net.cpp:145] Setting up conv3_12/x1
I0404 10:54:10.218703 31384 net.cpp:152] Top shape: 16 128 19 19 (739328)
I0404 10:54:10.218708 31384 net.cpp:160] Memory required for data: 1630585664
I0404 10:54:10.218714 31384 layer_factory.hpp:77] Creating layer conv3_12/x2/bn
I0404 10:54:10.218722 31384 net.cpp:95] Creating Layer conv3_12/x2/bn
I0404 10:54:10.218727 31384 net.cpp:462] conv3_12/x2/bn <- conv3_12/x1
I0404 10:54:10.218735 31384 net.cpp:436] conv3_12/x2/bn -> conv3_12/x2/bn
I0404 10:54:10.218920 31384 net.cpp:145] Setting up conv3_12/x2/bn
I0404 10:54:10.218930 31384 net.cpp:152] Top shape: 16 128 19 19 (739328)
I0404 10:54:10.218933 31384 net.cpp:160] Memory required for data: 1633542976
I0404 10:54:10.218942 31384 layer_factory.hpp:77] Creating layer conv3_12/x2/scale
I0404 10:54:10.218951 31384 net.cpp:95] Creating Layer conv3_12/x2/scale
I0404 10:54:10.218957 31384 net.cpp:462] conv3_12/x2/scale <- conv3_12/x2/bn
I0404 10:54:10.218963 31384 net.cpp:423] conv3_12/x2/scale -> conv3_12/x2/bn (in-place)
I0404 10:54:10.219005 31384 layer_factory.hpp:77] Creating layer conv3_12/x2/scale
I0404 10:54:10.219107 31384 net.cpp:145] Setting up conv3_12/x2/scale
I0404 10:54:10.219115 31384 net.cpp:152] Top shape: 16 128 19 19 (739328)
I0404 10:54:10.219120 31384 net.cpp:160] Memory required for data: 1636500288
I0404 10:54:10.219126 31384 layer_factory.hpp:77] Creating layer relu3_12/x2
I0404 10:54:10.219133 31384 net.cpp:95] Creating Layer relu3_12/x2
I0404 10:54:10.219138 31384 net.cpp:462] relu3_12/x2 <- conv3_12/x2/bn
I0404 10:54:10.219146 31384 net.cpp:423] relu3_12/x2 -> conv3_12/x2/bn (in-place)
I0404 10:54:10.219302 31384 net.cpp:145] Setting up relu3_12/x2
I0404 10:54:10.219321 31384 net.cpp:152] Top shape: 16 128 19 19 (739328)
I0404 10:54:10.219326 31384 net.cpp:160] Memory required for data: 1639457600
I0404 10:54:10.219331 31384 layer_factory.hpp:77] Creating layer conv3_12/x2
I0404 10:54:10.219339 31384 net.cpp:95] Creating Layer conv3_12/x2
I0404 10:54:10.219344 31384 net.cpp:462] conv3_12/x2 <- conv3_12/x2/bn
I0404 10:54:10.219354 31384 net.cpp:436] conv3_12/x2 -> conv3_12/x2
I0404 10:54:10.220358 31384 net.cpp:145] Setting up conv3_12/x2
I0404 10:54:10.220372 31384 net.cpp:152] Top shape: 16 32 19 19 (184832)
I0404 10:54:10.220377 31384 net.cpp:160] Memory required for data: 1640196928
I0404 10:54:10.220384 31384 layer_factory.hpp:77] Creating layer concat_3_12
I0404 10:54:10.220392 31384 net.cpp:95] Creating Layer concat_3_12
I0404 10:54:10.220399 31384 net.cpp:462] concat_3_12 <- concat_3_11_concat_3_11_0_split_1
I0404 10:54:10.220405 31384 net.cpp:462] concat_3_12 <- conv3_12/x2
I0404 10:54:10.220412 31384 net.cpp:436] concat_3_12 -> concat_3_12
I0404 10:54:10.220438 31384 net.cpp:145] Setting up concat_3_12
I0404 10:54:10.220448 31384 net.cpp:152] Top shape: 16 512 19 19 (2957312)
I0404 10:54:10.220451 31384 net.cpp:160] Memory required for data: 1652026176
I0404 10:54:10.220456 31384 layer_factory.hpp:77] Creating layer conv3_12/blk/bn
I0404 10:54:10.220464 31384 net.cpp:95] Creating Layer conv3_12/blk/bn
I0404 10:54:10.220469 31384 net.cpp:462] conv3_12/blk/bn <- concat_3_12
I0404 10:54:10.220477 31384 net.cpp:436] conv3_12/blk/bn -> conv3_12/blk/bn
I0404 10:54:10.220651 31384 net.cpp:145] Setting up conv3_12/blk/bn
I0404 10:54:10.220660 31384 net.cpp:152] Top shape: 16 512 19 19 (2957312)
I0404 10:54:10.220665 31384 net.cpp:160] Memory required for data: 1663855424
I0404 10:54:10.220674 31384 layer_factory.hpp:77] Creating layer conv3_12/blk/scale
I0404 10:54:10.220680 31384 net.cpp:95] Creating Layer conv3_12/blk/scale
I0404 10:54:10.220685 31384 net.cpp:462] conv3_12/blk/scale <- conv3_12/blk/bn
I0404 10:54:10.220691 31384 net.cpp:423] conv3_12/blk/scale -> conv3_12/blk/bn (in-place)
I0404 10:54:10.220734 31384 layer_factory.hpp:77] Creating layer conv3_12/blk/scale
I0404 10:54:10.220835 31384 net.cpp:145] Setting up conv3_12/blk/scale
I0404 10:54:10.220854 31384 net.cpp:152] Top shape: 16 512 19 19 (2957312)
I0404 10:54:10.220860 31384 net.cpp:160] Memory required for data: 1675684672
I0404 10:54:10.220866 31384 layer_factory.hpp:77] Creating layer relu3_12/blk
I0404 10:54:10.220875 31384 net.cpp:95] Creating Layer relu3_12/blk
I0404 10:54:10.220880 31384 net.cpp:462] relu3_12/blk <- conv3_12/blk/bn
I0404 10:54:10.220885 31384 net.cpp:423] relu3_12/blk -> conv3_12/blk/bn (in-place)
I0404 10:54:10.221031 31384 net.cpp:145] Setting up relu3_12/blk
I0404 10:54:10.221041 31384 net.cpp:152] Top shape: 16 512 19 19 (2957312)
I0404 10:54:10.221047 31384 net.cpp:160] Memory required for data: 1687513920
I0404 10:54:10.221051 31384 layer_factory.hpp:77] Creating layer conv3_12/blk
I0404 10:54:10.221060 31384 net.cpp:95] Creating Layer conv3_12/blk
I0404 10:54:10.221065 31384 net.cpp:462] conv3_12/blk <- conv3_12/blk/bn
I0404 10:54:10.221072 31384 net.cpp:436] conv3_12/blk -> conv3_12/blk
I0404 10:54:10.222146 31384 net.cpp:145] Setting up conv3_12/blk
I0404 10:54:10.222162 31384 net.cpp:152] Top shape: 16 256 19 19 (1478656)
I0404 10:54:10.222167 31384 net.cpp:160] Memory required for data: 1693428544
I0404 10:54:10.222173 31384 layer_factory.hpp:77] Creating layer pool3_12
I0404 10:54:10.222184 31384 net.cpp:95] Creating Layer pool3_12
I0404 10:54:10.222190 31384 net.cpp:462] pool3_12 <- conv3_12/blk
I0404 10:54:10.222198 31384 net.cpp:436] pool3_12 -> pool3_12
I0404 10:54:10.222364 31384 net.cpp:145] Setting up pool3_12
I0404 10:54:10.222374 31384 net.cpp:152] Top shape: 16 256 9 9 (331776)
I0404 10:54:10.222379 31384 net.cpp:160] Memory required for data: 1694755648
I0404 10:54:10.222383 31384 layer_factory.hpp:77] Creating layer pool3_12_pool3_12_0_split
I0404 10:54:10.222390 31384 net.cpp:95] Creating Layer pool3_12_pool3_12_0_split
I0404 10:54:10.222395 31384 net.cpp:462] pool3_12_pool3_12_0_split <- pool3_12
I0404 10:54:10.222404 31384 net.cpp:436] pool3_12_pool3_12_0_split -> pool3_12_pool3_12_0_split_0
I0404 10:54:10.222411 31384 net.cpp:436] pool3_12_pool3_12_0_split -> pool3_12_pool3_12_0_split_1
I0404 10:54:10.222450 31384 net.cpp:145] Setting up pool3_12_pool3_12_0_split
I0404 10:54:10.222460 31384 net.cpp:152] Top shape: 16 256 9 9 (331776)
I0404 10:54:10.222466 31384 net.cpp:152] Top shape: 16 256 9 9 (331776)
I0404 10:54:10.222470 31384 net.cpp:160] Memory required for data: 1697409856
I0404 10:54:10.222476 31384 layer_factory.hpp:77] Creating layer conv4_1/x1/bn
I0404 10:54:10.222482 31384 net.cpp:95] Creating Layer conv4_1/x1/bn
I0404 10:54:10.222487 31384 net.cpp:462] conv4_1/x1/bn <- pool3_12_pool3_12_0_split_0
I0404 10:54:10.222494 31384 net.cpp:436] conv4_1/x1/bn -> conv4_1/x1/bn
I0404 10:54:10.222671 31384 net.cpp:145] Setting up conv4_1/x1/bn
I0404 10:54:10.222679 31384 net.cpp:152] Top shape: 16 256 9 9 (331776)
I0404 10:54:10.222683 31384 net.cpp:160] Memory required for data: 1698736960
I0404 10:54:10.222692 31384 layer_factory.hpp:77] Creating layer conv4_1/x1/scale
I0404 10:54:10.222699 31384 net.cpp:95] Creating Layer conv4_1/x1/scale
I0404 10:54:10.222704 31384 net.cpp:462] conv4_1/x1/scale <- conv4_1/x1/bn
I0404 10:54:10.222710 31384 net.cpp:423] conv4_1/x1/scale -> conv4_1/x1/bn (in-place)
I0404 10:54:10.222754 31384 layer_factory.hpp:77] Creating layer conv4_1/x1/scale
I0404 10:54:10.222856 31384 net.cpp:145] Setting up conv4_1/x1/scale
I0404 10:54:10.222865 31384 net.cpp:152] Top shape: 16 256 9 9 (331776)
I0404 10:54:10.222869 31384 net.cpp:160] Memory required for data: 1700064064
I0404 10:54:10.222877 31384 layer_factory.hpp:77] Creating layer relu4_1/x1
I0404 10:54:10.222884 31384 net.cpp:95] Creating Layer relu4_1/x1
I0404 10:54:10.222889 31384 net.cpp:462] relu4_1/x1 <- conv4_1/x1/bn
I0404 10:54:10.222894 31384 net.cpp:423] relu4_1/x1 -> conv4_1/x1/bn (in-place)
I0404 10:54:10.223307 31384 net.cpp:145] Setting up relu4_1/x1
I0404 10:54:10.223320 31384 net.cpp:152] Top shape: 16 256 9 9 (331776)
I0404 10:54:10.223323 31384 net.cpp:160] Memory required for data: 1701391168
I0404 10:54:10.223328 31384 layer_factory.hpp:77] Creating layer conv4_1/x1
I0404 10:54:10.223351 31384 net.cpp:95] Creating Layer conv4_1/x1
I0404 10:54:10.223356 31384 net.cpp:462] conv4_1/x1 <- conv4_1/x1/bn
I0404 10:54:10.223363 31384 net.cpp:436] conv4_1/x1 -> conv4_1/x1
I0404 10:54:10.224005 31384 net.cpp:145] Setting up conv4_1/x1
I0404 10:54:10.224017 31384 net.cpp:152] Top shape: 16 128 9 9 (165888)
I0404 10:54:10.224021 31384 net.cpp:160] Memory required for data: 1702054720
I0404 10:54:10.224028 31384 layer_factory.hpp:77] Creating layer conv4_1/x2/bn
I0404 10:54:10.224036 31384 net.cpp:95] Creating Layer conv4_1/x2/bn
I0404 10:54:10.224041 31384 net.cpp:462] conv4_1/x2/bn <- conv4_1/x1
I0404 10:54:10.224050 31384 net.cpp:436] conv4_1/x2/bn -> conv4_1/x2/bn
I0404 10:54:10.224226 31384 net.cpp:145] Setting up conv4_1/x2/bn
I0404 10:54:10.224236 31384 net.cpp:152] Top shape: 16 128 9 9 (165888)
I0404 10:54:10.224241 31384 net.cpp:160] Memory required for data: 1702718272
I0404 10:54:10.224248 31384 layer_factory.hpp:77] Creating layer conv4_1/x2/scale
I0404 10:54:10.224256 31384 net.cpp:95] Creating Layer conv4_1/x2/scale
I0404 10:54:10.224261 31384 net.cpp:462] conv4_1/x2/scale <- conv4_1/x2/bn
I0404 10:54:10.224267 31384 net.cpp:423] conv4_1/x2/scale -> conv4_1/x2/bn (in-place)
I0404 10:54:10.224318 31384 layer_factory.hpp:77] Creating layer conv4_1/x2/scale
I0404 10:54:10.224429 31384 net.cpp:145] Setting up conv4_1/x2/scale
I0404 10:54:10.224437 31384 net.cpp:152] Top shape: 16 128 9 9 (165888)
I0404 10:54:10.224442 31384 net.cpp:160] Memory required for data: 1703381824
I0404 10:54:10.224448 31384 layer_factory.hpp:77] Creating layer relu4_1/x2
I0404 10:54:10.224455 31384 net.cpp:95] Creating Layer relu4_1/x2
I0404 10:54:10.224460 31384 net.cpp:462] relu4_1/x2 <- conv4_1/x2/bn
I0404 10:54:10.224467 31384 net.cpp:423] relu4_1/x2 -> conv4_1/x2/bn (in-place)
I0404 10:54:10.224891 31384 net.cpp:145] Setting up relu4_1/x2
I0404 10:54:10.224901 31384 net.cpp:152] Top shape: 16 128 9 9 (165888)
I0404 10:54:10.224906 31384 net.cpp:160] Memory required for data: 1704045376
I0404 10:54:10.224911 31384 layer_factory.hpp:77] Creating layer conv4_1/x2
I0404 10:54:10.224920 31384 net.cpp:95] Creating Layer conv4_1/x2
I0404 10:54:10.224925 31384 net.cpp:462] conv4_1/x2 <- conv4_1/x2/bn
I0404 10:54:10.224933 31384 net.cpp:436] conv4_1/x2 -> conv4_1/x2
I0404 10:54:10.226161 31384 net.cpp:145] Setting up conv4_1/x2
I0404 10:54:10.226172 31384 net.cpp:152] Top shape: 16 32 9 9 (41472)
I0404 10:54:10.226176 31384 net.cpp:160] Memory required for data: 1704211264
I0404 10:54:10.226183 31384 layer_factory.hpp:77] Creating layer concat_4_1
I0404 10:54:10.226191 31384 net.cpp:95] Creating Layer concat_4_1
I0404 10:54:10.226197 31384 net.cpp:462] concat_4_1 <- pool3_12_pool3_12_0_split_1
I0404 10:54:10.226212 31384 net.cpp:462] concat_4_1 <- conv4_1/x2
I0404 10:54:10.226222 31384 net.cpp:436] concat_4_1 -> concat_4_1
I0404 10:54:10.226250 31384 net.cpp:145] Setting up concat_4_1
I0404 10:54:10.226259 31384 net.cpp:152] Top shape: 16 288 9 9 (373248)
I0404 10:54:10.226264 31384 net.cpp:160] Memory required for data: 1705704256
I0404 10:54:10.226269 31384 layer_factory.hpp:77] Creating layer concat_4_1_concat_4_1_0_split
I0404 10:54:10.226275 31384 net.cpp:95] Creating Layer concat_4_1_concat_4_1_0_split
I0404 10:54:10.226289 31384 net.cpp:462] concat_4_1_concat_4_1_0_split <- concat_4_1
I0404 10:54:10.226296 31384 net.cpp:436] concat_4_1_concat_4_1_0_split -> concat_4_1_concat_4_1_0_split_0
I0404 10:54:10.226303 31384 net.cpp:436] concat_4_1_concat_4_1_0_split -> concat_4_1_concat_4_1_0_split_1
I0404 10:54:10.226351 31384 net.cpp:145] Setting up concat_4_1_concat_4_1_0_split
I0404 10:54:10.226359 31384 net.cpp:152] Top shape: 16 288 9 9 (373248)
I0404 10:54:10.226364 31384 net.cpp:152] Top shape: 16 288 9 9 (373248)
I0404 10:54:10.226369 31384 net.cpp:160] Memory required for data: 1708690240
I0404 10:54:10.226373 31384 layer_factory.hpp:77] Creating layer conv4_2/x1/bn
I0404 10:54:10.226382 31384 net.cpp:95] Creating Layer conv4_2/x1/bn
I0404 10:54:10.226387 31384 net.cpp:462] conv4_2/x1/bn <- concat_4_1_concat_4_1_0_split_0
I0404 10:54:10.226408 31384 net.cpp:436] conv4_2/x1/bn -> conv4_2/x1/bn
I0404 10:54:10.226614 31384 net.cpp:145] Setting up conv4_2/x1/bn
I0404 10:54:10.226624 31384 net.cpp:152] Top shape: 16 288 9 9 (373248)
I0404 10:54:10.226627 31384 net.cpp:160] Memory required for data: 1710183232
I0404 10:54:10.226636 31384 layer_factory.hpp:77] Creating layer conv4_2/x1/scale
I0404 10:54:10.226644 31384 net.cpp:95] Creating Layer conv4_2/x1/scale
I0404 10:54:10.226649 31384 net.cpp:462] conv4_2/x1/scale <- conv4_2/x1/bn
I0404 10:54:10.226656 31384 net.cpp:423] conv4_2/x1/scale -> conv4_2/x1/bn (in-place)
I0404 10:54:10.226714 31384 layer_factory.hpp:77] Creating layer conv4_2/x1/scale
I0404 10:54:10.226826 31384 net.cpp:145] Setting up conv4_2/x1/scale
I0404 10:54:10.226833 31384 net.cpp:152] Top shape: 16 288 9 9 (373248)
I0404 10:54:10.226838 31384 net.cpp:160] Memory required for data: 1711676224
I0404 10:54:10.226845 31384 layer_factory.hpp:77] Creating layer relu4_2/x1
I0404 10:54:10.226852 31384 net.cpp:95] Creating Layer relu4_2/x1
I0404 10:54:10.226857 31384 net.cpp:462] relu4_2/x1 <- conv4_2/x1/bn
I0404 10:54:10.226864 31384 net.cpp:423] relu4_2/x1 -> conv4_2/x1/bn (in-place)
I0404 10:54:10.227027 31384 net.cpp:145] Setting up relu4_2/x1
I0404 10:54:10.227036 31384 net.cpp:152] Top shape: 16 288 9 9 (373248)
I0404 10:54:10.227041 31384 net.cpp:160] Memory required for data: 1713169216
I0404 10:54:10.227044 31384 layer_factory.hpp:77] Creating layer conv4_2/x1
I0404 10:54:10.227054 31384 net.cpp:95] Creating Layer conv4_2/x1
I0404 10:54:10.227059 31384 net.cpp:462] conv4_2/x1 <- conv4_2/x1/bn
I0404 10:54:10.227068 31384 net.cpp:436] conv4_2/x1 -> conv4_2/x1
I0404 10:54:10.228091 31384 net.cpp:145] Setting up conv4_2/x1
I0404 10:54:10.228102 31384 net.cpp:152] Top shape: 16 128 9 9 (165888)
I0404 10:54:10.228107 31384 net.cpp:160] Memory required for data: 1713832768
I0404 10:54:10.228113 31384 layer_factory.hpp:77] Creating layer conv4_2/x2/bn
I0404 10:54:10.228124 31384 net.cpp:95] Creating Layer conv4_2/x2/bn
I0404 10:54:10.228130 31384 net.cpp:462] conv4_2/x2/bn <- conv4_2/x1
I0404 10:54:10.228137 31384 net.cpp:436] conv4_2/x2/bn -> conv4_2/x2/bn
I0404 10:54:10.228386 31384 net.cpp:145] Setting up conv4_2/x2/bn
I0404 10:54:10.228396 31384 net.cpp:152] Top shape: 16 128 9 9 (165888)
I0404 10:54:10.228400 31384 net.cpp:160] Memory required for data: 1714496320
I0404 10:54:10.228410 31384 layer_factory.hpp:77] Creating layer conv4_2/x2/scale
I0404 10:54:10.228416 31384 net.cpp:95] Creating Layer conv4_2/x2/scale
I0404 10:54:10.228422 31384 net.cpp:462] conv4_2/x2/scale <- conv4_2/x2/bn
I0404 10:54:10.228430 31384 net.cpp:423] conv4_2/x2/scale -> conv4_2/x2/bn (in-place)
I0404 10:54:10.228474 31384 layer_factory.hpp:77] Creating layer conv4_2/x2/scale
I0404 10:54:10.228577 31384 net.cpp:145] Setting up conv4_2/x2/scale
I0404 10:54:10.228587 31384 net.cpp:152] Top shape: 16 128 9 9 (165888)
I0404 10:54:10.228591 31384 net.cpp:160] Memory required for data: 1715159872
I0404 10:54:10.228611 31384 layer_factory.hpp:77] Creating layer relu4_2/x2
I0404 10:54:10.228619 31384 net.cpp:95] Creating Layer relu4_2/x2
I0404 10:54:10.228626 31384 net.cpp:462] relu4_2/x2 <- conv4_2/x2/bn
I0404 10:54:10.228631 31384 net.cpp:423] relu4_2/x2 -> conv4_2/x2/bn (in-place)
…
I0404 10:54:11.604363 31384 net.cpp:160] Memory required for data: 1787561376
I0404 10:54:11.604373 31384 layer_factory.hpp:77] Creating layer relu5_24/x2
I0404 10:54:11.604387 31384 net.cpp:95] Creating Layer relu5_24/x2
I0404 10:54:11.604394 31384 net.cpp:462] relu5_24/x2 <- conv5_24/x2/bn
I0404 10:54:11.604404 31384 net.cpp:423] relu5_24/x2 -> conv5_24/x2/bn (in-place)
I0404 10:54:11.605378 31384 net.cpp:145] Setting up relu5_24/x2
I0404 10:54:11.605396 31384 net.cpp:152] Top shape: 8 128 4 4 (16384)
I0404 10:54:11.605406 31384 net.cpp:160] Memory required for data: 1787626912
I0404 10:54:11.605414 31384 layer_factory.hpp:77] Creating layer conv5_24/x2
I0404 10:54:11.605437 31384 net.cpp:95] Creating Layer conv5_24/x2
I0404 10:54:11.605448 31384 net.cpp:462] conv5_24/x2 <- conv5_24/x2/bn
I0404 10:54:11.605464 31384 net.cpp:436] conv5_24/x2 -> conv5_24/x2
I0404 10:54:11.607273 31384 net.cpp:145] Setting up conv5_24/x2
I0404 10:54:11.607286 31384 net.cpp:152] Top shape: 8 32 4 4 (4096)
I0404 10:54:11.607291 31384 net.cpp:160] Memory required for data: 1787643296
I0404 10:54:11.607298 31384 layer_factory.hpp:77] Creating layer concat_5_24
I0404 10:54:11.607307 31384 net.cpp:95] Creating Layer concat_5_24
I0404 10:54:11.607316 31384 net.cpp:462] concat_5_24 <- concat_5_23_concat_5_23_0_split_1
I0404 10:54:11.607321 31384 net.cpp:462] concat_5_24 <- conv5_24/x2
I0404 10:54:11.607329 31384 net.cpp:436] concat_5_24 -> concat_5_24
I0404 10:54:11.607362 31384 net.cpp:145] Setting up concat_5_24
I0404 10:54:11.607369 31384 net.cpp:152] Top shape: 8 1664 4 4 (212992)
I0404 10:54:11.607373 31384 net.cpp:160] Memory required for data: 1788495264
I0404 10:54:11.607378 31384 layer_factory.hpp:77] Creating layer concat_5_24_concat_5_24_0_split
I0404 10:54:11.607386 31384 net.cpp:95] Creating Layer concat_5_24_concat_5_24_0_split
I0404 10:54:11.607393 31384 net.cpp:462] concat_5_24_concat_5_24_0_split <- concat_5_24
I0404 10:54:11.607398 31384 net.cpp:436] concat_5_24_concat_5_24_0_split -> concat_5_24_concat_5_24_0_split_0
I0404 10:54:11.607406 31384 net.cpp:436] concat_5_24_concat_5_24_0_split -> concat_5_24_concat_5_24_0_split_1
I0404 10:54:11.607450 31384 net.cpp:145] Setting up concat_5_24_concat_5_24_0_split
I0404 10:54:11.607457 31384 net.cpp:152] Top shape: 8 1664 4 4 (212992)
I0404 10:54:11.607462 31384 net.cpp:152] Top shape: 8 1664 4 4 (212992)
I0404 10:54:11.607466 31384 net.cpp:160] Memory required for data: 1790199200
I0404 10:54:11.607471 31384 layer_factory.hpp:77] Creating layer conv5_25/x1/bn
I0404 10:54:11.607481 31384 net.cpp:95] Creating Layer conv5_25/x1/bn
I0404 10:54:11.607486 31384 net.cpp:462] conv5_25/x1/bn <- concat_5_24_concat_5_24_0_split_0
I0404 10:54:11.607492 31384 net.cpp:436] conv5_25/x1/bn -> conv5_25/x1/bn
I0404 10:54:11.607720 31384 net.cpp:145] Setting up conv5_25/x1/bn
I0404 10:54:11.607729 31384 net.cpp:152] Top shape: 8 1664 4 4 (212992)
I0404 10:54:11.607733 31384 net.cpp:160] Memory required for data: 1791051168
I0404 10:54:11.607741 31384 layer_factory.hpp:77] Creating layer conv5_25/x1/scale
I0404 10:54:11.607749 31384 net.cpp:95] Creating Layer conv5_25/x1/scale
I0404 10:54:11.607754 31384 net.cpp:462] conv5_25/x1/scale <- conv5_25/x1/bn
I0404 10:54:11.607760 31384 net.cpp:423] conv5_25/x1/scale -> conv5_25/x1/bn (in-place)
I0404 10:54:11.607807 31384 layer_factory.hpp:77] Creating layer conv5_25/x1/scale
I0404 10:54:11.607935 31384 net.cpp:145] Setting up conv5_25/x1/scale
I0404 10:54:11.607944 31384 net.cpp:152] Top shape: 8 1664 4 4 (212992)
I0404 10:54:11.607962 31384 net.cpp:160] Memory required for data: 1791903136
I0404 10:54:11.607970 31384 layer_factory.hpp:77] Creating layer relu5_25/x1
I0404 10:54:11.607976 31384 net.cpp:95] Creating Layer relu5_25/x1
I0404 10:54:11.607981 31384 net.cpp:462] relu5_25/x1 <- conv5_25/x1/bn
I0404 10:54:11.607990 31384 net.cpp:423] relu5_25/x1 -> conv5_25/x1/bn (in-place)
I0404 10:54:11.608150 31384 net.cpp:145] Setting up relu5_25/x1
I0404 10:54:11.608158 31384 net.cpp:152] Top shape: 8 1664 4 4 (212992)
I0404 10:54:11.608163 31384 net.cpp:160] Memory required for data: 1792755104
I0404 10:54:11.608167 31384 layer_factory.hpp:77] Creating layer conv5_25/x1
I0404 10:54:11.608176 31384 net.cpp:95] Creating Layer conv5_25/x1
I0404 10:54:11.608182 31384 net.cpp:462] conv5_25/x1 <- conv5_25/x1/bn
I0404 10:54:11.608191 31384 net.cpp:436] conv5_25/x1 -> conv5_25/x1
I0404 10:54:11.610424 31384 net.cpp:145] Setting up conv5_25/x1
I0404 10:54:11.610440 31384 net.cpp:152] Top shape: 8 128 4 4 (16384)
I0404 10:54:11.610445 31384 net.cpp:160] Memory required for data: 1792820640
I0404 10:54:11.610450 31384 layer_factory.hpp:77] Creating layer conv5_25/x2/bn
I0404 10:54:11.610460 31384 net.cpp:95] Creating Layer conv5_25/x2/bn
I0404 10:54:11.610466 31384 net.cpp:462] conv5_25/x2/bn <- conv5_25/x1
I0404 10:54:11.610473 31384 net.cpp:436] conv5_25/x2/bn -> conv5_25/x2/bn
I0404 10:54:11.610682 31384 net.cpp:145] Setting up conv5_25/x2/bn
I0404 10:54:11.610689 31384 net.cpp:152] Top shape: 8 128 4 4 (16384)
I0404 10:54:11.610693 31384 net.cpp:160] Memory required for data: 1792886176
I0404 10:54:11.610702 31384 layer_factory.hpp:77] Creating layer conv5_25/x2/scale
I0404 10:54:11.610709 31384 net.cpp:95] Creating Layer conv5_25/x2/scale
I0404 10:54:11.610715 31384 net.cpp:462] conv5_25/x2/scale <- conv5_25/x2/bn
I0404 10:54:11.610721 31384 net.cpp:423] conv5_25/x2/scale -> conv5_25/x2/bn (in-place)
I0404 10:54:11.610770 31384 layer_factory.hpp:77] Creating layer conv5_25/x2/scale
I0404 10:54:11.610888 31384 net.cpp:145] Setting up conv5_25/x2/scale
I0404 10:54:11.610896 31384 net.cpp:152] Top shape: 8 128 4 4 (16384)
I0404 10:54:11.610900 31384 net.cpp:160] Memory required for data: 1792951712
I0404 10:54:11.610908 31384 layer_factory.hpp:77] Creating layer relu5_25/x2
I0404 10:54:11.610914 31384 net.cpp:95] Creating Layer relu5_25/x2
I0404 10:54:11.610919 31384 net.cpp:462] relu5_25/x2 <- conv5_25/x2/bn
I0404 10:54:11.610926 31384 net.cpp:423] relu5_25/x2 -> conv5_25/x2/bn (in-place)
I0404 10:54:11.612323 31384 net.cpp:145] Setting up relu5_25/x2
I0404 10:54:11.612331 31384 net.cpp:152] Top shape: 8 128 4 4 (16384)
I0404 10:54:11.612336 31384 net.cpp:160] Memory required for data: 1793017248
I0404 10:54:11.612340 31384 layer_factory.hpp:77] Creating layer conv5_25/x2
I0404 10:54:11.612350 31384 net.cpp:95] Creating Layer conv5_25/x2
I0404 10:54:11.612355 31384 net.cpp:462] conv5_25/x2 <- conv5_25/x2/bn
I0404 10:54:11.612363 31384 net.cpp:436] conv5_25/x2 -> conv5_25/x2
I0404 10:54:11.613960 31384 net.cpp:145] Setting up conv5_25/x2
I0404 10:54:11.613981 31384 net.cpp:152] Top shape: 8 32 4 4 (4096)
I0404 10:54:11.613986 31384 net.cpp:160] Memory required for data: 1793033632
I0404 10:54:11.613994 31384 layer_factory.hpp:77] Creating layer concat_5_25
I0404 10:54:11.614002 31384 net.cpp:95] Creating Layer concat_5_25
I0404 10:54:11.614008 31384 net.cpp:462] concat_5_25 <- concat_5_24_concat_5_24_0_split_1
I0404 10:54:11.614014 31384 net.cpp:462] concat_5_25 <- conv5_25/x2
I0404 10:54:11.614022 31384 net.cpp:436] concat_5_25 -> concat_5_25
I0404 10:54:11.614054 31384 net.cpp:145] Setting up concat_5_25
I0404 10:54:11.614063 31384 net.cpp:152] Top shape: 8 1696 4 4 (217088)
I0404 10:54:11.614066 31384 net.cpp:160] Memory required for data: 1793901984
I0404 10:54:11.614071 31384 layer_factory.hpp:77] Creating layer concat_5_25_concat_5_25_0_split
I0404 10:54:11.614089 31384 net.cpp:95] Creating Layer concat_5_25_concat_5_25_0_split
I0404 10:54:11.614094 31384 net.cpp:462] concat_5_25_concat_5_25_0_split <- concat_5_25
I0404 10:54:11.614112 31384 net.cpp:436] concat_5_25_concat_5_25_0_split -> concat_5_25_concat_5_25_0_split_0
I0404 10:54:11.614122 31384 net.cpp:436] concat_5_25_concat_5_25_0_split -> concat_5_25_concat_5_25_0_split_1
I0404 10:54:11.614176 31384 net.cpp:145] Setting up concat_5_25_concat_5_25_0_split
I0404 10:54:11.614193 31384 net.cpp:152] Top shape: 8 1696 4 4 (217088)
I0404 10:54:11.614199 31384 net.cpp:152] Top shape: 8 1696 4 4 (217088)
I0404 10:54:11.614203 31384 net.cpp:160] Memory required for data: 1795638688
I0404 10:54:11.614208 31384 layer_factory.hpp:77] Creating layer conv5_26/x1/bn
I0404 10:54:11.614217 31384 net.cpp:95] Creating Layer conv5_26/x1/bn
I0404 10:54:11.614226 31384 net.cpp:462] conv5_26/x1/bn <- concat_5_25_concat_5_25_0_split_0
I0404 10:54:11.614236 31384 net.cpp:436] conv5_26/x1/bn -> conv5_26/x1/bn
I0404 10:54:11.614493 31384 net.cpp:145] Setting up conv5_26/x1/bn
I0404 10:54:11.614502 31384 net.cpp:152] Top shape: 8 1696 4 4 (217088)
I0404 10:54:11.614506 31384 net.cpp:160] Memory required for data: 1796507040
I0404 10:54:11.614516 31384 layer_factory.hpp:77] Creating layer conv5_26/x1/scale
I0404 10:54:11.614523 31384 net.cpp:95] Creating Layer conv5_26/x1/scale
I0404 10:54:11.614528 31384 net.cpp:462] conv5_26/x1/scale <- conv5_26/x1/bn
I0404 10:54:11.614534 31384 net.cpp:423] conv5_26/x1/scale -> conv5_26/x1/bn (in-place)
I0404 10:54:11.614598 31384 layer_factory.hpp:77] Creating layer conv5_26/x1/scale
I0404 10:54:11.614729 31384 net.cpp:145] Setting up conv5_26/x1/scale
I0404 10:54:11.614737 31384 net.cpp:152] Top shape: 8 1696 4 4 (217088)
I0404 10:54:11.614742 31384 net.cpp:160] Memory required for data: 1797375392
I0404 10:54:11.614748 31384 layer_factory.hpp:77] Creating layer relu5_26/x1
I0404 10:54:11.614755 31384 net.cpp:95] Creating Layer relu5_26/x1
I0404 10:54:11.614760 31384 net.cpp:462] relu5_26/x1 <- conv5_26/x1/bn
I0404 10:54:11.614766 31384 net.cpp:423] relu5_26/x1 -> conv5_26/x1/bn (in-place)
I0404 10:54:11.614935 31384 net.cpp:145] Setting up relu5_26/x1
I0404 10:54:11.614944 31384 net.cpp:152] Top shape: 8 1696 4 4 (217088)
I0404 10:54:11.614948 31384 net.cpp:160] Memory required for data: 1798243744
I0404 10:54:11.614953 31384 layer_factory.hpp:77] Creating layer conv5_26/x1
I0404 10:54:11.614962 31384 net.cpp:95] Creating Layer conv5_26/x1
I0404 10:54:11.614967 31384 net.cpp:462] conv5_26/x1 <- conv5_26/x1/bn
I0404 10:54:11.614974 31384 net.cpp:436] conv5_26/x1 -> conv5_26/x1
I0404 10:54:11.616289 31384 net.cpp:145] Setting up conv5_26/x1
I0404 10:54:11.616302 31384 net.cpp:152] Top shape: 8 128 4 4 (16384)
I0404 10:54:11.616307 31384 net.cpp:160] Memory required for data: 1798309280
I0404 10:54:11.616313 31384 layer_factory.hpp:77] Creating layer conv5_26/x2/bn
I0404 10:54:11.616323 31384 net.cpp:95] Creating Layer conv5_26/x2/bn
I0404 10:54:11.616328 31384 net.cpp:462] conv5_26/x2/bn <- conv5_26/x1
I0404 10:54:11.616335 31384 net.cpp:436] conv5_26/x2/bn -> conv5_26/x2/bn
I0404 10:54:11.616540 31384 net.cpp:145] Setting up conv5_26/x2/bn
I0404 10:54:11.616549 31384 net.cpp:152] Top shape: 8 128 4 4 (16384)
I0404 10:54:11.616554 31384 net.cpp:160] Memory required for data: 1798374816
I0404 10:54:11.616561 31384 layer_factory.hpp:77] Creating layer conv5_26/x2/scale
I0404 10:54:11.616570 31384 net.cpp:95] Creating Layer conv5_26/x2/scale
I0404 10:54:11.616575 31384 net.cpp:462] conv5_26/x2/scale <- conv5_26/x2/bn
I0404 10:54:11.616582 31384 net.cpp:423] conv5_26/x2/scale -> conv5_26/x2/bn (in-place)
I0404 10:54:11.616627 31384 layer_factory.hpp:77] Creating layer conv5_26/x2/scale
I0404 10:54:11.616745 31384 net.cpp:145] Setting up conv5_26/x2/scale
I0404 10:54:11.616753 31384 net.cpp:152] Top shape: 8 128 4 4 (16384)
I0404 10:54:11.616757 31384 net.cpp:160] Memory required for data: 1798440352
I0404 10:54:11.616765 31384 layer_factory.hpp:77] Creating layer relu5_26/x2
I0404 10:54:11.616772 31384 net.cpp:95] Creating Layer relu5_26/x2
I0404 10:54:11.616778 31384 net.cpp:462] relu5_26/x2 <- conv5_26/x2/bn
I0404 10:54:11.616786 31384 net.cpp:423] relu5_26/x2 -> conv5_26/x2/bn (in-place)
I0404 10:54:11.616955 31384 net.cpp:145] Setting up relu5_26/x2
I0404 10:54:11.616963 31384 net.cpp:152] Top shape: 8 128 4 4 (16384)
I0404 10:54:11.616968 31384 net.cpp:160] Memory required for data: 1798505888
I0404 10:54:11.616972 31384 layer_factory.hpp:77] Creating layer conv5_26/x2
I0404 10:54:11.616984 31384 net.cpp:95] Creating Layer conv5_26/x2
I0404 10:54:11.616991 31384 net.cpp:462] conv5_26/x2 <- conv5_26/x2/bn
I0404 10:54:11.616997 31384 net.cpp:436] conv5_26/x2 -> conv5_26/x2
I0404 10:54:11.618165 31384 net.cpp:145] Setting up conv5_26/x2
I0404 10:54:11.618178 31384 net.cpp:152] Top shape: 8 32 4 4 (4096)
I0404 10:54:11.618183 31384 net.cpp:160] Memory required for data: 1798522272
I0404 10:54:11.618191 31384 layer_factory.hpp:77] Creating layer concat_5_26
I0404 10:54:11.618196 31384 net.cpp:95] Creating Layer concat_5_26
I0404 10:54:11.618202 31384 net.cpp:462] concat_5_26 <- concat_5_25_concat_5_25_0_split_1
I0404 10:54:11.618208 31384 net.cpp:462] concat_5_26 <- conv5_26/x2
I0404 10:54:11.618216 31384 net.cpp:436] concat_5_26 -> concat_5_26
I0404 10:54:11.618247 31384 net.cpp:145] Setting up concat_5_26
I0404 10:54:11.618255 31384 net.cpp:152] Top shape: 8 1728 4 4 (221184)
I0404 10:54:11.618259 31384 net.cpp:160] Memory required for data: 1799407008
I0404 10:54:11.618263 31384 layer_factory.hpp:77] Creating layer concat_5_26_concat_5_26_0_split
I0404 10:54:11.618271 31384 net.cpp:95] Creating Layer concat_5_26_concat_5_26_0_split
I0404 10:54:11.618276 31384 net.cpp:462] concat_5_26_concat_5_26_0_split <- concat_5_26
I0404 10:54:11.618283 31384 net.cpp:436] concat_5_26_concat_5_26_0_split -> concat_5_26_concat_5_26_0_split_0
I0404 10:54:11.618290 31384 net.cpp:436] concat_5_26_concat_5_26_0_split -> concat_5_26_concat_5_26_0_split_1
I0404 10:54:11.618331 31384 net.cpp:145] Setting up concat_5_26_concat_5_26_0_split
I0404 10:54:11.618340 31384 net.cpp:152] Top shape: 8 1728 4 4 (221184)
I0404 10:54:11.618355 31384 net.cpp:152] Top shape: 8 1728 4 4 (221184)
I0404 10:54:11.618358 31384 net.cpp:160] Memory required for data: 1801176480
I0404 10:54:11.618363 31384 layer_factory.hpp:77] Creating layer conv5_27/x1/bn
I0404 10:54:11.618371 31384 net.cpp:95] Creating Layer conv5_27/x1/bn
I0404 10:54:11.618376 31384 net.cpp:462] conv5_27/x1/bn <- concat_5_26_concat_5_26_0_split_0
I0404 10:54:11.618383 31384 net.cpp:436] conv5_27/x1/bn -> conv5_27/x1/bn
I0404 10:54:11.618608 31384 net.cpp:145] Setting up conv5_27/x1/bn
I0404 10:54:11.618616 31384 net.cpp:152] Top shape: 8 1728 4 4 (221184)
I0404 10:54:11.618621 31384 net.cpp:160] Memory required for data: 1802061216
I0404 10:54:11.618629 31384 layer_factory.hpp:77] Creating layer conv5_27/x1/scale
I0404 10:54:11.618638 31384 net.cpp:95] Creating Layer conv5_27/x1/scale
I0404 10:54:11.618643 31384 net.cpp:462] conv5_27/x1/scale <- conv5_27/x1/bn
I0404 10:54:11.618649 31384 net.cpp:423] conv5_27/x1/scale -> conv5_27/x1/bn (in-place)
I0404 10:54:11.618700 31384 layer_factory.hpp:77] Creating layer conv5_27/x1/scale
I0404 10:54:11.618830 31384 net.cpp:145] Setting up conv5_27/x1/scale
I0404 10:54:11.618839 31384 net.cpp:152] Top shape: 8 1728 4 4 (221184)
I0404 10:54:11.618844 31384 net.cpp:160] Memory required for data: 1802945952
I0404 10:54:11.618850 31384 layer_factory.hpp:77] Creating layer relu5_27/x1
I0404 10:54:11.618858 31384 net.cpp:95] Creating Layer relu5_27/x1
I0404 10:54:11.618863 31384 net.cpp:462] relu5_27/x1 <- conv5_27/x1/bn
I0404 10:54:11.618870 31384 net.cpp:423] relu5_27/x1 -> conv5_27/x1/bn (in-place)
I0404 10:54:11.619029 31384 net.cpp:145] Setting up relu5_27/x1
I0404 10:54:11.619036 31384 net.cpp:152] Top shape: 8 1728 4 4 (221184)
I0404 10:54:11.619041 31384 net.cpp:160] Memory required for data: 1803830688
I0404 10:54:11.619045 31384 layer_factory.hpp:77] Creating layer conv5_27/x1
I0404 10:54:11.619055 31384 net.cpp:95] Creating Layer conv5_27/x1
I0404 10:54:11.619060 31384 net.cpp:462] conv5_27/x1 <- conv5_27/x1/bn
I0404 10:54:11.619067 31384 net.cpp:436] conv5_27/x1 -> conv5_27/x1
I0404 10:54:11.621417 31384 net.cpp:145] Setting up conv5_27/x1
I0404 10:54:11.621461 31384 net.cpp:152] Top shape: 8 128 4 4 (16384)
I0404 10:54:11.621469 31384 net.cpp:160] Memory required for data: 1803896224
I0404 10:54:11.621480 31384 layer_factory.hpp:77] Creating layer conv5_27/x2/bn
I0404 10:54:11.621495 31384 net.cpp:95] Creating Layer conv5_27/x2/bn
I0404 10:54:11.621503 31384 net.cpp:462] conv5_27/x2/bn <- conv5_27/x1
I0404 10:54:11.621515 31384 net.cpp:436] conv5_27/x2/bn -> conv5_27/x2/bn
I0404 10:54:11.621817 31384 net.cpp:145] Setting up conv5_27/x2/bn
I0404 10:54:11.621829 31384 net.cpp:152] Top shape: 8 128 4 4 (16384)
I0404 10:54:11.621835 31384 net.cpp:160] Memory required for data: 1803961760
I0404 10:54:11.621847 31384 layer_factory.hpp:77] Creating layer conv5_27/x2/scale
I0404 10:54:11.621860 31384 net.cpp:95] Creating Layer conv5_27/x2/scale
I0404 10:54:11.621867 31384 net.cpp:462] conv5_27/x2/scale <- conv5_27/x2/bn
I0404 10:54:11.621876 31384 net.cpp:423] conv5_27/x2/scale -> conv5_27/x2/bn (in-place)
I0404 10:54:11.621942 31384 layer_factory.hpp:77] Creating layer conv5_27/x2/scale
I0404 10:54:11.622138 31384 net.cpp:145] Setting up conv5_27/x2/scale
I0404 10:54:11.622151 31384 net.cpp:152] Top shape: 8 128 4 4 (16384)
I0404 10:54:11.622160 31384 net.cpp:160] Memory required for data: 1804027296
I0404 10:54:11.622174 31384 layer_factory.hpp:77] Creating layer relu5_27/x2
I0404 10:54:11.622189 31384 net.cpp:95] Creating Layer relu5_27/x2
I0404 10:54:11.622200 31384 net.cpp:462] relu5_27/x2 <- conv5_27/x2/bn
I0404 10:54:11.622210 31384 net.cpp:423] relu5_27/x2 -> conv5_27/x2/bn (in-place)
I0404 10:54:11.623178 31384 net.cpp:145] Setting up relu5_27/x2
I0404 10:54:11.623189 31384 net.cpp:152] Top shape: 8 128 4 4 (16384)
I0404 10:54:11.623194 31384 net.cpp:160] Memory required for data: 1804092832
I0404 10:54:11.623199 31384 layer_factory.hpp:77] Creating layer conv5_27/x2
I0404 10:54:11.623208 31384 net.cpp:95] Creating Layer conv5_27/x2
I0404 10:54:11.623214 31384 net.cpp:462] conv5_27/x2 <- conv5_27/x2/bn
I0404 10:54:11.623229 31384 net.cpp:436] conv5_27/x2 -> conv5_27/x2
I0404 10:54:11.625216 31384 net.cpp:145] Setting up conv5_27/x2
I0404 10:54:11.625231 31384 net.cpp:152] Top shape: 8 32 4 4 (4096)
I0404 10:54:11.625236 31384 net.cpp:160] Memory required for data: 1804109216
I0404 10:54:11.625243 31384 layer_factory.hpp:77] Creating layer concat_5_27
I0404 10:54:11.625260 31384 net.cpp:95] Creating Layer concat_5_27
I0404 10:54:11.625267 31384 net.cpp:462] concat_5_27 <- concat_5_26_concat_5_26_0_split_1
I0404 10:54:11.625273 31384 net.cpp:462] concat_5_27 <- conv5_27/x2
I0404 10:54:11.625280 31384 net.cpp:436] concat_5_27 -> concat_5_27
I0404 10:54:11.625316 31384 net.cpp:145] Setting up concat_5_27
I0404 10:54:11.625324 31384 net.cpp:152] Top shape: 8 1760 4 4 (225280)
I0404 10:54:11.625329 31384 net.cpp:160] Memory required for data: 1805010336
I0404 10:54:11.625332 31384 layer_factory.hpp:77] Creating layer concat_5_27_concat_5_27_0_split
I0404 10:54:11.625340 31384 net.cpp:95] Creating Layer concat_5_27_concat_5_27_0_split
I0404 10:54:11.625345 31384 net.cpp:462] concat_5_27_concat_5_27_0_split <- concat_5_27
I0404 10:54:11.625352 31384 net.cpp:436] concat_5_27_concat_5_27_0_split -> concat_5_27_concat_5_27_0_split_0
I0404 10:54:11.625360 31384 net.cpp:436] concat_5_27_concat_5_27_0_split -> concat_5_27_concat_5_27_0_split_1
I0404 10:54:11.625403 31384 net.cpp:145] Setting up concat_5_27_concat_5_27_0_split
I0404 10:54:11.625411 31384 net.cpp:152] Top shape: 8 1760 4 4 (225280)
I0404 10:54:11.625416 31384 net.cpp:152] Top shape: 8 1760 4 4 (225280)
I0404 10:54:11.625421 31384 net.cpp:160] Memory required for data: 1806812576
I0404 10:54:11.625425 31384 layer_factory.hpp:77] Creating layer conv5_28/x1/bn
I0404 10:54:11.625433 31384 net.cpp:95] Creating Layer conv5_28/x1/bn
I0404 10:54:11.625438 31384 net.cpp:462] conv5_28/x1/bn <- concat_5_27_concat_5_27_0_split_0
I0404 10:54:11.628818 31384 net.cpp:436] conv5_28/x1/bn -> conv5_28/x1/bn
I0404 10:54:11.629082 31384 net.cpp:145] Setting up conv5_28/x1/bn
I0404 10:54:11.629104 31384 net.cpp:152] Top shape: 8 1760 4 4 (225280)
I0404 10:54:11.629109 31384 net.cpp:160] Memory required for data: 1807713696
I0404 10:54:11.629118 31384 layer_factory.hpp:77] Creating layer conv5_28/x1/scale
I0404 10:54:11.629127 31384 net.cpp:95] Creating Layer conv5_28/x1/scale
I0404 10:54:11.629133 31384 net.cpp:462] conv5_28/x1/scale <- conv5_28/x1/bn
I0404 10:54:11.629140 31384 net.cpp:423] conv5_28/x1/scale -> conv5_28/x1/bn (in-place)
I0404 10:54:11.629209 31384 layer_factory.hpp:77] Creating layer conv5_28/x1/scale
I0404 10:54:11.629343 31384 net.cpp:145] Setting up conv5_28/x1/scale
I0404 10:54:11.629351 31384 net.cpp:152] Top shape: 8 1760 4 4 (225280)
I0404 10:54:11.629355 31384 net.cpp:160] Memory required for data: 1808614816
I0404 10:54:11.629362 31384 layer_factory.hpp:77] Creating layer relu5_28/x1
I0404 10:54:11.629374 31384 net.cpp:95] Creating Layer relu5_28/x1
I0404 10:54:11.629379 31384 net.cpp:462] relu5_28/x1 <- conv5_28/x1/bn
I0404 10:54:11.629386 31384 net.cpp:423] relu5_28/x1 -> conv5_28/x1/bn (in-place)
I0404 10:54:11.629551 31384 net.cpp:145] Setting up relu5_28/x1
I0404 10:54:11.629560 31384 net.cpp:152] Top shape: 8 1760 4 4 (225280)
I0404 10:54:11.629565 31384 net.cpp:160] Memory required for data: 1809515936
I0404 10:54:11.629570 31384 layer_factory.hpp:77] Creating layer conv5_28/x1
I0404 10:54:11.629580 31384 net.cpp:95] Creating Layer conv5_28/x1
I0404 10:54:11.629585 31384 net.cpp:462] conv5_28/x1 <- conv5_28/x1/bn
I0404 10:54:11.629590 31384 net.cpp:436] conv5_28/x1 -> conv5_28/x1
I0404 10:54:11.631108 31384 net.cpp:145] Setting up conv5_28/x1
I0404 10:54:11.631124 31384 net.cpp:152] Top shape: 8 128 4 4 (16384)
I0404 10:54:11.631129 31384 net.cpp:160] Memory required for data: 1809581472
I0404 10:54:11.631135 31384 layer_factory.hpp:77] Creating layer conv5_28/x2/bn
I0404 10:54:11.631145 31384 net.cpp:95] Creating Layer conv5_28/x2/bn
I0404 10:54:11.631150 31384 net.cpp:462] conv5_28/x2/bn <- conv5_28/x1
I0404 10:54:11.631158 31384 net.cpp:436] conv5_28/x2/bn -> conv5_28/x2/bn
I0404 10:54:11.631377 31384 net.cpp:145] Setting up conv5_28/x2/bn
I0404 10:54:11.631386 31384 net.cpp:152] Top shape: 8 128 4 4 (16384)
I0404 10:54:11.631391 31384 net.cpp:160] Memory required for data: 1809647008
I0404 10:54:11.631399 31384 layer_factory.hpp:77] Creating layer conv5_28/x2/scale
I0404 10:54:11.631407 31384 net.cpp:95] Creating Layer conv5_28/x2/scale
I0404 10:54:11.631412 31384 net.cpp:462] conv5_28/x2/scale <- conv5_28/x2/bn
I0404 10:54:11.631420 31384 net.cpp:423] conv5_28/x2/scale -> conv5_28/x2/bn (in-place)
I0404 10:54:11.631469 31384 layer_factory.hpp:77] Creating layer conv5_28/x2/scale
I0404 10:54:11.631592 31384 net.cpp:145] Setting up conv5_28/x2/scale
I0404 10:54:11.631602 31384 net.cpp:152] Top shape: 8 128 4 4 (16384)
I0404 10:54:11.631606 31384 net.cpp:160] Memory required for data: 1809712544
I0404 10:54:11.631614 31384 layer_factory.hpp:77] Creating layer relu5_28/x2
I0404 10:54:11.631621 31384 net.cpp:95] Creating Layer relu5_28/x2
I0404 10:54:11.631628 31384 net.cpp:462] relu5_28/x2 <- conv5_28/x2/bn
I0404 10:54:11.631633 31384 net.cpp:423] relu5_28/x2 -> conv5_28/x2/bn (in-place)
I0404 10:54:11.631800 31384 net.cpp:145] Setting up relu5_28/x2
I0404 10:54:11.631809 31384 net.cpp:152] Top shape: 8 128 4 4 (16384)
I0404 10:54:11.631814 31384 net.cpp:160] Memory required for data: 1809778080
I0404 10:54:11.631819 31384 layer_factory.hpp:77] Creating layer conv5_28/x2
I0404 10:54:11.631830 31384 net.cpp:95] Creating Layer conv5_28/x2
I0404 10:54:11.631836 31384 net.cpp:462] conv5_28/x2 <- conv5_28/x2/bn
I0404 10:54:11.631844 31384 net.cpp:436] conv5_28/x2 -> conv5_28/x2
I0404 10:54:11.633437 31384 net.cpp:145] Setting up conv5_28/x2
I0404 10:54:11.633450 31384 net.cpp:152] Top shape: 8 32 4 4 (4096)
I0404 10:54:11.633455 31384 net.cpp:160] Memory required for data: 1809794464
I0404 10:54:11.633461 31384 layer_factory.hpp:77] Creating layer concat_5_28
I0404 10:54:11.633471 31384 net.cpp:95] Creating Layer concat_5_28
I0404 10:54:11.633476 31384 net.cpp:462] concat_5_28 <- concat_5_27_concat_5_27_0_split_1
I0404 10:54:11.633494 31384 net.cpp:462] concat_5_28 <- conv5_28/x2
I0404 10:54:11.633502 31384 net.cpp:436] concat_5_28 -> concat_5_28
I0404 10:54:11.633536 31384 net.cpp:145] Setting up concat_5_28
I0404 10:54:11.633544 31384 net.cpp:152] Top shape: 8 1792 4 4 (229376)
I0404 10:54:11.633549 31384 net.cpp:160] Memory required for data: 1810711968
I0404 10:54:11.633553 31384 layer_factory.hpp:77] Creating layer concat_5_28_concat_5_28_0_split
I0404 10:54:11.633560 31384 net.cpp:95] Creating Layer concat_5_28_concat_5_28_0_split
I0404 10:54:11.633565 31384 net.cpp:462] concat_5_28_concat_5_28_0_split <- concat_5_28
I0404 10:54:11.633574 31384 net.cpp:436] concat_5_28_concat_5_28_0_split -> concat_5_28_concat_5_28_0_split_0
I0404 10:54:11.633581 31384 net.cpp:436] concat_5_28_concat_5_28_0_split -> concat_5_28_concat_5_28_0_split_1
I0404 10:54:11.633625 31384 net.cpp:145] Setting up concat_5_28_concat_5_28_0_split
I0404 10:54:11.633633 31384 net.cpp:152] Top shape: 8 1792 4 4 (229376)
I0404 10:54:11.633638 31384 net.cpp:152] Top shape: 8 1792 4 4 (229376)
I0404 10:54:11.633642 31384 net.cpp:160] Memory required for data: 1812546976
I0404 10:54:11.633647 31384 layer_factory.hpp:77] Creating layer conv5_29/x1/bn
I0404 10:54:11.633653 31384 net.cpp:95] Creating Layer conv5_29/x1/bn
I0404 10:54:11.633659 31384 net.cpp:462] conv5_29/x1/bn <- concat_5_28_concat_5_28_0_split_0
I0404 10:54:11.633668 31384 net.cpp:436] conv5_29/x1/bn -> conv5_29/x1/bn
I0404 10:54:11.633890 31384 net.cpp:145] Setting up conv5_29/x1/bn
I0404 10:54:11.633898 31384 net.cpp:152] Top shape: 8 1792 4 4 (229376)
I0404 10:54:11.633903 31384 net.cpp:160] Memory required for data: 1813464480
I0404 10:54:11.633911 31384 layer_factory.hpp:77] Creating layer conv5_29/x1/scale
I0404 10:54:11.633919 31384 net.cpp:95] Creating Layer conv5_29/x1/scale
I0404 10:54:11.633924 31384 net.cpp:462] conv5_29/x1/scale <- conv5_29/x1/bn
I0404 10:54:11.633930 31384 net.cpp:423] conv5_29/x1/scale -> conv5_29/x1/bn (in-place)
I0404 10:54:11.633972 31384 layer_factory.hpp:77] Creating layer conv5_29/x1/scale
I0404 10:54:11.634117 31384 net.cpp:145] Setting up conv5_29/x1/scale
I0404 10:54:11.634126 31384 net.cpp:152] Top shape: 8 1792 4 4 (229376)
I0404 10:54:11.634131 31384 net.cpp:160] Memory required for data: 1814381984
I0404 10:54:11.634137 31384 layer_factory.hpp:77] Creating layer relu5_29/x1
I0404 10:54:11.634145 31384 net.cpp:95] Creating Layer relu5_29/x1
I0404 10:54:11.634150 31384 net.cpp:462] relu5_29/x1 <- conv5_29/x1/bn
I0404 10:54:11.634155 31384 net.cpp:423] relu5_29/x1 -> conv5_29/x1/bn (in-place)
I0404 10:54:11.634328 31384 net.cpp:145] Setting up relu5_29/x1
I0404 10:54:11.634336 31384 net.cpp:152] Top shape: 8 1792 4 4 (229376)
I0404 10:54:11.634341 31384 net.cpp:160] Memory required for data: 1815299488
I0404 10:54:11.634346 31384 layer_factory.hpp:77] Creating layer conv5_29/x1
I0404 10:54:11.634354 31384 net.cpp:95] Creating Layer conv5_29/x1
I0404 10:54:11.634361 31384 net.cpp:462] conv5_29/x1 <- conv5_29/x1/bn
I0404 10:54:11.634366 31384 net.cpp:436] conv5_29/x1 -> conv5_29/x1
I0404 10:54:11.636490 31384 net.cpp:145] Setting up conv5_29/x1
I0404 10:54:11.636503 31384 net.cpp:152] Top shape: 8 128 4 4 (16384)
I0404 10:54:11.636508 31384 net.cpp:160] Memory required for data: 1815365024
I0404 10:54:11.636515 31384 layer_factory.hpp:77] Creating layer conv5_29/x2/bn
I0404 10:54:11.636525 31384 net.cpp:95] Creating Layer conv5_29/x2/bn
I0404 10:54:11.636530 31384 net.cpp:462] conv5_29/x2/bn <- conv5_29/x1
I0404 10:54:11.636538 31384 net.cpp:436] conv5_29/x2/bn -> conv5_29/x2/bn
I0404 10:54:11.636749 31384 net.cpp:145] Setting up conv5_29/x2/bn
I0404 10:54:11.636757 31384 net.cpp:152] Top shape: 8 128 4 4 (16384)
I0404 10:54:11.636761 31384 net.cpp:160] Memory required for data: 1815430560
I0404 10:54:11.636770 31384 layer_factory.hpp:77] Creating layer conv5_29/x2/scale
I0404 10:54:11.636777 31384 net.cpp:95] Creating Layer conv5_29/x2/scale
I0404 10:54:11.636783 31384 net.cpp:462] conv5_29/x2/scale <- conv5_29/x2/bn
I0404 10:54:11.636801 31384 net.cpp:423] conv5_29/x2/scale -> conv5_29/x2/bn (in-place)
I0404 10:54:11.636848 31384 layer_factory.hpp:77] Creating layer conv5_29/x2/scale
I0404 10:54:11.636968 31384 net.cpp:145] Setting up conv5_29/x2/scale
I0404 10:54:11.636977 31384 net.cpp:152] Top shape: 8 128 4 4 (16384)
I0404 10:54:11.636982 31384 net.cpp:160] Memory required for data: 1815496096
I0404 10:54:11.636988 31384 layer_factory.hpp:77] Creating layer relu5_29/x2
I0404 10:54:11.636996 31384 net.cpp:95] Creating Layer relu5_29/x2
I0404 10:54:11.637001 31384 net.cpp:462] relu5_29/x2 <- conv5_29/x2/bn
I0404 10:54:11.637006 31384 net.cpp:423] relu5_29/x2 -> conv5_29/x2/bn (in-place)
I0404 10:54:11.637167 31384 net.cpp:145] Setting up relu5_29/x2
I0404 10:54:11.637176 31384 net.cpp:152] Top shape: 8 128 4 4 (16384)
I0404 10:54:11.637181 31384 net.cpp:160] Memory required for data: 1815561632
I0404 10:54:11.637184 31384 layer_factory.hpp:77] Creating layer conv5_29/x2
I0404 10:54:11.637199 31384 net.cpp:95] Creating Layer conv5_29/x2
I0404 10:54:11.637204 31384 net.cpp:462] conv5_29/x2 <- conv5_29/x2/bn
I0404 10:54:11.637212 31384 net.cpp:436] conv5_29/x2 -> conv5_29/x2
I0404 10:54:11.639050 31384 net.cpp:145] Setting up conv5_29/x2
I0404 10:54:11.639065 31384 net.cpp:152] Top shape: 8 32 4 4 (4096)
I0404 10:54:11.639072 31384 net.cpp:160] Memory required for data: 1815578016
I0404 10:54:11.639083 31384 layer_factory.hpp:77] Creating layer concat_5_29
I0404 10:54:11.639097 31384 net.cpp:95] Creating Layer concat_5_29
I0404 10:54:11.639117 31384 net.cpp:462] concat_5_29 <- concat_5_28_concat_5_28_0_split_1
I0404 10:54:11.639125 31384 net.cpp:462] concat_5_29 <- conv5_29/x2
I0404 10:54:11.639132 31384 net.cpp:436] concat_5_29 -> concat_5_29
I0404 10:54:11.639173 31384 net.cpp:145] Setting up concat_5_29
I0404 10:54:11.639194 31384 net.cpp:152] Top shape: 8 1824 4 4 (233472)
I0404 10:54:11.639200 31384 net.cpp:160] Memory required for data: 1816511904
I0404 10:54:11.639206 31384 layer_factory.hpp:77] Creating layer concat_5_29_concat_5_29_0_split
I0404 10:54:11.639220 31384 net.cpp:95] Creating Layer concat_5_29_concat_5_29_0_split
I0404 10:54:11.639227 31384 net.cpp:462] concat_5_29_concat_5_29_0_split <- concat_5_29
I0404 10:54:11.639237 31384 net.cpp:436] concat_5_29_concat_5_29_0_split -> concat_5_29_concat_5_29_0_split_0
I0404 10:54:11.639247 31384 net.cpp:436] concat_5_29_concat_5_29_0_split -> concat_5_29_concat_5_29_0_split_1
I0404 10:54:11.639307 31384 net.cpp:145] Setting up concat_5_29_concat_5_29_0_split
I0404 10:54:11.639318 31384 net.cpp:152] Top shape: 8 1824 4 4 (233472)
I0404 10:54:11.639325 31384 net.cpp:152] Top shape: 8 1824 4 4 (233472)
I0404 10:54:11.639331 31384 net.cpp:160] Memory required for data: 1818379680
I0404 10:54:11.639338 31384 layer_factory.hpp:77] Creating layer conv5_30/x1/bn
I0404 10:54:11.639346 31384 net.cpp:95] Creating Layer conv5_30/x1/bn
I0404 10:54:11.639354 31384 net.cpp:462] conv5_30/x1/bn <- concat_5_29_concat_5_29_0_split_0
I0404 10:54:11.639365 31384 net.cpp:436] conv5_30/x1/bn -> conv5_30/x1/bn
I0404 10:54:11.639668 31384 net.cpp:145] Setting up conv5_30/x1/bn
I0404 10:54:11.639678 31384 net.cpp:152] Top shape: 8 1824 4 4 (233472)
I0404 10:54:11.639684 31384 net.cpp:160] Memory required for data: 1819313568
I0404 10:54:11.639698 31384 layer_factory.hpp:77] Creating layer conv5_30/x1/scale
I0404 10:54:11.639709 31384 net.cpp:95] Creating Layer conv5_30/x1/scale
I0404 10:54:11.639719 31384 net.cpp:462] conv5_30/x1/scale <- conv5_30/x1/bn
I0404 10:54:11.639729 31384 net.cpp:423] conv5_30/x1/scale -> conv5_30/x1/bn (in-place)
I0404 10:54:11.639798 31384 layer_factory.hpp:77] Creating layer conv5_30/x1/scale
I0404 10:54:11.640053 31384 net.cpp:145] Setting up conv5_30/x1/scale
I0404 10:54:11.640066 31384 net.cpp:152] Top shape: 8 1824 4 4 (233472)
I0404 10:54:11.640075 31384 net.cpp:160] Memory required for data: 1820247456
I0404 10:54:11.640089 31384 layer_factory.hpp:77] Creating layer relu5_30/x1
I0404 10:54:11.640106 31384 net.cpp:95] Creating Layer relu5_30/x1
I0404 10:54:11.640116 31384 net.cpp:462] relu5_30/x1 <- conv5_30/x1/bn
I0404 10:54:11.640144 31384 net.cpp:423] relu5_30/x1 -> conv5_30/x1/bn (in-place)
I0404 10:54:11.640462 31384 net.cpp:145] Setting up relu5_30/x1
I0404 10:54:11.640477 31384 net.cpp:152] Top shape: 8 1824 4 4 (233472)
I0404 10:54:11.640486 31384 net.cpp:160] Memory required for data: 1821181344
I0404 10:54:11.640496 31384 layer_factory.hpp:77] Creating layer conv5_30/x1
I0404 10:54:11.640511 31384 net.cpp:95] Creating Layer conv5_30/x1
I0404 10:54:11.640523 31384 net.cpp:462] conv5_30/x1 <- conv5_30/x1/bn
I0404 10:54:11.640537 31384 net.cpp:436] conv5_30/x1 -> conv5_30/x1
I0404 10:54:11.642546 31384 net.cpp:145] Setting up conv5_30/x1
I0404 10:54:11.642562 31384 net.cpp:152] Top shape: 8 128 4 4 (16384)
I0404 10:54:11.642567 31384 net.cpp:160] Memory required for data: 1821246880
I0404 10:54:11.642575 31384 layer_factory.hpp:77] Creating layer conv5_30/x2/bn
I0404 10:54:11.642585 31384 net.cpp:95] Creating Layer conv5_30/x2/bn
I0404 10:54:11.642590 31384 net.cpp:462] conv5_30/x2/bn <- conv5_30/x1
I0404 10:54:11.642599 31384 net.cpp:436] conv5_30/x2/bn -> conv5_30/x2/bn
I0404 10:54:11.642817 31384 net.cpp:145] Setting up conv5_30/x2/bn
I0404 10:54:11.642824 31384 net.cpp:152] Top shape: 8 128 4 4 (16384)
I0404 10:54:11.642829 31384 net.cpp:160] Memory required for data: 1821312416
I0404 10:54:11.642838 31384 layer_factory.hpp:77] Creating layer conv5_30/x2/scale
I0404 10:54:11.642845 31384 net.cpp:95] Creating Layer conv5_30/x2/scale
I0404 10:54:11.642850 31384 net.cpp:462] conv5_30/x2/scale <- conv5_30/x2/bn
I0404 10:54:11.642856 31384 net.cpp:423] conv5_30/x2/scale -> conv5_30/x2/bn (in-place)
I0404 10:54:11.642907 31384 layer_factory.hpp:77] Creating layer conv5_30/x2/scale
I0404 10:54:11.643030 31384 net.cpp:145] Setting up conv5_30/x2/scale
I0404 10:54:11.643038 31384 net.cpp:152] Top shape: 8 128 4 4 (16384)
I0404 10:54:11.643043 31384 net.cpp:160] Memory required for data: 1821377952
I0404 10:54:11.643049 31384 layer_factory.hpp:77] Creating layer relu5_30/x2
I0404 10:54:11.643056 31384 net.cpp:95] Creating Layer relu5_30/x2
I0404 10:54:11.643061 31384 net.cpp:462] relu5_30/x2 <- conv5_30/x2/bn
I0404 10:54:11.643069 31384 net.cpp:423] relu5_30/x2 -> conv5_30/x2/bn (in-place)
I0404 10:54:11.643702 31384 net.cpp:145] Setting up relu5_30/x2
I0404 10:54:11.643713 31384 net.cpp:152] Top shape: 8 128 4 4 (16384)
I0404 10:54:11.643718 31384 net.cpp:160] Memory required for data: 1821443488
I0404 10:54:11.643723 31384 layer_factory.hpp:77] Creating layer conv5_30/x2
I0404 10:54:11.643735 31384 net.cpp:95] Creating Layer conv5_30/x2
I0404 10:54:11.643741 31384 net.cpp:462] conv5_30/x2 <- conv5_30/x2/bn
I0404 10:54:11.643749 31384 net.cpp:436] conv5_30/x2 -> conv5_30/x2
I0404 10:54:11.644927 31384 net.cpp:145] Setting up conv5_30/x2
I0404 10:54:11.644938 31384 net.cpp:152] Top shape: 8 32 4 4 (4096)
I0404 10:54:11.644943 31384 net.cpp:160] Memory required for data: 1821459872
I0404 10:54:11.644949 31384 layer_factory.hpp:77] Creating layer concat_5_30
I0404 10:54:11.644958 31384 net.cpp:95] Creating Layer concat_5_30
I0404 10:54:11.644964 31384 net.cpp:462] concat_5_30 <- concat_5_29_concat_5_29_0_split_1
I0404 10:54:11.644970 31384 net.cpp:462] concat_5_30 <- conv5_30/x2
I0404 10:54:11.644978 31384 net.cpp:436] concat_5_30 -> concat_5_30
I0404 10:54:11.645010 31384 net.cpp:145] Setting up concat_5_30
I0404 10:54:11.645018 31384 net.cpp:152] Top shape: 8 1856 4 4 (237568)
I0404 10:54:11.645022 31384 net.cpp:160] Memory required for data: 1822410144
I0404 10:54:11.645026 31384 layer_factory.hpp:77] Creating layer concat_5_30_concat_5_30_0_split
I0404 10:54:11.645033 31384 net.cpp:95] Creating Layer concat_5_30_concat_5_30_0_split
I0404 10:54:11.645038 31384 net.cpp:462] concat_5_30_concat_5_30_0_split <- concat_5_30
I0404 10:54:11.661247 31384 net.cpp:436] concat_5_30_concat_5_30_0_split -> concat_5_30_concat_5_30_0_split_0
I0404 10:54:11.661276 31384 net.cpp:436] concat_5_30_concat_5_30_0_split -> concat_5_30_concat_5_30_0_split_1
I0404 10:54:11.661376 31384 net.cpp:145] Setting up concat_5_30_concat_5_30_0_split
I0404 10:54:11.661412 31384 net.cpp:152] Top shape: 8 1856 4 4 (237568)
I0404 10:54:11.661419 31384 net.cpp:152] Top shape: 8 1856 4 4 (237568)
I0404 10:54:11.661423 31384 net.cpp:160] Memory required for data: 1824310688
I0404 10:54:11.661428 31384 layer_factory.hpp:77] Creating layer conv5_31/x1/bn
I0404 10:54:11.661438 31384 net.cpp:95] Creating Layer conv5_31/x1/bn
I0404 10:54:11.661443 31384 net.cpp:462] conv5_31/x1/bn <- concat_5_30_concat_5_30_0_split_0
I0404 10:54:11.661453 31384 net.cpp:436] conv5_31/x1/bn -> conv5_31/x1/bn
I0404 10:54:11.661725 31384 net.cpp:145] Setting up conv5_31/x1/bn
I0404 10:54:11.661732 31384 net.cpp:152] Top shape: 8 1856 4 4 (237568)
I0404 10:54:11.661737 31384 net.cpp:160] Memory required for data: 1825260960
I0404 10:54:11.661748 31384 layer_factory.hpp:77] Creating layer conv5_31/x1/scale
I0404 10:54:11.661758 31384 net.cpp:95] Creating Layer conv5_31/x1/scale
I0404 10:54:11.661763 31384 net.cpp:462] conv5_31/x1/scale <- conv5_31/x1/bn
I0404 10:54:11.661772 31384 net.cpp:423] conv5_31/x1/scale -> conv5_31/x1/bn (in-place)
I0404 10:54:11.661830 31384 layer_factory.hpp:77] Creating layer conv5_31/x1/scale
I0404 10:54:11.661970 31384 net.cpp:145] Setting up conv5_31/x1/scale
I0404 10:54:11.661978 31384 net.cpp:152] Top shape: 8 1856 4 4 (237568)
I0404 10:54:11.661983 31384 net.cpp:160] Memory required for data: 1826211232
I0404 10:54:11.661989 31384 layer_factory.hpp:77] Creating layer relu5_31/x1
I0404 10:54:11.661998 31384 net.cpp:95] Creating Layer relu5_31/x1
I0404 10:54:11.662003 31384 net.cpp:462] relu5_31/x1 <- conv5_31/x1/bn
I0404 10:54:11.662009 31384 net.cpp:423] relu5_31/x1 -> conv5_31/x1/bn (in-place)
I0404 10:54:11.662225 31384 net.cpp:145] Setting up relu5_31/x1
I0404 10:54:11.662235 31384 net.cpp:152] Top shape: 8 1856 4 4 (237568)
I0404 10:54:11.662240 31384 net.cpp:160] Memory required for data: 1827161504
I0404 10:54:11.662245 31384 layer_factory.hpp:77] Creating layer conv5_31/x1
I0404 10:54:11.662256 31384 net.cpp:95] Creating Layer conv5_31/x1
I0404 10:54:11.662261 31384 net.cpp:462] conv5_31/x1 <- conv5_31/x1/bn
I0404 10:54:11.662268 31384 net.cpp:436] conv5_31/x1 -> conv5_31/x1
I0404 10:54:11.665552 31384 net.cpp:145] Setting up conv5_31/x1
I0404 10:54:11.665583 31384 net.cpp:152] Top shape: 8 128 4 4 (16384)
I0404 10:54:11.665591 31384 net.cpp:160] Memory required for data: 1827227040
I0404 10:54:11.665606 31384 layer_factory.hpp:77] Creating layer conv5_31/x2/bn
I0404 10:54:11.665624 31384 net.cpp:95] Creating Layer conv5_31/x2/bn
I0404 10:54:11.665635 31384 net.cpp:462] conv5_31/x2/bn <- conv5_31/x1
I0404 10:54:11.665650 31384 net.cpp:436] conv5_31/x2/bn -> conv5_31/x2/bn
I0404 10:54:11.666083 31384 net.cpp:145] Setting up conv5_31/x2/bn
I0404 10:54:11.666098 31384 net.cpp:152] Top shape: 8 128 4 4 (16384)
I0404 10:54:11.666108 31384 net.cpp:160] Memory required for data: 1827292576
I0404 10:54:11.666124 31384 layer_factory.hpp:77] Creating layer conv5_31/x2/scale
I0404 10:54:11.666142 31384 net.cpp:95] Creating Layer conv5_31/x2/scale
I0404 10:54:11.666153 31384 net.cpp:462] conv5_31/x2/scale <- conv5_31/x2/bn
I0404 10:54:11.666165 31384 net.cpp:423] conv5_31/x2/scale -> conv5_31/x2/bn (in-place)
I0404 10:54:11.666254 31384 layer_factory.hpp:77] Creating layer conv5_31/x2/scale
I0404 10:54:11.666497 31384 net.cpp:145] Setting up conv5_31/x2/scale
I0404 10:54:11.666508 31384 net.cpp:152] Top shape: 8 128 4 4 (16384)
I0404 10:54:11.666514 31384 net.cpp:160] Memory required for data: 1827358112
I0404 10:54:11.666527 31384 layer_factory.hpp:77] Creating layer relu5_31/x2
I0404 10:54:11.666539 31384 net.cpp:95] Creating Layer relu5_31/x2
I0404 10:54:11.666549 31384 net.cpp:462] relu5_31/x2 <- conv5_31/x2/bn
I0404 10:54:11.666558 31384 net.cpp:423] relu5_31/x2 -> conv5_31/x2/bn (in-place)
I0404 10:54:11.666815 31384 net.cpp:145] Setting up relu5_31/x2
I0404 10:54:11.666829 31384 net.cpp:152] Top shape: 8 128 4 4 (16384)
I0404 10:54:11.666836 31384 net.cpp:160] Memory required for data: 1827423648
I0404 10:54:11.666843 31384 layer_factory.hpp:77] Creating layer conv5_31/x2
I0404 10:54:11.666882 31384 net.cpp:95] Creating Layer conv5_31/x2
I0404 10:54:11.666891 31384 net.cpp:462] conv5_31/x2 <- conv5_31/x2/bn
I0404 10:54:11.666903 31384 net.cpp:436] conv5_31/x2 -> conv5_31/x2
I0404 10:54:11.669054 31384 net.cpp:145] Setting up conv5_31/x2
I0404 10:54:11.669078 31384 net.cpp:152] Top shape: 8 32 4 4 (4096)
I0404 10:54:11.669095 31384 net.cpp:160] Memory required for data: 1827440032
I0404 10:54:11.669106 31384 layer_factory.hpp:77] Creating layer concat_5_31
I0404 10:54:11.669114 31384 net.cpp:95] Creating Layer concat_5_31
I0404 10:54:11.669122 31384 net.cpp:462] concat_5_31 <- concat_5_30_concat_5_30_0_split_1
I0404 10:54:11.669132 31384 net.cpp:462] concat_5_31 <- conv5_31/x2
I0404 10:54:11.669139 31384 net.cpp:436] concat_5_31 -> concat_5_31
I0404 10:54:11.669179 31384 net.cpp:145] Setting up concat_5_31
I0404 10:54:11.669188 31384 net.cpp:152] Top shape: 8 1888 4 4 (241664)
I0404 10:54:11.669198 31384 net.cpp:160] Memory required for data: 1828406688
I0404 10:54:11.669203 31384 layer_factory.hpp:77] Creating layer concat_5_31_concat_5_31_0_split
I0404 10:54:11.669209 31384 net.cpp:95] Creating Layer concat_5_31_concat_5_31_0_split
I0404 10:54:11.669215 31384 net.cpp:462] concat_5_31_concat_5_31_0_split <- concat_5_31
I0404 10:54:11.669222 31384 net.cpp:436] concat_5_31_concat_5_31_0_split -> concat_5_31_concat_5_31_0_split_0
I0404 10:54:11.669230 31384 net.cpp:436] concat_5_31_concat_5_31_0_split -> concat_5_31_concat_5_31_0_split_1
I0404 10:54:11.669275 31384 net.cpp:145] Setting up concat_5_31_concat_5_31_0_split
I0404 10:54:11.669283 31384 net.cpp:152] Top shape: 8 1888 4 4 (241664)
I0404 10:54:11.669288 31384 net.cpp:152] Top shape: 8 1888 4 4 (241664)
I0404 10:54:11.669293 31384 net.cpp:160] Memory required for data: 1830340000
I0404 10:54:11.669297 31384 layer_factory.hpp:77] Creating layer conv5_32/x1/bn
I0404 10:54:11.669306 31384 net.cpp:95] Creating Layer conv5_32/x1/bn
I0404 10:54:11.669312 31384 net.cpp:462] conv5_32/x1/bn <- concat_5_31_concat_5_31_0_split_0
I0404 10:54:11.669319 31384 net.cpp:436] conv5_32/x1/bn -> conv5_32/x1/bn
I0404 10:54:11.669564 31384 net.cpp:145] Setting up conv5_32/x1/bn
I0404 10:54:11.669571 31384 net.cpp:152] Top shape: 8 1888 4 4 (241664)
I0404 10:54:11.669576 31384 net.cpp:160] Memory required for data: 1831306656
I0404 10:54:11.669585 31384 layer_factory.hpp:77] Creating layer conv5_32/x1/scale
I0404 10:54:11.669595 31384 net.cpp:95] Creating Layer conv5_32/x1/scale
I0404 10:54:11.669600 31384 net.cpp:462] conv5_32/x1/scale <- conv5_32/x1/bn
I0404 10:54:11.669605 31384 net.cpp:423] conv5_32/x1/scale -> conv5_32/x1/bn (in-place)
I0404 10:54:11.669664 31384 layer_factory.hpp:77] Creating layer conv5_32/x1/scale
I0404 10:54:11.669801 31384 net.cpp:145] Setting up conv5_32/x1/scale
I0404 10:54:11.669809 31384 net.cpp:152] Top shape: 8 1888 4 4 (241664)
I0404 10:54:11.669813 31384 net.cpp:160] Memory required for data: 1832273312
I0404 10:54:11.669821 31384 layer_factory.hpp:77] Creating layer relu5_32/x1
I0404 10:54:11.669829 31384 net.cpp:95] Creating Layer relu5_32/x1
I0404 10:54:11.669834 31384 net.cpp:462] relu5_32/x1 <- conv5_32/x1/bn
I0404 10:54:11.669840 31384 net.cpp:423] relu5_32/x1 -> conv5_32/x1/bn (in-place)
I0404 10:54:11.670013 31384 net.cpp:145] Setting up relu5_32/x1
I0404 10:54:11.670024 31384 net.cpp:152] Top shape: 8 1888 4 4 (241664)
I0404 10:54:11.670028 31384 net.cpp:160] Memory required for data: 1833239968
I0404 10:54:11.670033 31384 layer_factory.hpp:77] Creating layer conv5_32/x1
I0404 10:54:11.670042 31384 net.cpp:95] Creating Layer conv5_32/x1
I0404 10:54:11.670047 31384 net.cpp:462] conv5_32/x1 <- conv5_32/x1/bn
I0404 10:54:11.670056 31384 net.cpp:436] conv5_32/x1 -> conv5_32/x1
I0404 10:54:11.671542 31384 net.cpp:145] Setting up conv5_32/x1
I0404 10:54:11.671555 31384 net.cpp:152] Top shape: 8 128 4 4 (16384)
I0404 10:54:11.671561 31384 net.cpp:160] Memory required for data: 1833305504
I0404 10:54:11.671567 31384 layer_factory.hpp:77] Creating layer conv5_32/x2/bn
I0404 10:54:11.671596 31384 net.cpp:95] Creating Layer conv5_32/x2/bn
I0404 10:54:11.671602 31384 net.cpp:462] conv5_32/x2/bn <- conv5_32/x1
I0404 10:54:11.671609 31384 net.cpp:436] conv5_32/x2/bn -> conv5_32/x2/bn
I0404 10:54:11.671825 31384 net.cpp:145] Setting up conv5_32/x2/bn
I0404 10:54:11.671833 31384 net.cpp:152] Top shape: 8 128 4 4 (16384)
I0404 10:54:11.671838 31384 net.cpp:160] Memory required for data: 1833371040
I0404 10:54:11.671846 31384 layer_factory.hpp:77] Creating layer conv5_32/x2/scale
I0404 10:54:11.671855 31384 net.cpp:95] Creating Layer conv5_32/x2/scale
I0404 10:54:11.671870 31384 net.cpp:462] conv5_32/x2/scale <- conv5_32/x2/bn
I0404 10:54:11.671876 31384 net.cpp:423] conv5_32/x2/scale -> conv5_32/x2/bn (in-place)
I0404 10:54:11.671926 31384 layer_factory.hpp:77] Creating layer conv5_32/x2/scale
I0404 10:54:11.672046 31384 net.cpp:145] Setting up conv5_32/x2/scale
I0404 10:54:11.672053 31384 net.cpp:152] Top shape: 8 128 4 4 (16384)
I0404 10:54:11.672058 31384 net.cpp:160] Memory required for data: 1833436576
I0404 10:54:11.672065 31384 layer_factory.hpp:77] Creating layer relu5_32/x2
I0404 10:54:11.672071 31384 net.cpp:95] Creating Layer relu5_32/x2
I0404 10:54:11.672076 31384 net.cpp:462] relu5_32/x2 <- conv5_32/x2/bn
I0404 10:54:11.672083 31384 net.cpp:423] relu5_32/x2 -> conv5_32/x2/bn (in-place)
I0404 10:54:11.672240 31384 net.cpp:145] Setting up relu5_32/x2
I0404 10:54:11.672250 31384 net.cpp:152] Top shape: 8 128 4 4 (16384)
I0404 10:54:11.672253 31384 net.cpp:160] Memory required for data: 1833502112
I0404 10:54:11.672257 31384 layer_factory.hpp:77] Creating layer conv5_32/x2
I0404 10:54:11.672267 31384 net.cpp:95] Creating Layer conv5_32/x2
I0404 10:54:11.672272 31384 net.cpp:462] conv5_32/x2 <- conv5_32/x2/bn
I0404 10:54:11.672281 31384 net.cpp:436] conv5_32/x2 -> conv5_32/x2
I0404 10:54:11.673590 31384 net.cpp:145] Setting up conv5_32/x2
I0404 10:54:11.673604 31384 net.cpp:152] Top shape: 8 32 4 4 (4096)
I0404 10:54:11.673609 31384 net.cpp:160] Memory required for data: 1833518496
I0404 10:54:11.673615 31384 layer_factory.hpp:77] Creating layer concat_5_32
I0404 10:54:11.673624 31384 net.cpp:95] Creating Layer concat_5_32
I0404 10:54:11.673630 31384 net.cpp:462] concat_5_32 <- concat_5_31_concat_5_31_0_split_1
I0404 10:54:11.673636 31384 net.cpp:462] concat_5_32 <- conv5_32/x2
I0404 10:54:11.673645 31384 net.cpp:436] concat_5_32 -> concat_5_32
I0404 10:54:11.673676 31384 net.cpp:145] Setting up concat_5_32
I0404 10:54:11.673684 31384 net.cpp:152] Top shape: 8 1920 4 4 (245760)
I0404 10:54:11.673688 31384 net.cpp:160] Memory required for data: 1834501536
I0404 10:54:11.673693 31384 layer_factory.hpp:77] Creating layer conv5_32/blk/bn
I0404 10:54:11.673702 31384 net.cpp:95] Creating Layer conv5_32/blk/bn
I0404 10:54:11.673707 31384 net.cpp:462] conv5_32/blk/bn <- concat_5_32
I0404 10:54:11.673717 31384 net.cpp:436] conv5_32/blk/bn -> conv5_32/blk/bn
I0404 10:54:11.673940 31384 net.cpp:145] Setting up conv5_32/blk/bn
I0404 10:54:11.673949 31384 net.cpp:152] Top shape: 8 1920 4 4 (245760)
I0404 10:54:11.673954 31384 net.cpp:160] Memory required for data: 1835484576
I0404 10:54:11.673961 31384 layer_factory.hpp:77] Creating layer conv5_32/blk/scale
I0404 10:54:11.673970 31384 net.cpp:95] Creating Layer conv5_32/blk/scale
I0404 10:54:11.673975 31384 net.cpp:462] conv5_32/blk/scale <- conv5_32/blk/bn
I0404 10:54:11.673981 31384 net.cpp:423] conv5_32/blk/scale -> conv5_32/blk/bn (in-place)
I0404 10:54:11.674049 31384 layer_factory.hpp:77] Creating layer conv5_32/blk/scale
I0404 10:54:11.674211 31384 net.cpp:145] Setting up conv5_32/blk/scale
I0404 10:54:11.674230 31384 net.cpp:152] Top shape: 8 1920 4 4 (245760)
I0404 10:54:11.674235 31384 net.cpp:160] Memory required for data: 1836467616
I0404 10:54:11.674242 31384 layer_factory.hpp:77] Creating layer relu5_32/blk
I0404 10:54:11.674252 31384 net.cpp:95] Creating Layer relu5_32/blk
I0404 10:54:11.674257 31384 net.cpp:462] relu5_32/blk <- conv5_32/blk/bn
I0404 10:54:11.674263 31384 net.cpp:423] relu5_32/blk -> conv5_32/blk/bn (in-place)
I0404 10:54:11.674466 31384 net.cpp:145] Setting up relu5_32/blk
I0404 10:54:11.674485 31384 net.cpp:152] Top shape: 8 1920 4 4 (245760)
I0404 10:54:11.674490 31384 net.cpp:160] Memory required for data: 1837450656
I0404 10:54:11.674504 31384 layer_factory.hpp:77] Creating layer pool5
I0404 10:54:11.674525 31384 net.cpp:95] Creating Layer pool5
I0404 10:54:11.674530 31384 net.cpp:462] pool5 <- conv5_32/blk/bn
I0404 10:54:11.674546 31384 net.cpp:436] pool5 -> pool5
I0404 10:54:11.675271 31384 net.cpp:145] Setting up pool5
I0404 10:54:11.675283 31384 net.cpp:152] Top shape: 8 1920 1 1 (15360)
I0404 10:54:11.675288 31384 net.cpp:160] Memory required for data: 1837512096
I0404 10:54:11.675292 31384 layer_factory.hpp:77] Creating layer fc6_ccf
I0404 10:54:11.675303 31384 net.cpp:95] Creating Layer fc6_ccf
I0404 10:54:11.675309 31384 net.cpp:462] fc6_ccf <- pool5
I0404 10:54:11.675319 31384 net.cpp:436] fc6_ccf -> fc6_ccf
I0404 10:54:11.676713 31384 net.cpp:145] Setting up fc6_ccf
I0404 10:54:11.676726 31384 net.cpp:152] Top shape: 8 10 1 1 (80)
I0404 10:54:11.676731 31384 net.cpp:160] Memory required for data: 1837512416
I0404 10:54:11.676739 31384 layer_factory.hpp:77] Creating layer accuracy
I0404 10:54:11.676753 31384 net.cpp:95] Creating Layer accuracy
I0404 10:54:11.676757 31384 net.cpp:462] accuracy <- fc6_ccf
I0404 10:54:11.676764 31384 net.cpp:462] accuracy <- label
I0404 10:54:11.676772 31384 net.cpp:436] accuracy -> accuracy
…
